Assets/Models/1719336195_ArcSmoothPursuit.onnx (onnx, 4509 bytes, 4 tensors)

net.0.weight f4 [32, 27]
0	0x3dda76f7	0.10667222
1	0xbdecc05d	-0.11560128
2	0x3e16e8bd	0.1473722
3	0xbe453454	-0.19258243
4	0xbdcb1d7a	-0.099177316
5	0x3dd6e422	0.10492732
6	0xbe8bb54e	-0.27286762
7	0xbdd552db	-0.10416194
8	0x3dc9243f	0.098213665
9	0x3d3a289a	0.045448877
10	0x3d0307a9	0.031989727
11	0x3d9908bf	0.07472371
12	0x3c41ba9f	0.011824279
13	0xbd8f9c7c	-0.07012269
14	0xbe4f5e2e	-0.2025077
15	0xbd87f800	-0.06639099
16	0x3d46c96d	0.04853194
17	0xbe5ad0ed	-0.21368761
18	0xbd8c1dea	-0.06841643
19	0x3d2e46bf	0.042547937
20	0xbdcff6c1	-0.101544864
21	0x3db4a7f0	0.08821094
22	0x3e324b28	0.17411482
23	0x3dafb1dd	0.085788466
24	0x3ec918ad	0.3927664
25	0x3cdd9740	0.02704966
26	0x3db015af	0.08597886
27	0x3cf7cf3f	0.03025019
28	0x3e0ea20c	0.13929003
29	0xbe16d996	-0.1473144
30	0x3d975534	0.07389298
31	0xbc454579	-0.012040489
32	0xbcdd8da6	-0.027045082
33	0x3cbcab2c	0.02303084
34	0x3e842b3a	0.2581423
35	0x3d3ef9b0	0.04662484
36	0xbdfaa4fd	-0.122385
37	0xbdf20780	-0.11817837
38	0x3d6440d4	0.055725887
39	0xbe1e312b	-0.15448444
40	0x3e1d72ad	0.15375777
41	0xbdf912f2	-0.12161817
42	0x3ca05093	0.01956967
43	0xbd878bf9	-0.066184945
44	0x3e29b4d1	0.16572882
45	0xbd9b2995	-0.075762905
46	0xbc944106	-0.018097412
47	0x3dfa80e1	0.12231613
48	0x3e552795	0.2081588
49	0x3dfddae8	0.12395269
50	0x3e30039b	0.17188875
51	0xbe03372f	-0.1281402
52	0xbed64904	-0.41852582
53	0xbcb81548	-0.022471085
54	0xbc0eb074	-0.008709062
55	0xbe19eaea	-0.15031019
56	0xba991723	-0.0011679869
57	0x3c631ab9	0.013861352
58	0x3e3d6dc2	0.184989
59	0x3d9a1b31	0.075247176
60	0xbe899642	-0.2687245
61	0x3c5bcc69	0.013415434
62	0xbc0fd6ac	-0.008779209
63	0xbe0d8fd6	-0.138244
64	0x3e3c8049	0.18408312
65	0xbce3d2d2	-0.027810488
66	0xbdaaca93	-0.08339419
67	0x3d699a1b	0.057031732
68	0x3e0f4ce3	0.13994174
69	0x3d7074d5	0.05870517
70	0xbc202395	-0.009774108
71	0xbdc28df4	-0.09499732
72	0xbce795f1	-0.02826974
73	0xbcb68177	-0.02227853
74	0xbe144ece	-0.14483187
75	0x3c682203	0.014168265
76	0xbe7a0d53	-0.24419145
77	0xbd7108d1	-0.0588463
78	0x3e803592	0.2504087
79	0x3c5373f9	0.012906068
80	0x3cec567b	0.02884983
81	0x3d7e59f4	0.062097505
82	0x3e19fe18	0.15038335
83	0x3e1c1963	0.1524406
84	0xbd66b782	-0.05632735
85	0x3d8f706d	0.070038654
86	0x3d3a7424	0.045520917
87	0xbe302e5f	-0.17205189
88	0xbe22a2f9	-0.15882482
89	0x3e11d5c4	0.14241701
90	0xbe1509b1	-0.14554478
91	0xbdc99ad5	-0.09843985
92	0x3cb26f06	0.021781456
93	0x3d473ba2	0.048640855
94	0x3e10a657	0.14125954
95	0x3dfe938c	0.12430486
96	0x3deca29f	0.11554455
97	0x3e19d6fc	0.15023416
98	0x3dcc797a	0.09984107
99	0xbe3720f9	-0.17883672
100	0xbdd8a1e1	-0.10577751
101	0xbe46dbd1	-0.19419791
102	0x3e00d9fd	0.12583156
103	0xbdd7b0b2	-0.10531749
104	0x3e1de13c	0.15417951
105	0x3ea24379	0.31692103
106	0xbd821e53	-0.0635344
107	0xbe56eee9	-0.20989574
108	0xbce1b24d	-0.02755084
109	0x3d94ceb0	0.07265985
110	0x3e1a378a	0.15060249
111	0xbc88e9dc	-0.016713075
112	0xbd9b393d	-0.07579277
113	0xbd964451	-0.07337249
114	0x3c8f43b0	0.01748833
115	0x3d353f74	0.044249967
116	0x3e517156	0.2045339
117	0x3e2685a4	0.16261917
118	0x3df361a1	0.118838556
119	0x3e33747b	0.17524903
120	0x3e292f00	0.16521835
121	0x3e34db7c	0.17661852
122	0x3e3c734f	0.18403362
123	0x3e2bd670	0.1678102
124	0x3e1e54a2	0.15461972
125	0xbc0b5839	-0.008504921
126	0x3e0754b3	0.13215904
127	0xbe0b12d7	-0.13581406
128	0x3d7df2bc	0.061999068
129	0xbdd4f2c0	-0.103978634
130	0xbe0cb44e	-0.13740656
131	0x3d8fc138	0.070192754
132	0x3ed3b205	0.41346756
133	0x3d924955	0.07142893
134	0xbdc62bb4	-0.096763045
135	0x3b9c8ee2	0.004777775
136	0xbda9f9b3	-0.082995795
137	0xbc0f57aa	-0.008748928
138	0xbc7c2f73	-0.015392172
139	0x3de2017e	0.11035441
140	0x3e2db0d8	0.16961992
141	0xbd5028fe	-0.050820343
142	0xbda46116	-0.0802633
143	0x3de98217	0.11401766
144	0x3bb63e52	0.0055616284
145	0xbded84b5	-0.115975775
146	0x3d757e11	0.05993468
147	0x3d936e3e	0.071987614
148	0x3e02e4b4	0.12782556
149	0xbd93aefc	-0.0721111
150	0xbd32a161	-0.043610934
151	0xbdc40bf0	-0.095725894
152	0x3e1f73d0	0.15571523
153	0xbd44b449	-0.048023496
154	0x3dc9468d	0.098279096
155	0x3de62262	0.11237027
156	0x3c7e6f94	0.015529532
157	0xbdc94e8c	-0.09829435
158	0xbe0c62d2	-0.13709572
159	0x3e5eb823	0.2174993
160	0x3ecf0b37	0.40438244
161	0xbe5b5ba9	-0.21421684
162	0xbc6d02ac	-0.014465969
163	0x3e658d1c	0.2241711
164	0x3e114ac3	0.14188676
165	0xbe4ffb7b	-0.20310776
166	0x3ce47a19	0.027890252
167	0xbe13d4ad	-0.14436598
168	0xbdcda130	-0.1004051
169	0xbe27170b	-0.16317384
170	0x3e2f939b	0.17146151
171	0x3d0c87ca	0.034309186
172	0x3e4882f2	0.19581202
173	0xbd7ffc4a	-0.06249646
174	0x3c24ebe0	0.010066003
175	0x3b63bd74	0.0034750374
176	0x3e4535e5	0.1925884
177	0xbdbb980e	-0.091598615
178	0x3dc2a0f8	0.095033586
179	0x3e356c8e	0.17717192
180	0x3c8a1b93	0.016858852
181	0x3e1c85ff	0.1528549
182	0x3e13930f	0.14411567
183	0xbe1b4684	-0.15163618
184	0x3dad53d9	0.08463258
185	0x3e5c12d3	0.21491556
186	0xbeb5b069	-0.35486153
187	0x3edc4d99	0.43027952
188	0x3e3978ca	0.18112484
189	0xbe2f12ff	-0.1709709
190	0x3e0df691	0.13863589
191	0x3dd8d789	0.10587985
192	0xbe12d898	-0.14340436
193	0xbd9b4180	-0.075808525
194	0x3e3b2692	0.18276432
195	0xbe1efb52	-0.15525559
196	0x3dd1df0a	0.102476195
197	0x3db124a7	0.08649569
198	0xbdbcf25c	-0.09225914
199	0x3db1ee98	0.08688086
200	0x3df88d26	0.12136297
201	0xbdeb3b11	-0.114858754
202	0xbdae1f4b	-0.085020624
203	0xbe1f4f7f	-0.15557669
204	0x3d76b8d8	0.060234874
205	0xbcef7942	-0.029232625
206	0xbe0ec9ab	-0.13944118
207	0xbbb2aec2	-0.0054529617
208	0x3d88be6a	0.066769436
209	0xbe04807d	-0.1293964
210	0x3d902979	0.0703916
211	0xbdd6b5cd	-0.104838945
212	0x3e31d4c4	0.1736632
213	0xbd0b83d8	-0.034061283
214	0xbeaf0709	-0.34185055
215	0x3e382343	0.17982201
216	0xbd40bc43	-0.04705454
217	0xbcfae706	-0.030627739
218	0xbd1370fe	-0.03599643
219	0xbdb1c8c1	-0.08680869
220	0x3e0328f1	0.12808587
221	0xbdaefdf0	-0.085445285
222	0xbeaa3043	-0.33239946
223	0xbde1f264	-0.110325605
224	0xbcb35777	-0.021892292
225	0x3ce05b2a	0.02738722
226	0xbdb146ec	-0.086561054
227	0x3e14d2a6	0.14533481
228	0xbc3f507c	-0.011676904
229	0x3c5f9aa6	0.013647711
230	0xbcbaf97b	-0.02282404
231	0xbcdc6199	-0.026902007
232	0xbc64617d	-0.013939259
233	0x3cd28b63	0.02570123
234	0x3db2b6f3	0.08726301
235	0x3d8da7e4	0.06916788
236	0x3dce511b	0.100740634
237	0x3c54a176	0.012977948
238	0xbe114221	-0.14185382
239	0x3e08e17e	0.13367268
240	0x3ec8c75e	0.39214605
241	0x3e2594b4	0.16170007
242	0xbe1f4237	-0.15552603
243	0x3e4bf62e	0.19918129
244	0x3d8a7985	0.06761459
245	0x3cc7e67e	0.0244019
246	0xbd874efe	-0.066068634
247	0x3c9dc87d	0.01926064
248	0xbe02ac63	-0.12761073
249	0x3e10f0ac	0.14154309
250	0xbd97b6aa	-0.07407887
251	0xbe1a654f	-0.15077709
252	0x3dc10d06	0.09426312
253	0xbd74e690	-0.059790194
254	0x3e40cb50	0.18827558
255	0x3e5165d6	0.20449004

net.0.bias f4 [32]
0	0xbd10f34f	-0.035388287
1	0x3e06809b	0.13134997
2	0x3de65763	0.112471364
3	0xbdabbb7c	-0.08385369
4	0x3a66ae47	0.0008799773
5	0x3d9a3765	0.07530097
6	0x3e3a9d2d	0.1822402
7	0x3c4c28c9	0.012460896
8	0xbd859064	-0.06521681
9	0x3dacb6db	0.084333144
10	0x3e519cbb	0.20469944
11	0x3e887e0a	0.2665866
12	0x3ddac48c	0.106820196
13	0xbdfc4757	-0.123182945
14	0xbd319467	-0.043354418
15	0x3e2a8052	0.16650513
16	0xbdcc074a	-0.09962328
17	0x3e3bb559	0.18330897
18	0x3e7d6641	0.24746038
19	0x3da77433	0.0817646
20	0x3bbe467e	0.005806743
21	0xbd0d0e8b	-0.034437697
22	0xbd88232a	-0.06647332
23	0xbe1ebe30	-0.15502238
24	0x3e32ff27	0.17480145
25	0x3dc130b7	0.0943312
26	0x3dc85b20	0.09783006
27	0x3c6495dd	0.013951746
28	0xbc684236	-0.014175942
29	0x3de6d789	0.11271579
30	0x3d80f4a7	0.06296664
31	0x3e56b88b	0.20968835

net.2.weight f4 [3, 32]
0	0x3e14df47	0.14538299
1	0xbd036585	-0.03207924
2	0x3d98b501	0.07456399
3	0x3e23671c	0.15957302
4	0x3e7e5f7d	0.24841113
5	0x3dcf2311	0.1011411
6	0xbd923562	-0.07139088
7	0xbd60dea9	-0.054899845
8	0x3e331adb	0.17490713
9	0xbbc54adb	-0.0060208864
10	0xbe8559cc	-0.26045072
11	0x3c635cef	0.013877138
12	0x3da4780a	0.08030708
13	0x3db3ac0e	0.08773051
14	0x3e028094	0.12744361
15	0xbe1c8740	-0.15285969
16	0xbd08e85f	-0.03342473
17	0x3cc2cfc6	0.023780715
18	0x3e62d5a7	0.22151814
19	0xbe1763cb	-0.14784162
20	0xbd3b2159	-0.0456861
21	0x3e3173b9	0.17329301
22	0xbe7d2edd	-0.24724908
23	0xbdfeef64	-0.12448004
24	0xbe2027e0	-0.15640211
25	0x3e0040a9	0.12524666
26	0xbdcb4f40	-0.09927225
27	0xbd60dfa1	-0.05490077
28	0xbdeb3862	-0.114853635
29	0x3e6c9481	0.23103525
30	0x3d8e0b2e	0.06935726
31	0x3e3aabf4	0.18229657
32	0xbc4797e6	-0.0121822115
33	0xbe362c23	-0.17790274
34	0xb924aa5f	-0.00015703727
35	0x3d1d440f	0.038394984
36	0x3e25b9fe	0.16184232
37	0x3e268dcc	0.16265029
38	0x3e286611	0.16445185
39	0xbdf7fc71	-0.12108696
40	0x3d399c90	0.045315325
41	0x3dbac940	0.09120417
42	0x3d8eefd6	0.06979339
43	0xbe370e91	-0.1787665
44	0xbccfdec8	-0.025374785
45	0x3e158d93	0.14604788
46	0xbe347538	-0.1762284
47	0xbe436b16	-0.19083819
48	0x3dea4c1c	0.11440298
49	0x3c764c7e	0.015032886
50	0xbe1461c6	-0.14490423
51	0x3e07df58	0.13268793
52	0xbddc41e0	-0.10754752
53	0x3e7636a9	0.24044289
54	0xbddb67f8	-0.1071319
55	0xbdcae427	-0.09906798
56	0x3e1a82f2	0.15089014
57	0xbe30187c	-0.1719684
58	0xbe180368	-0.1484505
59	0x3dee730d	0.11643038
60	0xbe21a95c	-0.15787262
61	0x3e32c6c5	0.17458637
62	0xbe6db948	-0.2321521
63	0xbe87a087	-0.2648966
64	0xbc349de3	-0.011023971
65	0x3dfbcf02	0.12295343
66	0x3bd65d3b	0.0065418757
67	0xbdf6d134	-0.12051621
68	0x3e0c2f99	0.13690032
69	0xbdb0a91c	-0.08626005
70	0x3e04b49a	0.12959519
71	0x3e07021b	0.13184397
72	0xbd3e364b	-0.046438497
73	0x3e4d30f9	0.20038213
74	0xbe49258c	-0.19643229
75	0xbc715f3b	-0.014732177
76	0x3e360041	0.17773534
77	0xbdc52436	-0.09626047
78	0x3c9fba87	0.019498123
79	0x3e06d33a	0.13166514
80	0x3d47d366	0.04878559
81	0x3c683139	0.014171892
82	0x3e02a750	0.12759137
83	0x3ea0aba2	0.31380945
84	0xbe058ce1	-0.13042022
85	0x3e91e161	0.28492263
86	0xbb512e6e	-0.0031918543
87	0x3d82d93e	0.06389092
88	0x3d9f40e6	0.0777605
89	0x3d2070e3	0.039170157
90	0x3d5ba309	0.05362228
91	0xbdf9338e	-0.121680364
92	0x3dcfb324	0.1014159
93	0xbe0810a8	-0.13287604
94	0x3d83311d	0.06405852
95	0x3d924207	0.071415

net.2.bias f4 [3]
0	0x3c0cde4e	0.008597923
1	0x3df14457	0.11780613
2	0xbe033634	-0.12813646
