Assets/Models/1719336434_LinearSmoothPursuit.onnx (onnx, 4509 bytes, 4 tensors)

net.0.weight f4 [32, 27]
000000 f8 a4 0e 3d f2 c7 5d 3e bc 33 dd 3c 03 c3 80 bd
       0.034825295 0.21658304 0.027002208 -0.062871955
000010 aa 58 10 3e e6 f6 a3 bc b8 d1 0f 3c ae 46 48 bd
       0.14096323 -0.020015191 0.008778028 -0.04889553
000020 63 9a 8c bd 5c 81 78 3d 64 65 ff bd 3f 1c 01 3e
       -0.068653844 0.06067024 -0.124705106 0.12608431
000030 8a 47 1e 3d f6 c6 38 b8 35 21 19 bd bb fe c8 3d
       0.038642444 -4.4054315e-05 -0.037385184 0.09814211
000040 11 86 37 3e 56 f5 58 3e 1b f3 b9 3b 23 a2 04 be
       0.17922236 0.21187338 0.0056747324 -0.12952475
000050 2c 74 ab 3c 7b 8b a6 bd dc 56 84 3d a7 72 26 bb
       0.020929419 -0.081320725 0.064618796 -0.0025397928
000060 3a e1 9e 3b 24 d5 11 3f 55 46 b8 3e c0 fd 7f bb
       0.0048486264 0.5696585 0.3599116 -0.003906116
000070 c0 e2 e6 3c 5a 8e ad bd b1 a8 1b 3e 68 e3 f5 bd
       0.028184295 -0.08474417 0.1520107 -0.12006265
000080 60 27 19 be c3 34 19 3e 16 71 f7 3d 83 11 2d 3e
       -0.14956427 0.14961533 0.12082116 0.16901211
000090 a0 51 73 3c 88 94 ae bc 90 f2 d1 bc 53 6c 06 be
       0.014851004 -0.02131106 -0.025628358 -0.1312726
0000a0 b1 28 19 3e be 9b 21 be 25 7b 8f bd 8b 9e 9f bd
       0.14956929 -0.15782067 -0.0700591 -0.077939115
0000b0 59 3a 35 be a5 7b d9 bd 34 db 2b be d2 43 af 3d
       -0.17698039 -0.106192864 -0.16782838 0.085578576
0000c0 e6 ee 8a 3d 9f 1f 1e 3e 96 b3 03 be 54 97 02 bd
       0.067838475 0.1544175 -0.12861475 -0.0318826
0000d0 66 06 e0 3d a2 a2 10 be a1 d1 c3 3d 43 da 8f 3d
       0.109387204 -0.1412454 0.09561468 0.07024052
0000e0 83 00 23 bc 34 6a 33 3e 2c 26 4d be b5 34 05 3e
       -0.0099488525 0.17520982 -0.20034093 0.13008387
0000f0 87 00 8a 3e 43 fb d6 be 53 0f 3f 3e 09 7b 21 bd
       0.26953527 -0.41988572 0.1865819 -0.039423976
000100 c1 c5 8e 3d 64 86 e8 bd 20 34 a4 3c c1 31 2c bd
       0.06971312 -0.11353758 0.020044386 -0.042039637
000110 ee 4c 08 3e 12 69 36 be a0 4f 22 3e fe 88 01 3e
       0.13310596 -0.17813519 0.15850687 0.12649915
000120 c0 dd 04 3e dc 17 02 3d 97 38 f7 b9 19 f7 67 3d
       0.12975216 0.031761035 -0.00047153674 0.056632135
000130 03 e5 6a bb 0a 6e 25 3e 3e 1a 0c bf fc d8 32 3f
       -0.0035842068 0.16155258 -0.5472754 0.6986234
000140 ac 57 2e bd 55 7b 42 3d aa 88 4a 3c 46 78 40 3e
       -0.04256408 0.0474809 0.012361685 0.1879588
000150 91 65 8b bd 93 24 47 be 67 fa 46 3d 17 9c db 3d
       -0.06806482 -0.19447546 0.048578646 0.10723131
000160 26 db 98 3d 8b e2 70 bd 98 c4 90 3d 30 fa b2 3d
       0.07463674 -0.0588098 0.07068747 0.08739126
000170 71 6b 40 3d 67 99 04 be 8e ef 6b 3c f0 e2 f9 3d
       0.046977464 -0.12949143 0.014400376 0.12201488
000180 74 64 59 be d0 05 f2 3d 61 27 fe bd 9c 52 40 be
       -0.21229726 0.11817515 -0.12409855 -0.18781513
000190 14 e5 b0 bd 0f 19 4f bd c5 d9 88 3e 33 12 22 3e
       -0.08637443 -0.050561007 0.26728645 0.15827255
0001a0 51 fb 1d 3e 04 e9 0a 3e 42 48 cd be a7 6a b0 be
       0.15427901 0.13565451 -0.4009419 -0.3445637
0001b0 0d 42 57 bd 30 42 1c bd 99 fe ab 3d 99 a8 a8 bc
       -0.052553225 -0.03814906 0.0839817 -0.020588206
0001c0 da 16 89 bd 9d ff 07 3c 73 e6 87 3e a3 12 2c bf
       -0.06693812 0.008300689 0.26543006 -0.6721594
0001d0 9f 3b 7b 3e b2 42 54 3b eb d1 c5 3c da 3c 3f bc
       0.24534462 0.0032388386 0.024147948 -0.011672223
0001e0 df c1 6e 3d 8d 35 25 ba 94 62 4f be b6 b9 16 be
       0.05829036 -0.000630223 -0.20252448 -0.1471928
0001f0 ce 3e 80 3d 5d 89 13 be d8 0e 29 3d ee 0b 79 bd
       0.06261979 -0.14407869 0.04127392 -0.060802393
000200 65 c8 ab 3d d1 c6 04 bd 0c a5 1b 3e fe b1 84 bd
       0.083878316 -0.03241617 0.15199679 -0.06479262
000210 89 ca 03 be a0 5b 25 3f db 6c da bd fb 33 21 be
       -0.1287023 0.64592934 -0.10665294 -0.15742485
000220 1b c7 81 bd 87 7f 95 3d 27 6e a1 3d 8a 2e 3c 3d
       -0.063368045 0.072997145 0.07882338 0.04594282
000230 52 ac fa 3d 5b 2a 08 be d8 7e f3 3d 08 aa 75 3e
       0.12239899 -0.13297407 0.11889428 0.23990643
000240 bd 55 53 bd 9d 43 2c 3e c3 78 31 bd cc ea 09 3e
       -0.05159544 0.16822667 -0.043328058 0.13468474
000250 ff 8d 26 be 8b a6 98 bd 3d e8 eb 3d 6f a6 58 be
       -0.16265105 -0.074536406 0.11518905 -0.2115724
000260 49 b3 c8 3e 16 9f fe 3d a4 ae 40 bd f4 b3 2c 3e
       0.39199284 0.12432687 -0.04704155 0.16865522
000270 28 6d ad 3d 56 5d 52 3d bf bf 7c 3e 59 17 f9 3e
       0.084680855 0.051358543 0.2468252 0.48650625
000280 e7 e9 42 bf bc db 91 3e 19 21 40 3e 30 7d 38 3c
       -0.76138157 0.28487957 0.18762626 0.011260316
000290 10 7b 2d bd f2 27 fa 3d 8b dc 3d 3e f8 32 c3 3c
       -0.04235369 0.1221465 0.18541162 0.023828015
0002a0 94 7b 57 bd 5b 78 3c 3e 0d 8f 1c 3e 26 98 c6 3d
       -0.052608088 0.18405287 0.15288945 0.09696989
0002b0 2d 55 0e be 00 56 dc 3b 28 4b 1f bd 58 42 b2 bd
       -0.1389968 0.006724119 -0.038890034 -0.0870406
0002c0 9e 8c 29 be e3 1c 3b be 83 8f f7 bd 70 5b 9d bd
       -0.16557547 -0.18272738 -0.120879196 -0.07683456
0002d0 66 74 32 be c0 1a 2c bc 00 e2 46 3d 98 7b 0e bd
       -0.17427215 -0.010504425 0.048555374 -0.034785837
0002e0 66 35 89 bd 87 6e 38 be 70 cb ee 3c 9c a5 7d 3d
       -0.06699638 -0.18010913 0.029149741 0.061925516
0002f0 f4 7c 1e bd 14 a7 0b be 44 01 b2 3d 2e c9 73 3e
       -0.038693383 -0.13637954 0.08691648 0.23807213
000300 bb c7 cb 3b 20 d5 76 3d 71 f0 69 3d 36 99 9b bd
       0.006218878 0.060261846 0.05711407 -0.07597582
000310 d0 4e 0c be 00 a7 db bc e1 f7 af bc ac 05 20 bc
       -0.1370194 -0.02681303 -0.021480503 -0.009766977
000320 ef 16 8b 3d d4 c4 16 3d 0f 40 21 be e5 39 8a bc
       0.067914836 0.036808804 -0.15747093 -0.01687331
000330 94 5b 63 bd 74 b4 a3 3c 1b 18 22 be 45 a5 bb 3b
       -0.055507258 0.019983508 -0.15829508 0.005726489
000340 d8 83 e7 bd 96 91 ca 3d 1a 29 ba bc 29 5d ab 3c
       -0.11304444 0.098910496 -0.022724677 0.020918446
000350 56 71 81 3e 8f 6a 32 3f b2 78 d7 3e b4 da ec be
       0.2528178 0.69693846 0.4208427 -0.46260607
000360 68 ea 72 be 16 d9 1d be eb 23 66 3d e8 6d f4 bd
       -0.23722231 -0.15414843 0.056186598 -0.119350255
000370 62 e2 23 3e b9 4e 31 3d dc 05 97 3e 71 f6 58 be
       0.16004327 0.043287966 0.29496658 -0.2118776
000380 99 2c 12 3e a5 0b e9 3d b6 3c 7c bd 6f a1 45 3e
       0.14274825 0.11379174 -0.061581336 0.19299863
000390 ed 05 42 3d 1a ef 9f bd 14 12 b0 bd 6c 9e c0 3d
       0.047368933 -0.07809277 -0.08597198 0.094052166
0003a0 61 3d 1e bc 5a 57 ba bd 2d dc e6 3d f3 99 85 bd
       -0.009658189 -0.09098692 0.11272464 -0.06523504
0003b0 3b 25 91 bd 01 92 5b 3d c5 b9 0d 3e 60 0c 48 3e
       -0.07087179 0.053606037 0.13840397 0.1953597
0003c0 bb c2 80 bf 76 dd a9 3e 72 5e 91 3c 57 ec 82 3d
       -1.0059427 0.33176774 0.01774523 0.063927345
0003d0 b6 57 87 3e a0 c0 cc bd 3d 39 12 3e 5c 6e ea 3d
       0.26434106 -0.09997678 0.14279647 0.11446831
0003e0 83 54 08 be 09 2a e0 bd 6a 10 77 bd c9 11 a1 3b
       -0.13313489 -0.109455176 -0.060318388 0.0049154502
0003f0 f1 f0 b1 bd f6 c2 4e 3d c3 30 08 be 00 47 1a 3e
       -0.08688534 0.050478898 -0.13299851 0.15066147

net.0.bias f4 [32]
000000 14 a4 1f 3e ff 68 0f 3e e9 6a 84 3d 1f fe a5 3d
       0.15589935 0.14004897 0.06465704 0.081051104
000010 61 77 e5 3d 97 30 4d bd a0 f1 2a 3c 69 cd 6f 3e
       0.1120441 -0.050095167 0.010433584 0.23418202
000020 0f 28 02 3e 56 e0 f0 bc 82 34 eb 3c 4b 42 9a 3d
       0.12710594 -0.029403847 0.028711561 0.07532176
000030 c4 7c 17 be 98 34 30 be 35 27 6a bc b8 5f c8 3d
       -0.14793688 -0.17207563 -0.014291574 0.09783882
000040 ad e5 8c bd 06 e3 9b 3c 5c b0 ab bd 5d 49 aa bd
       -0.06879745 0.019029152 -0.08383247 -0.08314774
000050 98 ba 05 be 6f 39 a8 3d c0 58 13 bd 44 4c 16 3e
       -0.13059461 0.082140796 -0.03597331 0.1467753
000060 bd a0 f0 bd 0a 42 f1 3d ee c6 3e 3e 3b 0c 97 be
       -0.117494084 0.11780174 0.18630573 -0.2950152
000070 92 95 33 be 4f a5 fe bd be 6c e5 3d 4a 71 8c bc
       -0.17537525 -0.12433874 0.112023816 -0.017143864

net.2.weight f4 [3, 32]
000000 61 38 e4 3c d5 00 e7 bd 7e 88 34 be ab 6f aa 3c
       0.027858915 -0.112794556 -0.17630193 0.0208052
000010 2f 44 1f bb 13 91 4c 3e 10 dd 97 bd 22 76 5c 3e
       -0.0024302115 0.19977216 -0.07415211 0.21529439
000020 bc c5 b0 be ae 05 3a bd ad 3f a2 3d b3 09 19 3e
       -0.3452586 -0.045415573 0.079223014 0.14945106
000030 ea c0 fb 3c 72 fa e6 bc f9 17 7b 3d e4 8d f5 3c
       0.030731637 -0.028195594 0.06130216 0.029974885
000040 fd 6e 79 bd d6 41 12 be cb ca c2 bc 88 02 2e bb
       -0.060896862 -0.14282927 -0.02377834 -0.0026551802
000050 40 f3 c8 3b a0 66 91 be e0 be e7 bc 64 aa 66 be
       0.0061325133 -0.2839861 -0.028289258 -0.22525936
000060 65 7b 94 bd da 84 b5 3d 50 dc 84 bb 37 58 60 b9
       -0.07250098 0.0886323 -0.0040545836 -0.00021395167
000070 ce b1 9d 3d 78 79 21 3e 24 2d 28 bd f1 f6 a0 3d
       0.07699929 0.15768993 -0.041058674 0.078596
000080 33 6b 2a 3e cb 7b 24 3e e6 ec 50 3e 60 73 a4 bd
       0.16642456 0.16062848 0.2040287 -0.080298185
000090 0e 3d c3 3b 6f 03 68 be b9 64 22 be a8 45 f6 3d
       0.005958206 -0.2265756 -0.15858735 0.120250046
0000a0 27 dc da 3d 2e 9e 85 3d 4d dc 26 bd 16 5a ef bd
       0.10686522 0.06524311 -0.04073744 -0.116871044
0000b0 d5 e1 75 3d 58 ca 65 bd c1 de 00 3e e5 8d 41 be
       0.060029823 -0.056101173 0.12584974 -0.18901785
0000c0 39 7f cf 3d 82 08 13 be 34 52 4f 3c f8 11 8e bb
       0.10131688 -0.14358714 0.012653876 -0.004335638
0000d0 4e 9e ed 3d 1a ac 77 3b 55 e1 00 be 4c 31 3f be
       0.1160246 0.003779179 -0.12585957 -0.18671149
0000e0 36 90 ce bd 76 1a 55 bd a8 cb 80 3b 78 91 e5 bc
       -0.100861 -0.05202719 0.0039305277 -0.028023466
0000f0 f0 21 3f bc 8e f0 ae 3e e2 6b df 3d d0 ea 45 3e
       -0.011665806 0.34167904 0.10909249 0.19327855
000100 42 8d 49 3e 94 e2 28 be 6b 7c b5 3c 4c da b2 bd
       0.19682792 -0.16492683 0.022154054 -0.08733043
000110 4f 88 a6 bd d2 f7 3d 3e f9 ee cb bd 49 d8 85 be
       -0.081314676 0.18551567 -0.0995769 -0.26141575
000120 65 af 1d bd a5 70 0f 3d bf fb a3 3d 61 fe 8f 3e
       -0.038497347 0.035019536 0.08007001 0.28123763
000130 48 b8 52 3d 84 4b 7a bd 29 77 78 bc ee f2 6e 3d
       0.051445276 -0.061107174 -0.015165129 0.058337145
000140 b3 be e8 3d ec 06 fa bd 96 a6 17 3e 3c 95 17 3c
       0.11364498 -0.122083515 0.14809641 0.009251889
000150 e8 97 6a bd 24 63 33 3e 26 86 f1 3d 6c b0 0a 3e
       -0.057273775 0.17518288 0.11793165 0.13543862
000160 14 ab 1d be 8d 6e a2 bd 66 db b6 bd 49 8f 7e 3d
       -0.15397292 -0.07931242 -0.08928566 0.062148366
000170 e0 ed 7d bd ae da 20 3e 3e 00 c5 3d a3 e5 57 3e
       -0.061994433 0.1570842 0.09619187 0.21083693

net.2.bias f4 [3]
000000 56 39 99 3d 7f 27 8e 3c 21 dd 2c 3d
       0.07481639 0.017352818 0.042203072
