Assets/Models/lr_xyz.onnx (onnx, 10704 bytes, 7 tensors)

fc.1.weight f4 [128, 9]
0	0xbeae7e9f	-0.3408098
1	0xbe32854b	-0.1743366
2	0x3cce0efb	0.025153628
3	0xbe0d310e	-0.13788244
4	0x3d3cda35	0.046106536
5	0xbe15e421	-0.14637806
6	0xbe59d4f4	-0.21272641
7	0xbe7ce8d8	-0.24698198
8	0xbd78d10b	-0.060746234
9	0xbea74fae	-0.32677978
10	0x3e1bad01	0.15202715
11	0x3dd0a02f	0.101868026
12	0xbe3f00aa	-0.18652597
13	0xbd5a8977	-0.053353753
14	0xbe9ac28a	-0.30226547
15	0xbe37e61f	-0.17958878
16	0xbd94636c	-0.07245526
17	0x3e96c31e	0.29445738
18	0xbe9baf95	-0.30407396
19	0x3e5f9bbe	0.21836755
20	0x3e7c15cc	0.2461769
21	0xbe3c339d	-0.18379064
22	0x3e9a336c	0.30117357
23	0x3bf56491	0.007488795
24	0xbdecf885	-0.11570839
25	0x3d8d6fbe	0.06906079
26	0x3dd8d512	0.10587515
27	0xbdb6bcae	-0.089227065
28	0x3e98931f	0.29799744
29	0x3e89a668	0.2688477
30	0xbe9470f7	-0.28992435
31	0xbe7d4d0b	-0.24736421
32	0xbe5e2c3e	-0.21696565
33	0x3dfd988c	0.12382612
34	0x3e9bb16a	0.30408794
35	0xbd385b91	-0.0450092
36	0x3e17dc3c	0.14830106
37	0x3cf36e65	0.029715726
38	0xbe8e7300	-0.27822113
39	0x3e4543a6	0.19264087
40	0x3e969b01	0.29415134
41	0x3c823dc5	0.015898595
42	0xbcf59f15	-0.029983083
43	0x3e9f85c0	0.3115673
44	0x3d934cf4	0.07192412
45	0x3e521052	0.20514038
46	0x3da8df69	0.08245737
47	0x3e2af8a6	0.16696414
48	0xbda20124	-0.07910374
49	0x3c0aa5c4	0.008462373
50	0x3e34f781	0.1767254
51	0x3e5505f5	0.20803054
52	0xb9b87195	-0.0003517984
53	0x3e2ee02f	0.17077707
54	0xbe1d0222	-0.15332845
55	0x3e8da122	0.27661997
56	0xbe619935	-0.220311
57	0x3da9b952	0.082873
58	0xbe798977	-0.24368845
59	0x3e304682	0.17214397
60	0x3dd5bdf5	0.10436622
61	0x3cfb08bf	0.030643819
62	0xbd810212	-0.06299223
63	0x3eabc8df	0.3355169
64	0xbead269f	-0.33818528
65	0x3d762e6f	0.060102876
66	0xbea7f3ec	-0.32803285
67	0xbdbf9015	-0.09353653
68	0x3dac704d	0.08419857
69	0xbd027fe1	-0.031860236
70	0xbe8526ac	-0.26006067
71	0x3e1e8222	0.15479329
72	0xbe033451	-0.12812926
73	0xbd4177c7	-0.04723337
74	0xbded78c2	-0.11595298
75	0x3c518ec2	0.012790384
76	0xbea7020a	-0.32618743
77	0x3d22c590	0.03973919
78	0xbbd51c6a	-0.0065036314
79	0xbe8ff045	-0.28113
80	0x3e973ef2	0.2954021
81	0xbc9051e4	-0.017617173
82	0x3e06f0ef	0.13177846
83	0xbead19a8	-0.33808637
84	0xbca524d4	-0.020159163
85	0xbd5abaa9	-0.05340067
86	0xbe2e1929	-0.17001785
87	0x3e94d023	0.29065046
88	0x3ea00dea	0.31260616
89	0x3d8a9b0c	0.06767854
90	0x3de3754b	0.11106356
91	0xbd956c22	-0.07296015
92	0x3e936de8	0.2879479
93	0x3df0d91f	0.117601626
94	0x3e230620	0.15920305
95	0xbc989c6c	-0.018629275
96	0xbe4c24d2	-0.19935921
97	0xbe227b0c	-0.15867251
98	0xbe7e42b2	-0.2483013
99	0x3e202b54	0.15641528
100	0x3eafb351	0.34316495
101	0x3e9cf7c6	0.30657786
102	0xbe13c715	-0.14431413
103	0x3cd7e5fd	0.026354784
104	0xbe02c32c	-0.12769765
105	0xbe878e56	-0.2647578
106	0x3d58a406	0.0528908
107	0x3de4e1fe	0.11175917
108	0x3e3b860c	0.18312854
109	0xbea46689	-0.32109478
110	0x3e842b0d	0.25814095
111	0x3e12a21a	0.1431965
112	0xbe05eaf4	-0.13077909
113	0x3d95a292	0.073063985
114	0xbd1a4070	-0.03765911
115	0xbdef774f	-0.11692678
116	0x3e43d78c	0.19125193
117	0x3e9fd036	0.3121354
118	0xbe904ef6	-0.28185242
119	0x3d28b0fa	0.041184403
120	0xbe3d3816	-0.18478426
121	0xbdde224c	-0.10846385
122	0x3c1319d9	0.0089783305
123	0xbe663c07	-0.22483836
124	0xbe8c27fb	-0.27374253
125	0xbe4801f5	-0.19531997
126	0xbe72483b	-0.23660366
127	0x3d81ab16	0.0633146
128	0x3dc5c49b	0.0965664
129	0xbe8d4ae8	-0.2759621
130	0x3ea17eaf	0.31541964
131	0x3e8b4b84	0.2720605
132	0xbe1e7dd5	-0.15477689
133	0xbd7706a2	-0.06030906
134	0xbe4d4802	-0.20047
135	0xbe6a67fd	-0.22891231
136	0x3e8b9b5f	0.27266976
137	0xbdfd3fa8	-0.12365657
138	0xbd80c13d	-0.06286857
139	0xbe59fa50	-0.21286893
140	0xbd6938ac	-0.056938812
141	0x3d92947f	0.0715723
142	0xbd59cdd7	-0.05317482
143	0xbdd02747	-0.101637416
144	0x3ea647f7	0.3247678
145	0xbd62729c	-0.05528508
146	0xbe012fe7	-0.1261593
147	0x3c5197b5	0.012792517
148	0xbde9d30d	-0.11417208
149	0xbd19496b	-0.037423532
150	0x3dbf4bfb	0.09340664
151	0x3e833bfd	0.25631705
152	0x3e83fef5	0.25780454
153	0x3e77277a	0.24136153
154	0xbe328115	-0.17432053
155	0x3e1905cd	0.14943619
156	0xbdd7c4cc	-0.10535583
157	0x3e9b2941	0.30304912
158	0x3e6f9985	0.23398407
159	0xbdf23a20	-0.11827493
160	0xbdd6b749	-0.104841776
161	0x3e10fe04	0.141594
162	0x3e8c26bd	0.27373305
163	0x3e3c9b34	0.1841858
164	0xbce9d56e	-0.028544154
165	0x3e31b0c6	0.1735259
166	0x3e12add0	0.14324117
167	0x3e69c7a7	0.22830068
168	0x3d842923	0.06453159
169	0xbdf0155e	-0.117228255
170	0x3d43dd13	0.047818255
171	0xbdd0f7fc	-0.10203549
172	0x3e1fb9f3	0.15598278
173	0xbea10722	-0.31450754
174	0xbe828770	-0.25493956
175	0x3e197f2a	0.14989915
176	0x3e1c587f	0.15268134
177	0x3e556676	0.20839867
178	0xbe57fed6	-0.21093306
179	0x3ea6ad23	0.32553968
180	0x3e81d014	0.25354064
181	0x3e817acf	0.25289008
182	0xbe667e51	-0.22509123
183	0x3dfb08dc	0.12257549
184	0x3e602e09	0.21892561
185	0x3e48902b	0.19586246
186	0x3e6f4051	0.23364379
187	0x3dcfdec1	0.10149909
188	0xbe71de43	-0.23619942
189	0xbe813617	-0.2523658
190	0xbc678b11	-0.014132277
191	0x3c485401	0.012227059
192	0xbe711982	-0.23544887
193	0xbe8bfc51	-0.2734094
194	0x3e2dc0f1	0.16968133
195	0x3df300f0	0.11865413
196	0xbe1f9b1c	-0.15586513
197	0x3e0d4a3f	0.13797854
198	0x3e722d40	0.23650074
199	0xbe8e0024	-0.27734482
200	0x3d014e6c	0.03156893
201	0xbc80a40f	-0.01570323
202	0xbe2b1e8d	-0.16710873
203	0x3e5e2744	0.21694666
204	0xbc0830e9	-0.008312442
205	0x3df65f5d	0.12029908
206	0xbe624e17	-0.22100101
207	0x3e5df4b2	0.21675375
208	0xbcb3a1f7	-0.021927817
209	0xbe77be58	-0.24193704
210	0x3cd780f2	0.026306603
211	0xbea0d848	-0.3141501
212	0xbe9ac604	-0.302292
213	0x3e05eba6	0.13078174
214	0xbea9ee15	-0.33189455
215	0xbe6aa1c1	-0.22913267
216	0xbea1b093	-0.31580028
217	0xbd98b67f	-0.07456683
218	0x3db8c9b6	0.09022848
219	0x3e3717e3	0.17880206
220	0xbdbfa570	-0.093577266
221	0xbe580981	-0.21097375
222	0xbe318454	-0.17335635
223	0x3e3ea8fc	0.1861915
224	0x3e54450b	0.20729463
225	0xbd1159c0	-0.035485983
226	0xbdb21a8c	-0.0869647
227	0xbe49656a	-0.19667593
228	0xbe6895b4	-0.22713357
229	0xbccf9e74	-0.025344111
230	0xbb65cc88	-0.0035064537
231	0xbe977d47	-0.29587767
232	0xbe87b2b8	-0.2650354
233	0xbdd15e71	-0.102230914
234	0x3d84cfc2	0.06484939
235	0x3e419e0e	0.1890795
236	0xbe1dc973	-0.15408878
237	0x3eab0638	0.33403182
238	0xbd6b378d	-0.057426024
239	0x3e9ec337	0.31008312
240	0x3cab2026	0.020889353
241	0xbe3dd411	-0.18537928
242	0xbc96d746	-0.018413197
243	0x3ca83435	0.020532707
244	0xbe767c7d	-0.24070926
245	0x3e4efdba	0.20213977
246	0xbdb7271a	-0.08943005
247	0x3e583adf	0.21116208
248	0xbe1d1006	-0.15338144
249	0xbe40ac0b	-0.18815629
250	0xbe6415a4	-0.2227388
251	0xbe15d4e8	-0.14631999
252	0xbe8f7acf	-0.28023383
253	0xbdecf782	-0.11570646
254	0x3e8691a4	0.2628299
255	0xbe86a0cb	-0.2629455

fc.1.bias f4 [128]
0	0xbe2cf22a	-0.16889253
1	0x3e7f8c1d	0.24955793
2	0xbcea56a2	-0.028605763
3	0x3d8fd40b	0.07022866
4	0x3e49b5c5	0.19698246
5	0x3eab26a8	0.3342793
6	0x3e4ec1f9	0.20191182
7	0xbcc6810a	-0.024231452
8	0x3e9c3e40	0.30516243
9	0x3e90ae4d	0.2825798
10	0xbca6b874	-0.020351626
11	0x3e9a90f4	0.30188715
12	0x3e886295	0.26637712
13	0x3e45923d	0.19294067
14	0xbdec1900	-0.11528206
15	0xbea5e2ff	-0.32399747
16	0x3e7abd73	0.24486332
17	0x3e8e005e	0.27734655
18	0x3c6612fe	0.014042614
19	0x3e19abfa	0.1500701
20	0xbe9a578a	-0.30144912
21	0xbc3c1f89	-0.011482128
22	0x3e8f5036	0.27990884
23	0x3e319a28	0.17343962
24	0xbe153ade	-0.14573237
25	0xbbbbe001	-0.0057334905
26	0xbcd37652	-0.025813255
27	0x3ea6961e	0.32536405
28	0xbe6269f7	-0.22110735
29	0x3e042088	0.12903035
30	0x3a339858	0.0006851009
31	0x3e4f2572	0.20229128
32	0xbea3c49e	-0.31985945
33	0xbdb1d789	-0.08683688
34	0x3e5b43e6	0.2141262
35	0x3e660de3	0.22466235
36	0xbe708e4e	-0.23491785
37	0x3e0be8d2	0.13663033
38	0x3e8e0016	0.2773444
39	0xb83f9306	-4.5674875e-05
40	0x3d867a21	0.06566263
41	0xbdc9d1d4	-0.09854475
42	0xbe17a951	-0.14810683
43	0xbe86f927	-0.26361963
44	0x3e79bcd1	0.24388434
45	0xbe8e8a67	-0.27839968
46	0xbda78479	-0.08179564
47	0x3e01d686	0.1267949
48	0xbe9137e4	-0.28362954
49	0xbe4420b5	-0.19153102
50	0x3e0aa631	0.1353996
51	0xbe1b24d6	-0.1515077
52	0xbe1a87e0	-0.15090895
53	0x3d589908	0.052880317
54	0x3e892ad9	0.26790503
55	0xbe7f0ada	-0.24906483
56	0x3e4ed9c4	0.20200258
57	0x3beeac09	0.007283692
58	0xbbc16c27	-0.0059027853
59	0x3e65ba6c	0.22434396
60	0xbe57f16c	-0.21088189
61	0x3e2a60dd	0.16638513
62	0xbda306de	-0.07960294
63	0x3e5abb60	0.2136054
64	0x3e967c3f	0.29391667
65	0x3e1be0bc	0.15222448
66	0x3cff08d5	0.031132141
67	0x3e2aa3e4	0.16664082
68	0x3e77101b	0.24127237
69	0x3d39e2b5	0.04538222
70	0xbd846879	-0.06465239
71	0xbe6806f6	-0.22658905
72	0x3de8d556	0.113688156
73	0x3bc22e75	0.0059259483
74	0xbd7e7252	-0.062120743
75	0x3e5cf78c	0.21578807
76	0x3e9695cc	0.2941116
77	0x3e044513	0.12916975
78	0xbe6f38b5	-0.23361476
79	0x3dc28abe	0.09499119
80	0xbe7dc2fa	-0.24781409
81	0x3e8a98a8	0.27069592
82	0xbe816243	-0.2527028
83	0x3e3f0129	0.18652786
84	0x3d26fa28	0.04076591
85	0x3e7e0c29	0.24809326
86	0x3e1b42fa	0.15162268
87	0x3d77fe98	0.060545534
88	0x3e8b6963	0.2722884
89	0x3e9d6845	0.30743614
90	0x3e2b3f8b	0.16723458
91	0x3e53477d	0.2063274
92	0x3ceafbce	0.028684523
93	0xbe199f1b	-0.150021
94	0xbd5bdf4a	-0.053679742
95	0x3dcceddd	0.10006306
96	0x3d9bdf31	0.0761093
97	0x3e7cc73f	0.24685381
98	0x3e843eac	0.25829065
99	0xbe32953d	-0.17439742
100	0x3b8efca6	0.004363614
101	0xbe74a70b	-0.23891847
102	0xbd96b9a0	-0.07359624
103	0x3ea90154	0.33008826
104	0x3e0877e7	0.13326989
105	0x3d4aa9ab	0.049478214
106	0xbdf6205d	-0.120178916
107	0x3e5ad8e7	0.21371804
108	0x3e599f35	0.21252139
109	0x3e31eeb7	0.17376219
110	0xbe9998ed	-0.29999486
111	0x3e9871e0	0.2977438
112	0xbc92d6f5	-0.017924765
113	0xbe8635e2	-0.26212984
114	0x3d558c2a	0.052135624
115	0x3e8b80bb	0.2724665
116	0xbd26166b	-0.040548723
117	0xbded2a25	-0.11580304
118	0xbe58bbdf	-0.21165417
119	0xbcba6968	-0.02275534
120	0x3e4043e8	0.18775904
121	0xbe290f65	-0.16509779
122	0xbdb1d0da	-0.086824134
123	0x3e7a067f	0.2441654
124	0x3cc27be7	0.023740722
125	0xbd21ac5a	-0.039471008
126	0xbd15f790	-0.036613047
127	0xbe066aa9	-0.13126625

fc.3.weight f4 [3, 128]
0	0xbca28a35	-0.019841293
1	0xbdb71456	-0.08939426
2	0x3d8e225b	0.069401465
3	0x3cf19b83	0.0294931
4	0x3dc32366	0.09528236
5	0x3c8cdb47	0.017194403
6	0x3d9ffb86	0.07811646
7	0x3dc7aaeb	0.09749397
8	0xbce59388	-0.02802445
9	0x3d938b06	0.07204251
10	0xba4c956f	-0.000780425
11	0xbdb59297	-0.088658504
12	0xbda5ab73	-0.08089342
13	0x3da5c026	0.0809329
14	0x3d8ec75d	0.06971619
15	0xbd149979	-0.036279175
16	0xbda8b851	-0.082382806
17	0x3d245cd6	0.040127598
18	0x3cb7cd2f	0.022436706
19	0x3c4f4e70	0.012652978
20	0x3ab8cf56	0.0014099877
21	0xbd4f3c9e	-0.05059492
22	0x3cb51a12	0.022107158
23	0x3d15b353	0.03654797
24	0x3d0a00e5	0.03369226
25	0x3d003e89	0.03130964
26	0xbd8f29d8	-0.06990403
27	0xbd8bc137	-0.06823962
28	0xbd89c419	-0.06726856
29	0x3d16dd90	0.036832392
30	0xbd0d805c	-0.03454624
31	0xbda0a1e7	-0.078433804
32	0xbdaf3438	-0.08554882
33	0x3c1acec6	0.009448713
34	0xbd8e4f13	-0.06948676
35	0x3da2b652	0.07944931
36	0x3c2485b8	0.010041647
37	0x3db004ce	0.085946664
38	0x3c8c04af	0.017092077
39	0x3d30bc83	0.04314853
40	0xbde75fb2	-0.11297549
41	0x3d4d454d	0.05011492
42	0x3dc0347e	0.09385012
43	0xbd6bd5b9	-0.05757687
44	0x3d879a06	0.066211745
45	0x3d22be88	0.039732486
46	0x3d8531ea	0.06503661
47	0xbd51d605	-0.051229496
48	0x3d0e3193	0.034715246
49	0xbd8e957a	-0.06962104
50	0x3d3c6337	0.045993056
51	0x3d31b5b9	0.043386195
52	0xbcceb54e	-0.025232937
53	0xbdb8de54	-0.09026781
54	0xbda0937d	-0.07840631
55	0xbd66ac8b	-0.056316894
56	0xbd2008ef	-0.03907102
57	0xbd08abee	-0.03336709
58	0xbd77d410	-0.060504973
59	0x3a706817	0.0009170784
60	0x3d94adb0	0.07259691
61	0x3c866f4d	0.016410494
62	0x3da2f3e1	0.079566725
63	0xbb88a8db	-0.0041705198
64	0x3a00e291	0.00049165735
65	0xbd8860e2	-0.06659104
66	0xbd725e1e	-0.05917179
67	0x3ca48d2e	0.020086851
68	0x3dbe0508	0.092783034
69	0xbd254844	-0.04035212
70	0xbd1362fd	-0.035983074
71	0xbd944d4a	-0.07241304
72	0x3da31737	0.07963412
73	0x3db5dd25	0.088800706
74	0x3d6ea078	0.058258504
75	0x3c25b085	0.010112886
76	0xbda24d24	-0.0792487
77	0xbdadeca5	-0.08492402
78	0x3dbc02c9	0.09180219
79	0x3d3d927b	0.046282273
80	0x3c2a4f16	0.010394832
81	0x3d712734	0.058875278
82	0x3c1d7ca1	0.009612233
83	0xbd8797b2	-0.066207305
84	0x37d503db	2.5393374e-05
85	0xbd875464	-0.06607893
86	0xbd32755f	-0.043568965
87	0x3d8b49b1	0.06801165
88	0xbcec8ff8	-0.028877243
89	0x3d86c0b4	0.06579724
90	0xbd74e078	-0.059784383
91	0x3d5e2c1d	0.05424129
92	0xbce1d87f	-0.027569054
93	0xbc8fc8a7	-0.017551733
94	0xbc7660fb	-0.01503777
95	0x3d57a3d6	0.05264648
96	0x3d2b4565	0.041814227
97	0x3dabcd6b	0.0838879
98	0x3d578aa0	0.052622437
99	0x3d135893	0.035973143
100	0xbde0418c	-0.10950002
101	0x3d82ec85	0.06392769
102	0xbd1bb738	-0.038016528
103	0x3d5d6c56	0.054058395
104	0xbd8b9685	-0.06815819
105	0xbceb0f9b	-0.028693965
106	0x3d55ff1d	0.052245248
107	0xbc1a96ae	-0.009435339
108	0x3d524bf5	0.05134197
109	0xbb0fb70d	-0.0021929175
110	0x3c39ea83	0.011347416
111	0x3d64ac53	0.055828404
112	0xbd57b00f	-0.052658137
113	0x3d075bfc	0.033046708
114	0x3d7a2f58	0.061080307
115	0xbda06428	-0.07831603
116	0x3b956124	0.004558699
117	0x3d7e297b	0.062051278
118	0xbd1ac561	-0.03778589
119	0x3d86318f	0.06552421
120	0x3d2e0e80	0.042494297
121	0x3d72a215	0.059236605
122	0x3d7951ba	0.060868956
123	0xbd1bfa64	-0.038080588
124	0x3c87a395	0.016557494
125	0x3c6ddb18	0.014517568
126	0xbd722c9b	-0.05912457
127	0xbd2c441a	-0.042057134
128	0xbb8f02a1	-0.004364327
129	0xbdbe69ff	-0.09297561
130	0xbd0487f5	-0.03235622
131	0xbc72f78f	-0.01482953
132	0xbc9b4fdd	-0.01895898
133	0xbdaffbbe	-0.08592938
134	0xbd5f2955	-0.054482777
135	0xbd2191e0	-0.039445758
136	0xbd3d1bda	-0.04616914
137	0xbd53bb16	-0.05169209
138	0xbc3ce451	-0.011529044
139	0xbd83dede	-0.06438993
140	0x3c8a6fad	0.016898954
141	0x3b2e9ebf	0.0026644913
142	0xbd625d9d	-0.055265058
143	0xbdc97288	-0.09836298
144	0xbd50d8b1	-0.050987903
145	0x3b31ecd9	0.002714923
146	0xbdefc601	-0.11707688
147	0xbda8b10d	-0.08236895
148	0xbc377dee	-0.011199458
149	0xbddf396b	-0.108996235
150	0x3dbbeb9b	0.091757976
151	0x3ced0b29	0.028935986
152	0x3ca2accc	0.019857787
153	0x3d057d0b	0.032589953
154	0xbe199850	-0.14999509
155	0x3ce1864c	0.027529858
156	0xbdacbe66	-0.08434753
157	0xbcaace4b	-0.020850321
158	0x3de7d0f1	0.11319149
159	0x3d96b8d7	0.07359474
160	0xbd51a731	-0.051184837
161	0x3dd8ca12	0.10585417
162	0xbd98936a	-0.07449992
163	0xbd9f8a67	-0.0779007
164	0x3dc9a273	0.09845438
165	0xbd285468	-0.04109612
166	0xbc73ecf5	-0.014888038
167	0xbd515e3b	-0.051115256
168	0xbd8077c8	-0.062728465
169	0xbd23237e	-0.03982877
170	0xbbf7a516	-0.0075575216
171	0xbda066b0	-0.07832086
172	0x3d80db20	0.06291795
173	0x3d10f254	0.035387352
174	0x3bbaae35	0.0056970366
175	0x3b4c68f4	0.0031190487
176	0x3c47ec04	0.012202267
177	0xbdb65938	-0.08903736
178	0xbd93c547	-0.07215362
179	0x3dae62a3	0.08514907
180	0x3ca8c2ce	0.020600703
181	0x3d0ad74a	0.033896722
182	0x3d291a55	0.041284878
183	0x3dec58b9	0.1154036
184	0x3d983479	0.07431883
185	0x3c32c129	0.010910311
186	0xbddda780	-0.10822964
187	0xbd85f634	-0.065411
188	0x3cbf0797	0.023319049
189	0x3d06b08a	0.032883205
190	0x3c9a3a79	0.01882671
191	0x3d36176d	0.044455934
192	0xbd880b25	-0.06642751
193	0xbd29abb5	-0.04142352
194	0x3cf8675b	0.030322721
195	0x3dd806ec	0.10548195
196	0x3d0e5da7	0.034757283
197	0xbd3d1c76	-0.04616972
198	0xbce245e0	-0.02762121
199	0xbdd16f5f	-0.102263205
200	0x3c0b3de2	0.008498641
201	0xbdd65894	-0.10466114
202	0x3d5b0fc2	0.053481825
203	0xbd8735bc	-0.06602046
204	0xbd89ce08	-0.067287505
205	0xbcd61ab5	-0.026135782
206	0x3d945659	0.07243032
207	0x3d2bab9e	0.041911714
208	0xbdac7085	-0.08419899
209	0x3bfe2836	0.0077562584
210	0x3d40b1df	0.04704463
211	0x3df759e7	0.120776944
212	0xbab95c88	-0.0014141956
213	0x3d2db7aa	0.042411484
214	0xbcab0315	-0.020875493
215	0x3d80378b	0.06260594
216	0xbd5ec4b2	-0.054386802
217	0x3d5fb238	0.054613322
218	0x3cc2e227	0.023789478
219	0x3d243ddc	0.040098056
220	0x3d122d8a	0.03568796
221	0x3d6b08f8	0.0573816
222	0x3df493d7	0.11942261
223	0xbe06a15a	-0.13147488
224	0xbd4799af	-0.04873055
225	0xbc0a8656	-0.00845488
226	0x3d9d141e	0.07669853
227	0xbd5d25bf	-0.053991076
228	0xbd6beb15	-0.05759724
229	0xbd83aae4	-0.06429079
230	0x3d32f08d	0.04368644
231	0x3da5e4a1	0.08100248
232	0xbdfb2679	-0.122631975
233	0x3def06c3	0.116712116
234	0xbcef766a	-0.029231269
235	0xbcf0051e	-0.029299315
236	0x3c884857	0.016636057
237	0x3df81e66	0.12115173
238	0x3daa5401	0.08316804
239	0xbc9c2be6	-0.019063901
240	0x3dcf17c0	0.10111952
241	0x3d306bf1	0.04307169
242	0xbd9f8f71	-0.07791031
243	0x3b1d4b01	0.0024001005
244	0x3d8b890d	0.0681325
245	0x3d98290e	0.074297056
246	0xbd90f909	-0.0707875
247	0x3bc70749	0.0060738665
248	0x3cd323db	0.025773933
249	0xbd83c338	-0.064337194
250	0xbd60432b	-0.054751556
251	0x3d5504e0	0.052006602
252	0xbce15c47	-0.027509822
253	0x3d97744b	0.07395228
254	0x3d46cea4	0.04853691
255	0xbdb9d234	-0.09073296

fc.3.bias f4 [3]
0	0x3ce1c0ec	0.027557813
1	0x3d3e5e11	0.046476427
2	0xbd8dd51d	-0.06925414

onnx::LSTM_95 f4 [1, 36, 9]
0	0x3e844531	0.2583404
1	0x3d804e3a	0.062649205
2	0xbcfc2492	-0.030779157
3	0x3dc66039	0.09686322
4	0xbe22fa81	-0.15915872
5	0x3ca22eda	0.019797731
6	0xbd8688be	-0.0656905
7	0xbe39f757	-0.18160759
8	0xbe8f554d	-0.27994767
9	0x3dcf9b84	0.10137084
10	0x3d6cbc69	0.05779687
11	0x3e4ed30e	0.20197698
12	0x3e7abcf2	0.2448614
13	0xbb96f506	-0.004606846
14	0xbe39cd81	-0.181448
15	0xbad5f77a	-0.0016324364
16	0xbe510196	-0.20410761
17	0x3dde7380	0.108618736
18	0xbe51cd77	-0.20488535
19	0xbd67c3ff	-0.0565834
20	0xbd09aa08	-0.03360942
21	0x3e417587	0.1889249
22	0xbe8bb9b7	-0.27290127
23	0x3e8d15cf	0.275557
24	0x3e6bf0ce	0.23041078
25	0x3e800441	0.25003245
26	0x3e6a7aca	0.22898403
27	0x3c072342	0.008248152
28	0xbdbad7ca	-0.0912319
29	0x3d880e9f	0.06643414
30	0xbd83c71d	-0.06434462
31	0x3e9e76a3	0.30949888
32	0xbd259144	-0.04042174
33	0x3e675fb0	0.22595096
34	0x3de2fac5	0.11082987
35	0x3da6f897	0.081528835
36	0xbe11664f	-0.14199184
37	0x3e603df7	0.21898638
38	0xbd0637f6	-0.032768212
39	0x3e2aabf3	0.16667156
40	0x3e2eddd1	0.17076804
41	0x3e1d1dce	0.15343401
42	0xbe87895e	-0.2647199
43	0xbdec265a	-0.115307525
44	0x3e831a2f	0.25605914
45	0x3dd84f25	0.105619706
46	0xbe1a6853	-0.15078859
47	0x3e5c63ac	0.21522397
48	0x3dd4b5b5	0.1038622
49	0x3ea288b5	0.31744924
50	0xbdfe8d4f	-0.12429296
51	0x3dc4ca14	0.09608856
52	0x3eb0356c	0.34415758
53	0x3e242659	0.16030253
54	0x3c8f34e3	0.017481273
55	0x3de694b9	0.11258835
56	0xbea74dd2	-0.3267656
57	0xbe01797d	-0.12644
58	0xbe931f6f	-0.2873492
59	0x3e8f2bb1	0.2796302
60	0xbe3abe3c	-0.18236631
61	0xbe9d097d	-0.306713
62	0x3ccda52f	0.02510318
63	0xbda4800e	-0.08032237
64	0xbe7a529f	-0.2444558
65	0xbe11dd64	-0.1424461
66	0xbe9edd7b	-0.3102835
67	0xbd6b2204	-0.057405487
68	0x3e1ee31c	0.15516323
69	0x3e544b75	0.2073191
70	0xbe9a97da	-0.3019398
71	0xbe807616	-0.25090092
72	0xbccf41d8	-0.025299951
73	0x3eba7f96	0.36425465
74	0x3d1588c6	0.03650739
75	0xbd90d250	-0.07071364
76	0x3e8f410e	0.2797932
77	0xbe43c274	-0.19117147
78	0xbd983cc2	-0.07433464
79	0x3e7a5892	0.2444785
80	0x3df33fa1	0.118773706
81	0xbe2bd9df	-0.1678233
82	0x3e27c435	0.16383441
83	0xbe8671a9	-0.2625859
84	0xbe4c8f07	-0.19976436
85	0xbdf68b1d	-0.120382525
86	0xbe02507f	-0.1272602
87	0xbe676139	-0.22595681
88	0xbea175c9	-0.31535175
89	0x3dcc6949	0.09981019
90	0xbe9609c2	-0.2930432
91	0xbd388d9b	-0.04505692
92	0x3e673577	0.22578989
93	0x3dcd1b8f	0.10015022
94	0x3da5d641	0.08097506
95	0x3e82f5f9	0.25578287
96	0x3e892380	0.26784897
97	0xbd004bdb	-0.03132234
98	0xbe6016d8	-0.21883714
99	0x3d61d4b2	0.055134483
100	0xbe12c65c	-0.1433348
101	0x3d6cc107	0.057801273
102	0x3eb428ca	0.3518737
103	0x3cad97ef	0.021190612
104	0xbe2ce826	-0.16885433
105	0xbdb7fd79	-0.08983893
106	0x3d2b031d	0.041751016
107	0xbcff751f	-0.031183777
108	0x3d69e241	0.05710054
109	0x3def2362	0.116766706
110	0xbe63969b	-0.2222542
111	0x3eb52e58	0.3538692
112	0xbe6e8ab2	-0.23295096
113	0xbddb5614	-0.107097775
114	0xbe24f053	-0.16107301
115	0x3dbcd3d7	0.09220093
116	0xbc9c6e2f	-0.019095508
117	0x3d968a97	0.07350653
118	0xbe70208b	-0.23449914
119	0x3d63bc7f	0.055599686
120	0xbe33a013	-0.17541532
121	0xbe2b7d52	-0.16747025
122	0x3ea225c5	0.3166944
123	0x3e3a0854	0.1816724
124	0xbe0f4527	-0.13991223
125	0x3d24741a	0.040149786
126	0x3de3d44c	0.11124477
127	0x3e27f1a4	0.16400772
128	0x3ea0f36c	0.31435716
129	0xbe2721bd	-0.16321464
130	0xbe87c01e	-0.2651376
131	0xbe432ed8	-0.19060838
132	0x3e6ccf44	0.2312594
133	0x3da1a9d9	0.07893724
134	0xbe65009f	-0.22363518
135	0xbe3a427d	-0.18189426
136	0xbe8ede91	-0.2790418
137	0xbe95febb	-0.29295906
138	0x3d9a0e5b	0.07522269
139	0xbc8af967	-0.016964627
140	0x3da48c92	0.08034624
141	0xbaa33640	-0.0012452081
142	0xbecc80d2	-0.39942032
143	0x3e429a2c	0.19004124
144	0xbdae369a	-0.08506508
145	0xbe97c408	-0.29641747
146	0x3e91a706	0.2844774
147	0xbb54e97f	-0.0032487807
148	0xbdc6a648	-0.096996844
149	0x3e9b2fa2	0.30309778
150	0xbea3ae04	-0.319687
151	0x3e78288e	0.2423422
152	0xbe9db135	-0.3079926
153	0x3ec05cfa	0.37570935
154	0x3e8e3ce0	0.2778082
155	0xbe737726	-0.2377592
156	0x3bba25cf	0.0056807767
157	0xbe0dbb48	-0.13840973
158	0x3c46d844	0.012136523
159	0xbd74d167	-0.059770014
160	0x3e32f438	0.17475975
161	0xbe82af0d	-0.25524178
162	0xbe9c7727	-0.30559656
163	0x3de17502	0.110086456
164	0xbe9903a4	-0.2988559
165	0x3b58b139	0.0033064617
166	0x3e2ef95e	0.17087314
167	0xbe90034f	-0.28127524
168	0xbe845e51	-0.25853208
169	0x3d0e9a6d	0.03481524
170	0xbe148e69	-0.1450745
171	0x3db56d0a	0.08858688
172	0xbe4189af	-0.18900178
173	0xbd146b64	-0.03623523
174	0x3ea91d4c	0.33030164
175	0x3d55f068	0.052231222
176	0x3ca28f75	0.019843796
177	0xbde63365	-0.112402715
178	0xbe600e23	-0.21880393
179	0x3ea6902d	0.32531872
180	0x3e53dea7	0.20690404
181	0x3eaa35a3	0.33244047
182	0xbd9ba7fd	-0.076004006
183	0x3e2fa076	0.17151055
184	0xbea2c7e2	-0.31793123
185	0x3e9ae86e	0.30255455
186	0xbe8b7186	-0.2723505
187	0xbdecffa9	-0.11572201
188	0x3dfa5dbb	0.12224909
189	0x3e2770ff	0.16351698
190	0xbe6c7e31	-0.23095013
191	0xbe0e1f50	-0.13879132
192	0x3d9973ef	0.07492816
193	0x3e1eb6fd	0.15499492
194	0xbd26645f	-0.040623065
195	0xbde38858	-0.1110999
196	0x3e5035f8	0.20333087
197	0x3e8466d4	0.25859702
198	0xbeb909c4	-0.36140263
199	0x3e94544f	0.28970572
200	0x3d8f8398	0.070075214
201	0x3e21105e	0.157289
202	0xbe7fb11f	-0.2496991
203	0xbe862142	-0.2619725
204	0x3c434ead	0.011920613
205	0xbbc5a8f1	-0.0060321023
206	0x3c46ac05	0.012125974
207	0xbe410c7c	-0.18852419
208	0x3dcb8a35	0.0993847
209	0xbe1abae3	-0.15110354
210	0x3e8026c6	0.25029582
211	0xbe3dedff	-0.1854782
212	0xbd1db851	-0.038505856
213	0xbd70365b	-0.058645587
214	0x3d2dfe11	0.042478625
215	0xbdbd7780	-0.092513084
216	0x3e79ff69	0.24413837
217	0x3de4488d	0.111466505
218	0xbdaa2db0	-0.083094954
219	0x3dc6cc82	0.097069755
220	0x3c5542e4	0.013016436
221	0x3e926406	0.28591937
222	0x3e3f3634	0.1867302
223	0xbe999a7d	-0.30000678
224	0x3e9135e5	0.2836143
225	0xbd8f7042	-0.07003833
226	0x3e038603	0.1284409
227	0x3d8cb065	0.06869582
228	0xbd2f3b63	-0.042781245
229	0x3e8335e1	0.25627044
230	0x3de99c91	0.11406816
231	0xbc667497	-0.014065883
232	0xbda69aa0	-0.08134961
233	0x3c39bfbb	0.011337216
234	0xbe6f386e	-0.2336137
235	0x3e328cd2	0.17436531
236	0x3e031dc6	0.12804326
237	0x3de83ff9	0.11340327
238	0x3d2d5859	0.042320583
239	0x3e3ab000	0.18231201
240	0x3de44816	0.11146562
241	0x3eb1f858	0.34759784
242	0xbce900e9	-0.028442817
243	0xbd0d446b	-0.034489077
244	0x3d1bfc54	0.038082436
245	0x3d8e2dd4	0.06942335
246	0xbd2760a9	-0.040863667
247	0x3e916df0	0.28404188
248	0x3e0f39eb	0.13986938
249	0xbe958768	-0.2920487
250	0x3e83dd8f	0.25754973
251	0x3d88192d	0.06645427
252	0xbd0737b3	-0.033012103
253	0xbe44b89b	-0.19211046
254	0xbe6f65cb	-0.23378675
255	0xbe734195	-0.23755486

onnx::LSTM_96 f4 [1, 36, 9]
0	0xb9eb70fb	-0.0004490687
1	0x3df66b50	0.12032187
2	0xbe22eee8	-0.15911448
3	0x3e53c848	0.2068187
4	0xbe01f5ef	-0.12691472
5	0x3e50f566	0.20406112
6	0x3e5b75ff	0.2143173
7	0xbeaac76d	-0.33355275
8	0x3e28d32b	0.16486804
9	0x3e3d5465	0.18489225
10	0xbe5563f6	-0.20838913
11	0xbe9af7d5	-0.30267206
12	0x3d16fe96	0.036863886
13	0xbe71fb17	-0.2363094
14	0xbb77a6a3	-0.0037788532
15	0x3de80018	0.11328143
16	0x3e508428	0.20362914
17	0xbec245dd	-0.37943926
18	0xbe7ca062	-0.24670556
19	0x3e07db6b	0.13267295
20	0x3d266f2b	0.04063336
21	0xbe4b2d03	-0.1984139
22	0x3dc24203	0.09485247
23	0x3e8ac715	0.27105013
24	0xbe568401	-0.20948793
25	0xbd8b8e7c	-0.06814286
26	0x3e6ad342	0.22932151
27	0xbd737177	-0.05943438
28	0x3dd6a6ec	0.104810566
29	0x3d9026d5	0.070386566
30	0xbdf60785	-0.12013153
31	0xbdec1052	-0.1152655
32	0xbda90658	-0.08253163
33	0xbc8d07dc	-0.017215662
34	0xbe87b619	-0.26506117
35	0xbb9d119a	-0.004793358
36	0xbe897aab	-0.268514
37	0xbdffd78f	-0.124922864
38	0x3e488b1f	0.1958432
39	0xbcbffc87	-0.023435844
40	0x3e0b4913	0.13602094
41	0x3ddb68d0	0.10713351
42	0x3e45974d	0.19295998
43	0x3dd6dd70	0.104914546
44	0x3bed8593	0.0072485893
45	0x3e85a852	0.2610498
46	0x3e8aa682	0.2708016
47	0xbe974eee	-0.29552406
48	0x3e89ce71	0.26915315
49	0x3d95f767	0.07322579
50	0x3dd15ea4	0.102231294
51	0x3cd90df8	0.026495919
52	0x3e3ba9f6	0.18326554
53	0xbc9cd55c	-0.019144706
54	0xbdb61709	-0.08891112
55	0xbda6f0df	-0.08151411
56	0xbde1804d	-0.110107996
57	0x3e9ef8e8	0.31049275
58	0x3db98acd	0.09059677
59	0x3e48a66a	0.19594732
60	0x3c5d9cca	0.013526151
61	0x3d219c1b	0.039455514
62	0xbc8b2b48	-0.016988412
63	0x3daa6cbf	0.08321523
64	0xbd005523	-0.031331193
65	0xbe8898dd	-0.26679125
66	0xbc09262b	-0.008370916
67	0x3d40eb2a	0.04709927
68	0x3e39d022	0.18145803
69	0x3e82cb32	0.2554565
70	0x3e8bdd5f	0.2731733
71	0xbe1b087b	-0.15139954
72	0x3e819cf3	0.25315055
73	0x3cd29352	0.025705013
74	0xbe946fcb	-0.2899154
75	0x3caad6d5	0.020854393
76	0x3e42876f	0.18996976
77	0x3e5e8592	0.2173064
78	0xbdbe17f5	-0.09281913
79	0xbda87502	-0.082254425
80	0x3e991574	0.2989918
81	0x3e8f41a6	0.27979773
82	0xbe818801	-0.25299075
83	0xbe82349f	-0.25430772
84	0xbcfd7ac9	-0.030942338
85	0x3d884ed5	0.06655661
86	0x3c348864	0.011018846
87	0xbea2e5fb	-0.31816086
88	0xbdfcc72c	-0.123426765
89	0xbe8de8a3	-0.2771655
90	0xbe9ccfa4	-0.30627167
91	0xbcf815e7	-0.030283881
92	0xbde0a09f	-0.10968136
93	0x3e1530ff	0.14569472
94	0x3e0b4e28	0.13604033
95	0xbb853072	-0.004064613
96	0xbd9be22f	-0.076115005
97	0xbc2eb9a4	-0.010664377
98	0xbe7848d2	-0.24246529
99	0x3e6a9bb0	0.22910953
100	0xbdb4b45b	-0.088234626
101	0x3cd9b80d	0.02657702
102	0xbd73b4f8	-0.059498757
103	0xbe196326	-0.14979228
104	0x3e1b1b16	0.15147051
105	0xbe4ba99c	-0.1988892
106	0xbead4e57	-0.3384883
107	0xbe4cb386	-0.19990358
108	0xbe65cedf	-0.22442196
109	0xbe9a7959	-0.30170706
110	0xbeb99e23	-0.3625346
111	0x3e8092e2	0.25112063
112	0x3e9503d7	0.29104492
113	0xbe064805	-0.13113411
114	0x3d82c1b8	0.06384605
115	0xbe962a8f	-0.29329345
116	0xbd9c77f9	-0.076400705
117	0xbe36008a	-0.17773643
118	0x3c3f7b63	0.0116871325
119	0x3e8322b5	0.25612417
120	0x3e604196	0.21900019
121	0xbc48d646	-0.012258118
122	0x3e5f36bf	0.21798228
123	0xbca9015a	-0.020630527
124	0xbe94313d	-0.28943816
125	0x3e9afb61	0.30269912
126	0x3ea7cdf1	0.32774308
127	0xbc02783d	-0.007963237
128	0x3dc86824	0.09785488
129	0xbdea831c	-0.114507884
130	0x3e1a8d4f	0.15092967
131	0xba04ee27	-0.0005070888
132	0x3d333583	0.043752205
133	0xbe8bd805	-0.27313247
134	0x3d7083d7	0.058719482
135	0xbe902c5e	-0.2815885
136	0xbe4a3efa	-0.19750586
137	0x3c5fd16e	0.013660772
138	0x3e252f44	0.16131312
139	0xbe298fa3	-0.165587
140	0xbe4a8b4d	-0.19779702
141	0x3e53f7a3	0.20699935
142	0xbe9f9b87	-0.31173345
143	0xbe7f2217	-0.24915348
144	0xbe01f701	-0.12691881
145	0x3e8cce48	0.2750113
146	0xbe6ee5d5	-0.23329861
147	0x3e02fac7	0.12790976
148	0x3e81b6ec	0.2533487
149	0x3e83a23b	0.2570971
150	0x3dd8835a	0.10571928
151	0x3dfebba4	0.12438133
152	0x3e79957b	0.24373429
153	0xbe801bc1	-0.25021175
154	0xbe52768c	-0.20553035
155	0x3e87505a	0.2642849
156	0xbe995dd4	-0.29954398
157	0xbe28c877	-0.16482721
158	0x3e46348c	0.19355983
159	0x3eb69082	0.35657126
160	0xbe5ce85d	-0.21573015
161	0xbe993dc7	-0.29929945
162	0x3e85fd3f	0.26169774
163	0x3ea26f4a	0.31725532
164	0xbe64b103	-0.2233315
165	0x3dbde3ff	0.092720024
166	0xbe44db2b	-0.19224231
167	0xbe9a25ab	-0.30106863
168	0x3e9cc08d	0.30615655
169	0xbc2b850c	-0.010468733
170	0xbe58a830	-0.21157908
171	0x3de76043	0.11297657
172	0xbdf80ec9	-0.12112195
173	0x3e301e84	0.17199141
174	0x3e6c5b2b	0.23081653
175	0x3c5a03d4	0.013306577
176	0xbe326434	-0.17421037
177	0x3b21f6b5	0.00247137
178	0xbe56b5f7	-0.20967852
179	0xbeaaa4d4	-0.3332888
180	0xbe0ef80f	-0.13961814
181	0xbe2b9ea5	-0.16759737
182	0xbe94a2d1	-0.2903047
183	0x3c07dc75	0.008292307
184	0x3db6cb78	0.08925527
185	0x3ca5762d	0.020197952
186	0x3ea7e6ce	0.32793278
187	0x3e1f48ad	0.15555067
188	0x3de4ab8d	0.11165533
189	0xbe8b8330	-0.27248526
190	0xbe0f0cf5	-0.13969786
191	0xbca3d585	-0.019999275
192	0xbe9cb079	-0.30603388
193	0x3c90b534	0.01766453
194	0x3de419bd	0.11137722
195	0xbe5b6b57	-0.21427666
196	0xbeaa4f67	-0.33263704
197	0x3e4c78ac	0.19967908
198	0x3e481c28	0.19541991
199	0x3d4ceb11	0.050028864
200	0x3cdc0bd4	0.026861109
201	0xbd861ceb	-0.065484844
202	0xbe661458	-0.22468698
203	0xbe9458c8	-0.28973985
204	0x3d62bfb9	0.055358622
205	0xbe077cce	-0.13231203
206	0x3e2cb586	0.1686612
207	0x3e87aa1e	0.26496977
208	0x3d0480b1	0.032349292
209	0x3de50d84	0.111842185
210	0xbe9ec62a	-0.31010562
211	0xbe2b6f1a	-0.167416
212	0xbd37f608	-0.044912368
213	0x3df30d18	0.11867732
214	0x3e399810	0.18124413
215	0xbea5324c	-0.32264936
216	0xbe0b0574	-0.13576299
217	0x3e1e3ece	0.15453646
218	0x3d19e24b	0.037569325
219	0x3d273017	0.040817346
220	0xbbd00ff8	-0.00634956
221	0xbe8cfacb	-0.2753509
222	0xbe8ccc41	-0.27499583
223	0xbe0d76a2	-0.13814786
224	0xbe0bc155	-0.13647969
225	0xbe93f6b0	-0.28899145
226	0xbe509a57	-0.20371376
227	0xbe3af2a2	-0.1825662
228	0xbdf026a1	-0.11726118
229	0xbe93a709	-0.28838375
230	0x3e84bc7b	0.2592505
231	0xbe5f84b6	-0.21827969
232	0xbc669b00	-0.014075041
233	0x3e3b6f9d	0.18304296
234	0x3eb8a654	0.36064398
235	0xbe84e66d	-0.2595705
236	0xbeb42e6b	-0.35191664
237	0x3d8701fa	0.06592174
238	0x3e76c73c	0.2409944
239	0x3eac69eb	0.3367456
240	0xbe531b13	-0.20615797
241	0xbe1b5b9a	-0.15171662
242	0xbe1d5e67	-0.15368043
243	0x3e7121d8	0.23548067
244	0xbe925603	-0.28581247
245	0xbe5b107c	-0.21393007
246	0xbe0cd7fa	-0.13754264
247	0x3e7f8032	0.24951246
248	0x3ea2a92c	0.31769693
249	0xbe17db41	-0.14829732
250	0xbd8286f8	-0.063733995
251	0x3e868e55	0.26280466
252	0x3dcfc327	0.10144644
253	0xbe3868f1	-0.18008782
254	0x3d878a0f	0.066181295
255	0xbcb3022d	-0.021851623

onnx::LSTM_97 f4 [1, 72]
0	0xbdab33e5	-0.083595075
1	0xbda22e90	-0.07919037
2	0x3e5c94ce	0.2154114
3	0x3e3fe34d	0.18739052
4	0xbde538bc	-0.11192462
5	0xbdf79b00	-0.12090111
6	0x3e891634	0.26774752
7	0xbd91f55e	-0.07126878
8	0x3e91d41a	0.28482133
9	0x3e930a89	0.28718975
10	0x3cc85bfc	0.024457924
11	0xbe2f54ca	-0.17122188
12	0xbe9ab985	-0.30219665
13	0x3de56e63	0.11202695
14	0x3e92cf50	0.28673792
15	0x3c284e04	0.010272507
16	0xbe126185	-0.14295013
17	0xbda9aa6d	-0.08284459
18	0xbea93172	-0.33045536
19	0x3e17b7c6	0.14816198
20	0x3e1dd3ac	0.15412778
21	0x3dd130b4	0.102143675
22	0xbc74f4c4	-0.014950935
23	0xbcef3ef6	-0.029204827
24	0x3e82be3e	0.25535768
25	0x3ea6bd9d	0.32566538
26	0x3e9beb0a	0.30452758
27	0x3e0665b7	0.13124739
28	0xbd377d52	-0.04479725
29	0x3e3724ae	0.17885086
30	0xbe876742	-0.26445967
31	0xbe9ca038	-0.30590987
32	0x3d7098ff	0.05873966
33	0x3e84fb35	0.25972906
34	0xbeaa886c	-0.33307207
35	0xbe35460b	-0.177025
36	0xbe62bfb7	-0.22143446
37	0x3e85cdc5	0.26133552
38	0xbe410f4e	-0.18853495
39	0x3eaa9f44	0.33324635
40	0xbdb0ba00	-0.08629227
41	0xbe3d88a5	-0.18509157
42	0xbe4aef17	-0.19817768
43	0xbe9171ee	-0.28407234
44	0xbe5209b0	-0.20511508
45	0x3e476aac	0.19474286
46	0xbe175cd6	-0.14781508
47	0xbccbd8bb	-0.024883619
48	0x3db43ea5	0.08801011
49	0xbdc2d923	-0.09514072
50	0xbe8b4d44	-0.27207386
51	0xbe20f4bc	-0.15718359
52	0xbe07dcfa	-0.1326789
53	0x3ea41dd4	0.32054007
54	0xbe69fa2b	-0.22849338
55	0xbdf30d86	-0.11867814
56	0xbb066833	-0.0020508885
57	0x3e3539ee	0.1769788
58	0x3e8d8f8a	0.27648574
59	0xbe53105f	-0.20611714
60	0x3e9febc2	0.31234556
61	0xbb04c02d	-0.0020256147
62	0x3e816e37	0.252794
63	0xbe9f19c3	-0.31074342
64	0x3d57ab3c	0.052653536
65	0xbda6b415	-0.08139817
66	0x3e30b4df	0.17256497
67	0xbe8d864a	-0.27641517
68	0xbc02dfb4	-0.007987905
69	0xbe5a6af1	-0.21329857
70	0xbe624011	-0.22094752
71	0x3dc6c9c1	0.0970645
