Assets/Models/LSTM-WithZ-v2.onnx (onnx, 23418 bytes, 5 tensors)

net.0.weight f4 [3, 32]
000000 aa d9 95 b9 99 23 34 be 94 3d 95 be cb 4c 60 be
       -0.00028581667 -0.17591704 -0.29148543 -0.21904294
000010 58 ee 74 bd 7e 35 0e 3e aa f0 78 3e 88 62 58 bd
       -0.059797615 0.13887593 0.24310556 -0.05282834
000020 00 f5 29 3e 59 4d 5c 3e 1e 18 82 3e bb e3 b2 3d
       0.16597366 0.21513881 0.25409025 0.087348424
000030 74 31 1d be b6 c3 0e 3d d3 c5 5b be 16 f2 68 3e
       -0.15350896 0.034854613 -0.21462183 0.22748598
000040 c6 10 ac be 81 22 43 3d 6a 10 79 be be b6 ca 3d
       -0.33606547 0.047640327 -0.24322668 0.098981366
000050 05 4f 6d 3e 78 ef 61 3e cb 7b e2 bd ad 1c 11 3e
       0.23174675 0.22064006 -0.11058768 0.14171095
000060 6f db 0b 3e c2 7f 8c 3e a0 1c ba 3d 0b 2d 89 bd
       0.13657926 0.2744122 0.09087491 -0.066980444
000070 6b 5c 08 be 5a 4b 43 3e f9 2e 3c bd 98 82 cf 3d
       -0.13316505 0.19071713 -0.045943234 0.10132331
000080 ec fe 31 be 9e ed ad bd ce 85 f2 3d c1 5b 65 3e
       -0.17382401 -0.084925875 0.118419275 0.22398283
000090 4d 4a 3a 3e 5f 73 c9 bd 42 b0 de 3d d3 0e 01 3e
       0.18192406 -0.098364584 0.10873462 0.12603311
0000a0 b7 8a 41 3e c6 ca 37 3e 34 dd 4c be 3e 35 27 be
       0.18900572 0.17948446 -0.20006257 -0.16328904
0000b0 55 76 28 3e 79 78 88 3e d1 37 89 bd 72 4a 6d be
       0.1645139 0.26654413 -0.06700099 -0.2317293
0000c0 b3 03 85 3d 55 9f f5 bc a5 ec 0a be 96 89 4b 3e
       0.06494846 -0.029983202 -0.13566835 0.19876704
0000d0 27 3a cb 3d 19 93 9c 3e cd 51 e8 3d e5 bf 7c be
       0.09923201 0.30580977 0.11343727 -0.24682577
0000e0 56 cd 3a 3e 62 b2 5c 3c 47 72 2d be ec d0 03 3e
       0.18242392 0.013470264 -0.16938125 0.12872666
0000f0 e0 d6 ee bc da 15 cd 3d 54 42 15 3e 39 a6 c5 3c
       -0.029155195 0.100139335 0.14576083 0.024127113
000100 99 36 9f bd 50 2f ae bd 1b 27 8e bd bf a0 dc 3d
       -0.077740856 -0.08505118 -0.069410525 0.107728474
000110 aa d0 11 3e 09 b3 24 be f1 70 a9 3c fb 80 20 3e
       0.14239755 -0.16083921 0.020683737 0.15674202
000120 6b 4a cf bd 51 f5 af bd 1b 09 2e be d9 d2 34 3d
       -0.10121616 -0.08591712 -0.16995661 0.044146392
000130 15 65 b4 bd 58 7c 04 be 11 ae e3 bd 18 01 d0 bd
       -0.08808342 -0.12938058 -0.11117185 -0.101564586
000140 33 a7 c8 bc c8 d8 c2 3d db 25 b7 3d 50 51 95 3d
       -0.02449379 0.09514004 0.08942767 0.072909
000150 71 05 4c 3e 3a bc f7 bd 9c d8 26 be 6c 00 66 bd
       0.1992395 -0.12096448 -0.16293567 -0.056152746
000160 7a 57 cf 3d 3c ea c0 3c 87 c9 57 3e 51 04 87 be
       0.10124107 0.023549192 0.2107297 -0.2637048
000170 0e 61 5c be da 03 33 be 70 fe d8 bd 23 71 0a 3e
       -0.21521398 -0.17481938 -0.10595405 0.1351972

net.0.bias f4 [3]
000000 e3 96 36 3c 4e 92 d5 3d 95 a6 b6 bd
       0.011144373 0.10428296 -0.08918492

onnx::LSTM_92 f4 [1, 128, 9]
000000 31 db 81 3c dd 2d 9d bc 7b 3f 2d 3e f8 f9 af 3d
       0.015851589 -0.019186908 0.16918747 0.085926
000010 9a 70 b2 bd e5 8a 50 3e e3 5d 00 bd 29 67 ff 3d
       -0.08712883 0.20365484 -0.031339537 0.12470848
000020 36 92 f2 bd a7 25 e1 3d 1c d9 55 3e dc 6b 02 3e
       -0.11844294 0.1099351 0.20883602 0.12736458
000030 14 b2 3d bd 0e 2a 81 3d 7f 8e 26 3e ea 9a a2 3d
       -0.046312407 0.063068494 0.16265295 0.07939704
000040 e7 34 9d 3c fe b0 73 3e 4c 7e 44 3d d9 f9 3a 3c
       0.019190265 0.23797986 0.04797201 0.011412107
000050 2f 7b b6 3d 90 dd 8a 3d c7 c3 55 be 97 a2 ae 3d
       0.08910214 0.06780541 -0.20875464 0.08527105
000060 54 47 e0 3d 66 12 48 be 29 d0 c6 bd e4 55 32 3d
       0.10951105 -0.19538268 -0.09707672 0.043538943
000070 7d 59 81 3c 25 fd b4 3c bb b4 53 bd a5 91 93 3c
       0.015789742 0.022093365 -0.05168603 0.018013785
000080 99 39 92 3d 0a 15 35 3d 5f c8 0c bd 7c c6 cb 3d
       0.07139892 0.044209518 -0.034370776 0.09949967
000090 4e 03 1d 3e 4c bb b5 3b 2b 40 29 3e 13 05 8b 3c
       0.15333292 0.005546009 0.16528384 0.016970193
0000a0 36 bd a7 bd f9 67 49 3e c8 bc 88 be 7a 67 0d 3e
       -0.08190386 0.19668569 -0.2670653 0.13809004
0000b0 05 85 59 3e 37 92 c7 bc 7f d7 bc bd 5f d7 56 3e
       0.21242149 -0.024361713 -0.0922079 0.20980595
0000c0 a7 bb 20 3e 42 6b 00 3e ff 12 63 bd 16 51 5f 3d
       0.15696584 0.12540916 -0.055438038 0.05452069
0000d0 67 98 a3 3e f0 24 82 3e ce e7 e1 bd bc d1 97 bd
       0.3195221 0.25418806 -0.11030541 -0.074130505
0000e0 b9 01 40 3e 6f 33 a7 3c fc 18 6d be 04 47 7c bb
       0.18750657 0.020410268 -0.23154062 -0.0038494477
0000f0 78 c0 04 3e bb 3c e9 3d e1 53 6c bd db f9 e6 bd
       0.12964046 0.113885365 -0.05769718 -0.11278125
000100 4f be 27 3d 30 b2 18 3e 02 f2 ba bb c2 3d 80 3d
       0.040952977 0.14911723 -0.005705119 0.06261779
000110 70 9b 13 3e 88 59 d8 bd 91 05 54 3e 98 22 cb 3d
       0.14414763 -0.10563952 0.20705248 0.099187076
000120 e2 f9 de 3d bc 54 49 bc 43 d4 3d 3e 8f f8 76 3c
       0.10887505 -0.012288269 0.18538003 0.015073909
000130 94 b2 d1 3d 1a 57 6f bd 81 76 13 be 7c 3b f5 bd
       0.10239139 -0.058432676 -0.14400674 -0.11974236
000140 24 e6 d6 3d e0 ee 3d be 8d 49 83 bc ae 0e 2a 3d
       0.104931146 -0.18548155 -0.016026283 0.041517906
000150 6f 0f ae bd b5 fb 6d be f8 c4 3a 3e 0f ce 8a be
       -0.084990375 -0.2324055 0.182392 -0.27110335
000160 63 12 2b bd b1 72 4c 3e b0 c9 37 3d 58 7b cd 3d
       -0.04176558 0.19965626 0.04487008 0.100332916
000170 75 72 9d 3d 67 92 97 3d 92 34 b2 bd f0 1a 49 bd
       0.076878466 0.07400971 -0.08701433 -0.049097955
000180 c5 1e af bc d1 8d 1a bd b9 67 11 3e 7e da b6 3c
       -0.021376977 -0.037732903 0.14199723 0.022320982
000190 58 ca 39 bd 52 43 2f 3e 62 8b 12 be a0 e1 1e be
       -0.045358986 0.17115524 -0.14310983 -0.15515757
0001a0 a4 83 10 3e fd ed 51 3d 75 8b 91 3e fb 8f 29 be
       0.14112717 0.051252354 0.2842671 -0.1655883
0001b0 b6 1f 3e bd ac 18 31 be 0d b1 a8 3d 05 e0 96 3c
       -0.04641696 -0.17294568 0.08236895 0.018417368
0001c0 27 28 30 bd 0d d3 d2 3c 9b 73 fd bc d1 54 ba bd
       -0.043007042 0.025735402 -0.030938914 -0.09098209
0001d0 c9 8c 8c 3d 6f 55 8b 3c 5f a3 c2 b9 cf 68 4c 3e
       0.0686279 0.017008511 -0.00037124284 0.19961856
0001e0 74 57 16 be 34 58 55 be 20 b2 06 3d 0e c5 75 be
       -0.14681798 -0.20834428 0.032884717 -0.24000952
0001f0 56 87 24 be 79 41 bb 3d 17 4d ef 3d 71 31 6f 3e
       -0.16067252 0.09143347 0.116846256 0.23358704
000200 5a a9 a9 bc 72 f5 91 bc 1f f7 9b bc f5 56 96 bc
       -0.020710636 -0.017817233 -0.019038735 -0.018352011
000210 db 90 9c 3d 89 6c 89 bd 65 a5 04 be 80 9d ca 3d
       0.076448165 -0.067101546 -0.12953718 0.09893322
000220 82 a9 f7 3d 3c 39 be bd 55 4a e2 bc d0 2a 18 3e
       0.12092878 -0.0928826 -0.027623335 0.14860082
000230 51 f0 02 3e 48 da 42 be d7 c0 33 3e 5e 79 56 3e
       0.12786986 -0.1902858 0.17554031 0.20944735
000240 3f d0 8d bc e3 83 18 bf 40 f2 bf 3e 09 f3 5e be
       -0.017311214 -0.59576243 0.3748951 -0.21772398
000250 8d 2a 88 be c7 10 92 3d 74 0b 77 bc dc 23 38 3e
       -0.26594964 0.07132106 -0.015078414 0.1798243
000260 cd 93 8b 3e 70 51 72 3e de e3 87 3d d7 54 15 3e
       0.272612 0.23663878 0.06635259 0.14583145
000270 93 58 62 3e 94 c3 11 be 2d 5f dd bd bb e6 85 3d
       0.22104101 -0.14234763 -0.10809169 0.06538149
000280 53 6b 8f 3c ec 8c 18 3e 82 66 90 bd cf 2d 43 be
       0.01750723 0.14897507 -0.07050802 -0.19060443
000290 73 12 c3 bc 71 e3 ba 3d 52 0f 87 3d da 69 ac bd
       -0.023812508 0.09125412 0.06594719 -0.08418627
0002a0 4e ee bf bd c0 3e 0b be fa 10 79 3e 3d 3b 58 bd
       -0.09371625 -0.13598156 0.24322882 -0.05279087
0002b0 4b 4d f2 3d 49 31 17 3e dc 8b cb 3c 23 3f 2f 3d
       0.11831149 0.14764895 0.024846964 0.04278482
0002c0 98 da 8e bd 54 c4 93 3d f8 3b 2f 3b 6e e7 9c 3c
       -0.06975287 0.07215181 0.0026738625 0.019153323
0002d0 2d 03 cc bc 4f d5 48 be 78 2b 29 3e 2e aa 30 3e
       -0.024903858 -0.19612621 0.16520488 0.17252418
0002e0 b1 07 4b bd b8 ca be 3d ac 10 9a 3b 1e 29 f7 bc
       -0.049567882 0.09316009 0.0047016945 -0.030170973
0002f0 e1 4a 1c 3e 5f 73 ad 3d b5 71 a1 bd 0d 5f a5 3d
       0.15262939 0.08469271 -0.07883016 0.0807477
000300 1c a5 43 3e 64 2b 95 bd 24 bb 5f 3e cf e7 6e 3d
       0.19105953 -0.07283667 0.21848732 0.05832654
000310 c0 4d 82 be f2 92 9c bd b0 ee ad bd 05 e3 55 3d
       -0.25449944 -0.07645215 -0.08492792 0.052218456
000320 7c 51 a6 3c b2 61 02 be 1e 0b 44 be 56 77 91 bd
       0.020302527 -0.1273258 -0.19144866 -0.0710284
000330 19 73 a1 3d 00 4b 2b be 67 41 e9 3d 48 89 5a ba
       0.07883281 -0.16727829 0.11389428 -0.00083364965
000340 f1 4c 03 3c 71 b8 05 3e c7 38 5b 3c 6c c3 48 3d
       0.00801395 0.1305864 0.013380236 0.049014494
000350 3b 9d 43 3e 80 d7 67 bc c9 27 8f 3e 27 49 88 3e
       0.19102947 -0.0141505 0.2796004 0.2661831
000360 a7 1d c5 bd 09 7c 0f 3e 96 ca 1d 3d 8f 84 40 3e
       -0.09624796 0.1401216 0.03852328 0.18800567
000370 08 d1 a1 bd 75 af 01 3e 12 cc 02 3e e7 33 5c 3e
       -0.07901198 0.12664588 0.12773159 0.21504174
000380 53 11 b1 3d 76 69 2d 3d 28 d8 a6 bd 04 83 8b 3d
       0.086458825 0.042336904 -0.08146697 0.068120986
000390 8e a7 ee 3d d2 9f bc 3d 56 d4 23 3e 81 b7 2c 3e
       0.11653052 0.09210171 0.15998968 0.16866876
0003a0 96 81 41 3c eb 5d 9d 3d f1 c7 bd 3d 1f 63 1d bd
       0.011810681 0.07683929 0.092666514 -0.038424607
0003b0 c6 1d fe 3d 75 a3 0b 3d 30 b8 29 be 75 68 3c 3e
       0.124080226 0.03409143 -0.16574168 0.18399222
0003c0 26 7a c1 3d c8 d2 39 bd b2 d4 37 3e bb d5 47 be
       0.09447126 -0.045367032 0.1795223 -0.19515125
0003d0 52 f3 87 3d 30 bb 9b bd dd b9 8a bc 22 ba c4 bd
       0.066382065 -0.076040626 -0.01693433 -0.096058145
0003e0 76 80 3b 3d f1 fc 0d 3e 84 f7 a6 bd 53 e2 83 3c
       0.045776807 0.1386602 -0.081526786 0.01609913
0003f0 2d 70 a5 3d d5 56 9a bd 39 a3 c9 3d 7b 79 5b 3d
       0.080780365 -0.07536093 0.098455854 0.05358265

onnx::LSTM_93 f4 [1, 128, 32]
000000 66 4d 69 3e 03 54 3c be 6a df 88 bd 4e f9 da 3c
       0.22783431 -0.18391423 -0.06683238 0.026730206
000010 25 43 b7 3c e0 bd 03 3e 86 37 e2 3d 01 ec 0f 3e
       0.022370884 0.128654 0.110457465 0.14054872
000020 3e 1e 20 be 71 68 14 be d2 be 51 3e 8d c1 cd bd
       -0.15636536 -0.14492966 0.20482948 -0.100466825
000030 6a 9a d0 3c cb 26 73 be 51 8d f8 bd 35 b7 36 3d
       0.025464255 -0.23745267 -0.12136329 0.044608314
000040 18 d0 5c be bb cf 6f 3c f0 71 e3 bd 15 73 13 be
       -0.21563756 0.014636929 -0.11105716 -0.14399369
000050 e9 4f 80 3d 98 b0 d2 3d 93 9d de 3d a9 1c d4 3d
       0.06265242 0.10287589 0.10869899 0.10357029
000060 cf 96 47 bd ca 6d e0 3d b9 29 94 3d 05 ee 15 3e
       -0.048727807 0.109584406 0.072345205 0.14641578
000070 3a 17 c2 3c f9 2e 2d be 50 9e 8b 3d 6c de 36 be
       0.023692716 -0.1691245 0.06817305 -0.17858285
000080 c6 77 e7 3c 4c ca b0 bd fa b6 bb 3d 40 cd 17 3e
       0.028255355 -0.08632335 0.091657594 0.1482439
000090 c1 f6 9e bc cb 4b e1 3d db 4d 7a 3d f0 99 27 3e
       -0.01940477 0.110007845 0.061109405 0.16367316
0000a0 07 0b 30 be 16 e2 4c bd f2 b5 38 3d 6a 5e 44 bd
       -0.17191707 -0.0500203 0.04509539 -0.047941603
0000b0 cf 7b 69 bd e3 47 96 3c 54 c7 f1 bd 7d b1 9c bd
       -0.05700284 0.018344825 -0.11805597 -0.07651041
0000c0 b6 d2 c4 3c 99 0f 8f 3c 2d 1d c6 bd b2 ae 66 bd
       0.024026256 0.017463492 -0.096735336 -0.056318946
0000d0 20 5c 07 3e 97 ba ec bd 70 35 14 be c9 02 40 3e
       0.13218737 -0.11559027 -0.1447351 0.18751062
0000e0 97 4c 0a 3d 1f bd 47 3e b2 3a 29 3d b5 e7 07 3e
       0.033764448 0.19505738 0.04131574 0.13271983
0000f0 6e 02 98 bd 73 72 24 be 31 70 f6 bd 12 4d 63 3d
       -0.074223384 -0.16059284 -0.120331176 0.05549342
000100 f7 03 ba ba 48 7d 76 be 38 5d 8e bd df ef a1 3d
       -0.0014191855 -0.24071229 -0.06951374 0.0790708
000110 78 00 74 3d 20 03 94 3d e2 a5 01 bb a6 b0 7a 3e
       0.05957076 0.072271585 -0.0019782712 0.24481449
000120 55 6f 5c be 5b 51 25 be da 63 06 3e 0c 83 c4 bc
       -0.21526845 -0.16144316 0.13124028 -0.02398827
000130 58 fb 73 3d 8e 2f 6d bc 1b 79 28 be 8f 16 6e be
       0.059565872 -0.01447667 -0.16452448 -0.23250793
000140 52 49 18 be 8b 49 c8 3a f2 89 96 3d a1 54 74 3e
       -0.1487172 0.0015280707 0.0735053 0.23860408
000150 9c 30 f6 3d 07 d1 89 bd 1f 89 1d 3d c0 0b 31 bd
       0.1202099 -0.06729322 0.038460847 -0.043224096
000160 1f 68 1d bc 85 a5 83 3e 08 05 fa 3d e9 54 1d bd
       -0.009607344 0.2571222 0.12207991 -0.038411055
000170 fe b1 8f bc 26 70 01 3d d6 69 34 be d7 87 76 bc
       -0.017540928 0.031601094 -0.17618498 -0.015047035
000180 2e da 24 be 71 e6 b1 bd bd ef e4 3d 77 ac 00 3e
       -0.16098854 -0.08686531 0.11178539 0.1256579
000190 76 7b 41 3e 84 31 4f 3a 37 2e bf 3d 89 9e 9f bd
       0.18894753 0.0007903802 0.09334987 -0.0779391
0001a0 33 a1 95 bd 84 fe 7b be d1 6c 32 be a0 60 00 be
       -0.07306137 -0.24608809 -0.17424323 -0.1253686
0001b0 49 15 11 bd 74 d9 d6 bd b0 69 03 3e 54 38 ae 3d
       -0.03542069 -0.10490695 0.12833285 0.085068375
0001c0 1f 13 fe be ce 9f e3 3d b0 44 37 3e d2 90 eb bc
       -0.49623963 0.11114465 0.17897296 -0.02875558
0001d0 fe 9f 04 3e f8 70 71 3d 70 43 c1 3c 2d dd 42 3d
       0.12951657 0.058945626 0.023591727 0.04757421
0001e0 c0 31 e7 bd 4a 4f 8d bc 00 47 9e bd d8 cd ed bd
       -0.11288786 -0.017249722 -0.07728386 -0.11611527
0001f0 1d 46 a5 3d 13 c5 5f bd 21 af 08 bd a9 6c f2 3d
       0.08070014 -0.054631304 -0.03337014 0.118371315
000200 12 b0 73 3d f2 82 88 3d d2 57 64 bb 94 66 48 3e
       0.059494086 0.06665601 -0.0034842384 0.1957038
000210 02 65 ad 3c a1 b4 6b be 8b df 89 bd e9 cf 83 3c
       0.021166328 -0.23018123 -0.067320906 0.01609035
000220 60 04 21 be 7d 65 af be 79 e5 c9 bd 41 2a 9b 3d
       -0.15724325 -0.34257117 -0.098582216 0.07576419
000230 0b 07 3e 3c d4 fd 8a be 2c 9d 1d be 07 85 92 3c
       0.011598359 -0.2714678 -0.15391988 0.017885698
000240 d8 d0 cc 3a e1 e6 44 3c 57 07 cf 3d 85 25 57 3d
       0.0015626205 0.012017936 0.10108822 0.052526016
000250 0e da 9b 3c 7f 84 b7 be ef f8 2d be cf 3f 24 be
       0.019024875 -0.35843274 -0.16989492 -0.16039966
000260 bb 33 1a be c3 c0 a9 bd 11 b6 3c 3e 96 91 95 be
       -0.15058796 -0.082887195 0.18428828 -0.29212636
000270 80 3a 94 bd 66 92 83 be 5b f0 be bc b7 89 0c 3e
       -0.072377205 -0.2569763 -0.02330797 0.13724409
000280 f0 e9 38 3d df 69 59 3d a1 00 24 bd 51 b6 d4 bd
       0.045144975 0.053079482 -0.040039662 -0.103863366
000290 00 86 95 3d 2e 4d 59 3d 52 fc 07 3e 88 02 b4 bd
       0.07300949 0.05305212 0.13279846 -0.08789545
0002a0 8b 62 b3 3d 12 a0 56 bd 14 db 79 bd c9 29 86 bd
       0.0875903 -0.05239875 -0.060999945 -0.06550939
0002b0 56 f5 f4 bd 02 6d 1f 3e c3 99 e0 3d ef 68 94 3d
       -0.119608566 0.15568927 0.10966828 0.07246577
0002c0 e6 f6 a4 bd c0 38 18 3e f3 39 3d 3c 8b 59 c8 3d
       -0.08054905 0.14865398 0.011549461 0.09782704
0002d0 08 fa a6 3d 51 93 d9 3d 02 11 e2 3d 9f 89 8a bd
       0.081531584 0.106238015 0.110384 -0.067645304
0002e0 2e da 45 3d f9 fa 10 bd 3a 3c 30 be db 53 06 bc
       0.048303775 -0.035395596 -0.17210475 -0.008198704
0002f0 78 9f 55 be fe a0 51 be ce 44 2d be df 5e 28 3e
       -0.20861614 -0.2047157 -0.16920778 0.1644244
000300 a0 54 ca bd 51 7d 94 bc 11 59 3f be eb 8f f7 bd
       -0.09879422 -0.018126162 -0.1868632 -0.12087997
000310 98 12 e9 bb 9e 01 a2 bc 7d 71 58 bd 13 b1 8d bd
       -0.0071128123 -0.019776162 -0.052842606 -0.0691854
000320 e4 86 32 bd 83 e8 43 3e 23 76 09 3e 00 ff 6d 3d
       -0.043585673 0.19131665 0.13423972 0.058104515
000330 ac 89 3b bc d7 04 c4 bd 9a 0a 27 3e fa 6a 3d bd
       -0.011446398 -0.095712356 0.16312638 -0.0462446
000340 41 37 7e 3c 2f 56 0c 3e a2 5d 1b 3e ad 46 8f 3a
       0.015516103 0.13704751 0.15172437 0.0010931097
000350 f6 9c ea 3c 5a 77 f2 bd 1c 22 f5 3d 33 57 78 bd
       0.028639298 -0.11839171 0.119693965 -0.060630035
000360 4f 08 ba bd 98 df 0a 3c 51 cd 1e 3e 23 e8 3b 3e
       -0.09083616 0.0084761605 0.1550801 0.18350272
000370 c4 b7 49 be 8d 3c 2c be f3 f1 12 be 4a dc d4 bd
       -0.19699007 -0.16819973 -0.14350109 -0.10393579
000380 d5 5f 4e be a1 de 12 bd c3 d8 11 be d7 fb b0 bd
       -0.20153745 -0.035856847 -0.14242844 -0.08641785
000390 39 a8 e2 3d 90 43 b3 3d 53 f4 06 3e 70 79 3a 3d
       0.11067242 0.08753121 0.1317914 0.045525968
0003a0 11 53 8c 3d f6 d6 8e 3d 1e 4b 0b be 22 2b 7f bd
       0.06851781 0.06974594 -0.13602874 -0.062296994
0003b0 8e 18 c4 bd a8 21 7c be 6a 04 11 3e 7d 9c a5 bc
       -0.09574996 -0.24622214 0.1416184 -0.020216221
0003c0 db 8d e9 be 4a 33 3a 3d 6c a6 88 3d f2 9b 91 3c
       -0.4561604 0.04545907 0.066723675 0.017774556
0003d0 cb 8f 4c 3e 2f 43 24 3a 1b 2c 87 bb 19 e1 13 be
       0.19976728 0.00062661147 -0.004125131 -0.14441337
0003e0 34 03 8b 3c b5 9e 2e 3e c1 c6 69 bc 42 e5 4e 3d
       0.0169693 0.1705273 -0.014268578 0.050511606
0003f0 43 c1 51 bd 67 85 89 bd f1 1c e0 bd 43 32 8a 3d
       -0.0512097 -0.067148976 -0.1094302 0.06747868

onnx::LSTM_94 f4 [1, 256]
000000 3b b4 38 3e 32 00 37 3d 60 63 37 3e ea 1e 11 3e
       0.18037502 0.04467792 0.17909002 0.14171949
000010 2e 68 06 3e f4 ab a1 bd 7c 94 6d bd f6 4b 73 3d
       0.13125679 -0.078941256 -0.058002934 0.059398614
000020 1f d1 4a 3e 3e 7d ff 3d 95 ae c1 3d 84 f9 b3 bc
       0.19806336 0.1247506 0.09457127 -0.021969564
000030 8b 4b 98 bd 53 dd 71 3e 51 73 f3 bd 82 54 59 3e
       -0.07436284 0.23619585 -0.11887229 0.21223643
000040 4a 45 db 3d 8a b0 d6 3d af f0 52 3e 8a eb 45 3d
       0.10706575 0.10482891 0.20599626 0.04832033
000050 5c b0 00 3e df 1a 64 3e 95 a0 1f 3e b1 bd 88 3e
       0.12567276 0.22275876 0.15588601 0.26707223
000060 da 3d 0a 3e 7b dd 51 3e 6f 18 0b bd 29 75 04 3e
       0.13500157 0.20494644 -0.03395885 0.12935318
000070 7c df 19 bd 7c 4d 72 3e bd 4c b2 3d 0d c9 ac 3c
       -0.037566647 0.2366237 0.08706043 0.021091962
000080 66 5d 6b bd 4f d7 03 be c6 84 8a 3e c9 9c 40 3e
       -0.05746212 -0.12875102 0.27054423 0.18809809
000090 df a2 35 3e 41 69 f8 3d 54 f4 25 3e 1b 8c 0b 3e
       0.17737912 0.121294506 0.16206485 0.13627665
0000a0 69 ea 5f 3e 53 a5 3a 3e 43 ef 0e 3e 2b 88 30 3d
       0.21866764 0.18227129 0.13958459 0.04309861
0000b0 2d 86 02 bd 5f 60 51 3d 3a f5 a2 bd b5 4b 9c 3d
       -0.03186624 0.051117297 -0.079569295 0.076316275
0000c0 6f f0 a8 3e d0 9d 1d 3e 34 84 84 3e 6d c7 4a 3e
       0.32995936 0.15392232 0.25882113 0.19802637
0000d0 b5 21 fb 3d b2 3f 73 bd 50 af 16 3d 50 4e 5f 3d
       0.122622885 -0.059386916 0.036788285 0.054518044
0000e0 d5 52 4d 3e c8 23 d0 3d 03 82 63 3e bf 14 22 3e
       0.20051129 0.10163075 0.22217564 0.15828227
0000f0 fb 31 9d 3d cd 2e 30 3e 9e 2e 59 bd 47 d7 db bd
       0.07675549 0.17205353 -0.053022973 -0.1073442
000100 82 21 22 3e c4 cf 31 bd c2 36 6b 3e 85 77 f1 3d
       0.15833095 -0.04341103 0.22970107 0.11790375
000110 38 cb c3 3d eb 59 a8 bd c3 27 84 bd 45 8c 43 3e
       0.09560245 -0.082202755 -0.064528964 0.19096477
000120 1a 88 ec bc bc 9d 2e 3e ce 29 f9 3d 87 41 dc 3d
       -0.028873492 0.17052358 0.12166177 0.10754686
000130 39 26 05 3e 1a 77 07 be 76 05 0d 3d 0a dc f8 38
       0.13002862 -0.13229027 0.034429036 0.00011866547
000140 01 9b 7b 3d 93 d6 fb 3c 53 39 ae bd 20 b2 24 bd
       0.06142712 0.030741965 -0.085070275 -0.040208936
000150 fc 3d 58 3d 78 d9 4b bc 75 6f 9e 3c a0 8b 69 3c
       0.052793488 -0.012441985 0.019340256 0.014254481
000160 7b 06 3b 3e 75 60 e0 bd 72 89 70 bd cb 27 04 be
       0.18264191 -0.10955898 -0.058724828 -0.12905805
000170 34 c0 ad 3d 83 a8 e7 3d 0c 78 10 3d 86 25 8c 3d
       0.084839255 0.11311438 0.035270736 0.068430945
000180 46 b7 09 be f3 15 7c be f7 47 45 3d 05 81 a9 3d
       -0.1344882 -0.24617748 0.048164334 0.08276562
000190 7e c0 16 3d 63 3d 26 be d5 86 27 be 03 90 a0 bc
       0.03680467 -0.16234355 -0.16360028 -0.01959992
0001a0 90 53 a6 bc 48 a4 ad bc 8f 65 7a bb ec 5b 52 bd
       -0.020303518 -0.0211965 -0.0038207506 -0.051357195
0001b0 e6 ca eb 3d f3 c4 00 be 73 03 3b bd 77 7f 29 bd
       0.11513309 -0.1257513 -0.045657586 -0.041381326
0001c0 fb 77 75 bb 68 97 95 bc f6 ae 4d 3e 66 64 8a bd
       -0.0037455547 -0.018260673 0.20086274 -0.06757431
0001d0 9f f3 a0 3c 08 34 f5 bd e6 1d 72 be 68 5d d4 3d
       0.019647418 -0.11972815 -0.23644218 0.10369378
0001e0 b9 2b bc 3d 73 6a 14 3e 50 d0 fb 3c 4a 43 b8 bc
       0.09188027 0.14493732 0.03073898 -0.022493023
0001f0 61 dc 2e be 4d 8f 5f be bf f8 68 be 54 f1 c5 3d
       -0.17076255 -0.21832009 -0.22751139 0.0966517
000200 f0 3e 05 3d ac 0b 30 bd da 8a 02 3e 55 d0 ec 3c
       0.032530725 -0.04297988 0.1274828 0.028907934
000210 fc ee 25 3d 96 b4 c4 bd 1f bc 1a 3e 3c 4b 2b 3e
       0.040511116 -0.096047565 0.15110825 0.16727918
000220 a4 7d 4e 3e 26 9b cb 3a 37 a0 ff 3d df c3 1d be
       0.20165116 0.0015533909 0.124817304 -0.1540675
000230 a1 81 e1 3d 2c 3c 39 3e fe 23 4e 3d 79 29 27 3c
       0.11011053 0.1808936 0.050327294 0.010202759
000240 79 96 bc 3e 79 b6 2d 3e d9 a2 29 bc 42 fc 6c 3e
       0.36833552 0.16964139 -0.010353767 0.23143104
000250 61 4a 39 3e 91 16 4c 3e 68 7f 4d 3c 00 71 5b 3e
       0.1809478 0.19930483 0.012542583 0.21429825
000260 ae ea e9 39 7c 97 18 bc e4 89 94 3d ee 83 89 3e
       0.00044616073 -0.00931346 0.07252863 0.26858467
000270 68 c7 f5 3d f6 a4 67 3e 73 56 38 3e 44 0d 8c 3c
       0.12000924 0.22621521 0.18001728 0.01709617
000280 c1 f1 ed bd da d6 b1 bc 30 7b 17 bd f3 a7 24 3e
       -0.116183765 -0.021708895 -0.036982715 0.16079693
000290 14 59 87 3d ae 4b 2c bd b9 72 0b 3e c7 67 86 3e
       0.06608787 -0.04206436 0.13617982 0.2625105
0002a0 78 c1 3a 3d 08 b5 2d 3e 00 cf 05 3d 09 97 a8 3d
       0.045594662 0.16963589 0.032668114 0.08231933
0002b0 1d 29 46 3e fb c6 3d 3c f7 da 1b 3e a4 83 24 3e
       0.19351621 0.011583085 0.15220247 0.16065842
0002c0 c6 3f 81 3e 43 e5 32 3e e0 0e 09 3e 01 fe 93 3d
       0.25243968 0.17470269 0.1338458 0.07226182
0002d0 78 9c ae bd b8 a9 22 3e 28 ca 35 bc da 83 0d 3e
       -0.08525938 0.15885055 -0.011095561 0.13819829
0002e0 2d e7 e6 3c 21 39 86 3e 34 dd eb 3d 09 3a 79 3d
       0.028186405 0.2621546 0.115168005 0.060846362
0002f0 ca cc bd bd 8b ed d1 bd 3f d4 8a 3d aa da 11 3e
       -0.09267576 -0.10250386 0.06778764 0.1424357
000300 1c 88 9a 3d 8c 12 1f 3c c5 06 91 bd 8a b1 b0 bd
       0.07545492 0.009709012 -0.07081369 -0.08627613
000310 3b 58 c5 3d e9 9c 10 3e 8b 92 2e 3e 7f 5c ca bd
       0.09635969 0.14122356 0.17048089 -0.098809235
000320 10 b2 5a bd a6 51 48 3e b3 1f fa 3c 87 d0 b2 3d
       -0.05339247 0.19562396 0.030532693 0.0873118
000330 cd bb 3c 3e 88 a1 aa 3d 8e 8d c9 bc 55 1a a4 bc
       0.18431015 0.08331591 -0.024603631 -0.020032087
000340 63 4b 1e 3e ad d4 28 bb ae e3 ea 3c 31 fb c3 3d
       0.15458445 -0.002576153 0.02867302 0.09569395
000350 a3 38 2e 3e f2 e9 8d 3d 43 7f ef bd 05 82 98 bd
       0.17013793 0.06929387 -0.11694195 -0.07446674
000360 8d 98 8a ba 2f b2 fa bd 88 4e 09 3e de e8 22 3d
       -0.0010574028 -0.12241017 0.13408864 0.03977286
000370 1a c8 20 3e 61 04 e6 bd 1d ce 8e 3d 1c 79 fd 3d
       0.15701333 -0.11231304 0.06972907 0.123766154
000380 83 86 97 bd 3c ae 8d 3d 73 e2 7d bc 5b b1 04 3d
       -0.07398703 0.06917998 -0.015495884 0.0323957
000390 f5 b7 47 3e a4 86 5f be 8b 0c 1f 3e 85 80 40 3e
       0.19503768 -0.21828705 0.15532129 0.18799026
0003a0 a7 73 2e be 32 7c 35 be 87 2c e0 3d 65 d9 e7 bd
       -0.17036305 -0.17723158 0.10945993 -0.113207616
0003b0 1d bd 2d be d6 ce 30 be 5e 2d 45 bc 66 4b 56 be
       -0.16966672 -0.17266402 -0.012034742 -0.209272
0003c0 9f 9f ca bd 86 c5 0a 3e 4f ce bc 3c 06 16 45 3e
       -0.098937266 0.13551912 0.023047594 0.19246683
0003d0 11 1c 27 3e 3a 0f a4 3d f7 7f 5e be b5 15 3b be
       0.163193 0.08010717 -0.21728502 -0.1827
0003e0 d3 2d f9 bd 11 1f f9 3d 14 43 03 3e dd a6 bd bd
       -0.121669434 0.121641286 0.12818557 -0.09260342
0003f0 20 9a bb bd da 32 cb bc b6 27 3f be f3 7b b4 bd
       -0.091602564 -0.024804521 -0.18667492 -0.08812704
