Assets/Models/LSTM-90Hz-Delta-WithZ-v1.onnx (onnx, 3538 bytes, 5 tensors)

net.0.weight f4 [3, 8]
0.051219393 0.3528844 -0.38167745 0.18498904 -0.23559733 0.14979725 0.2513467 -0.108906105
0.068717375 0.17920154 -0.21767062 -0.24828374 -0.06837282 -0.14515647 0.104581244 -0.12145326
-0.2367697 -0.1643772 0.09255745 -0.03715789 0.36230746 -0.19286248 0.10239906 0.1830951
00000000: 6dcb 513d 44ad b43e 3a6b c3be c46d 3d3e
00000010: 6d40 71be 7364 193e 84b0 803e 2a0a dfbd
00000020: b2bb 8c3d 9c80 373e 0ce5 5ebe 183e 7ebe
00000030: 0d07 8cbd e6a3 14be b12e d63d 7dbc f8bd
00000040: c273 72be 7f52 28be c38e bd3d df32 18bd
00000050: 5d80 b93e be7d 45be 99b6 d13d 487d 3b3e

net.0.bias f4 [3]
-0.077993296 -0.023285499 0.22145055
00000000: f3ba 9fbd 3bc1 bebc efc3 623e

onnx::LSTM_92 f4 [1, 32, 9]
-0.2953071 0.18386789 0.10427151 -0.12927477 -0.0109721795 -0.07825169 -1.6813082 1.5946306
-1.6496497 -0.2677802 -0.11595799 0.10056233 0.31976244 -0.15401003 -0.20413865 -1.3422601
-0.72340083 0.91092664 0.16304107 -0.06432919 -0.14096826 0.13010114 0.01460782 -0.0608015
-0.8841214 -0.71586245 0.43782914 0.21665694 -0.013747652 -0.06808993 0.09972842 -0.14941296
-0.07869314 0.20049255 0.3554351 0.77750945 0.011741314 -0.056681674 0.34165803 0.218761
-0.051203758 0.065214105 0.58166015 -1.7319264 -1.145161 0.25478745 -0.26769015 -0.03474788
0.38658404 -0.19321488 -0.32568306 0.8124909 -1.8659678 -0.22582747 0.5377235 0.31255582
-0.05894175 -0.24586964 -0.07966206 0.14632933 -0.796061 -0.69454885 -0.037533864 0.14027749
0.18720315 -0.3982734 0.26705804 0.07456686 -0.10887159 0.17811917 1.1807405 -1.3633099
-0.14637633 -0.09165561 -0.029451316 0.18454061 -0.11338431 -0.05128362 -1.9525305 2.1970015
-2.0037155 -0.0626429 -0.02919182 -0.017600227 -0.13913235 0.17287813 0.23835883 -1.311719
-1.0429093 1.0930938 0.0744283 -0.071105026 -0.038231447 -0.015883587 0.13712686 0.13867255
-0.90158665 -0.6676051 0.13614902 -0.31902146 0.16776624 0.18739426 0.06532232 0.11640386
-0.2639528 -0.1389146 -0.11064716 0.6520505 0.14791428 0.10666479 0.032315295 -0.10538324
-0.012643041 0.0865966 0.7726696 -1.3098093 -2.0726612 0.3543019 -0.20353451 -0.16138482
-0.022273922 0.14007938 0.050053257 1.0152767 -2.072837 -0.4228569 -0.07679097 0.19104044
0.02555185 -0.13531159 0.0817892 -0.1016969 -1.1178554 -0.9215221 -0.30617374 -0.323793
-0.3271269 -0.07109783 0.1464451 0.09367593 -0.19034286 0.6118356 1.6053363 -1.3378328
-0.23462477 0.12390826 -0.503984 -0.036662295 0.042041354 -0.1688365 -1.719202 1.9581172
-1.0130411 0.538256 0.05343784 -0.4228057 -0.10248373 -0.33274645 -0.016947392 -0.7205558
-0.5694967 0.26215056 -0.1447731 0.13737522 -0.3109558 -0.37193096 0.30138308 -0.3218442
-0.42747977 -0.69620454 0.24342763 -0.0748911 0.14377798 -0.52787817 0.115156546 0.09639017
-0.6309873 0.1276953 -0.047146875 1.048395 -0.08656495 0.020420372 -0.009781371 -0.17589447
-0.34467348 -0.27250847 0.76302147 -1.6806942 -1.1910741 -0.2203248 -0.01033005 -0.13683106
-0.2200705 0.23665968 -0.16795667 0.7544683 -1.9007955 -0.69113284 -0.061903894 0.4153463
-0.41467333 -0.0744608 -0.1284928 -0.6446213 -0.66639405 -0.81352335 -0.14083718 0.39500245
-0.059667274 -0.062930316 0.16484395 0.025813526 -0.25298345 0.23461786 1.7405047 -0.7432352
-0.16858129 0.046798933 0.14331102 -0.19815099 0.17948061 0.07635308 -1.6329106 1.6347141
-1.690263 -0.091403805 -0.07821623 -0.111091346 0.11447403 0.037267618 -0.05485656 1.5818859
1.0253814 -0.2012885 -0.107075304 -0.08367442 -0.034827102 0.07965735 0.019115584 -0.15806574
-0.88906014 -0.93503046 -0.22410491 -0.047374394 -0.10720489 -0.08804213 0.04312269 -0.09930552
0.04455353 1.2342299 -1.6011058 0.011785441 -0.11133511 0.10475273 -0.15131119 0.07639668
00000000: 7e32 97be dd47 3c3e 4d8c d53d 9b60 04be
00000010: a8c4 33bc 6c42 a0bd 1b35 d7bf db1c cc3f
00000020: b927 d3bf 7d1a 89be 627b edbd 9ff3 cd3d
00000030: e7b7 a33e ceb4 1dbe b909 51be 2ecf abbf
00000040: cc30 39bf 7d32 693f 3df4 263e 06bf 83bd
00000050: fc59 10be 3c39 053e a355 6f3c fe0a 79bd
00000060: c855 62bf c342 37bf 242b e03e 51db 5d3e
00000070: d53d 61bc bc72 8bbd 6a3e cc3d b6ff 18be
00000080: de29 a1bd eb4d 4d3e 97fb b53e dc0a 473f
00000090: a45e 403c 0b2b 68bd cded ae3e e202 603e
000000a0: 08bb 51bd f98e 853d aee7 143f c4af ddbf
000000b0: a394 92bf 8073 823e af0e 89be cb53 0ebd
000000c0: 58ee c53e 1fda 45be eebf a6be 67ff 4f3f
000000d0: 08d8 eebf 513f 67be 3fa8 093f 5107 a03e
000000e0: e86c 71bd 40c5 7bbe dd25 a3bd 5bd7 153e
000000f0: a7ca 4bbf f4cd 31bf 1cbd 19bd e7a4 0f3e
00000100: 2fb2 3f3e 7eea cbbe d5bb 883e 83b6 983d
00000110: 11f8 debd df64 363e 8122 973f f080 aebf
00000120: ade3 15be f0b5 bbbd e343 f1bc 37f8 3c3e
00000130: 0836 e8bd c60e 52bd 85ec f9bf ac9b 0c40
00000140: e03c 00c0 ec4a 80bd af23 efbc 5a2e 90bc
00000150: b678 0ebe f706 313e 5614 743e 68e6 a7bf
00000160: 0d7e 85bf 7fea 8b3f dd6d 983d 839f 91bd
00000170: 9498 1cbd 4c1e 82bc fc6a 0c3e 2d00 0e3e
00000180: 62ce 66bf 2be8 2abf a66a 0b3e c856 a3be
00000190: eaca 2b3e 48e4 3f3e b5c7 853d 2665 ee3d
000001a0: d224 87be a13f 0ebe fa9a e2bd c8ec 263f
000001b0: d776 173e 1273 da3d 0b5d 043d 2bd3 d7bd
000001c0: c224 4fbc 8f59 b13d adcd 453f d5a7 a7bf
000001d0: 7ba6 04c0 0f67 b53e 5a6b 50be 1042 25be
000001e0: cd77 b6bc f870 0f3e a504 4d3d 96f4 813f
000001f0: 5da9 04c0 b380 d8be 9644 9dbd 1ba0 433e
00000200: 1d52 d13c 1f8f 0abe 1981 a73d 7746 d0bd
00000210: e315 8fbf dfe8 6bbf cec2 9cbe 32c8 a5be
00000220: 2d7d a7be bd9b 91bd b4f5 153e 2ad9 bf3d
00000230: 3de9 42be 42a1 1c3f a97b cd3f 1b3e abbf
00000240: 7a41 70be 9dc3 fd3d 1805 01bf 342b 16bd
00000250: 8e33 2c3d 7ae3 2cbe d00e dcbf 96a3 fa3f
00000260: 55ab 81bf 25cb 093f a3e1 5a3d fd79 d8be
00000270: fde2 d1bd be5d aabe 42d5 8abc 5876 38bf
00000280: 89ca 11bf 9938 863e 663f 14be 17ac 0c3e
00000290: 9935 9fbe bc6d bebe e24e 9a3e c3c8 a4be
000002a0: a1de dabe 763a 32bf 1845 793e 8160 99bd
000002b0: 893a 133e 0623 07bf 32d7 eb3d 3668 c53d
000002c0: 6288 21bf 8fc2 023e 151d 41bd cf31 863f
000002d0: f748 b1bd a048 a73c 0b42 20bc ae1d 34be
000002e0: 0b79 b0be 3b86 8bbe 6055 433f fd20 d7bf
000002f0: 1e75 98bf d39c 61be 5f3f 29bc 711d 0cbe
00000300: 295a 61be ea56 723e d5fc 2bbe d624 413f
00000310: 444d f3bf 15ee 30bf f08e 7dbd 45a8 d43e
00000320: 1050 d4be e77e 98bd 9e93 03be e705 25bf
00000330: cd98 2abf 1143 50bf 9f37 10be c33d ca3e
00000340: ac65 74bd 9ce1 80bd dacc 283e e376 d33c
00000350: 0c87 81be aa3f 703e dcc8 de3f a944 3ebf
00000360: 93a0 2cbe 3db0 3f3d 20c0 123e 18e8 4abe
00000370: c4c9 373e 015f 9c3d 3703 d1bf 503e d13f
00000380: 8a5a d8bf eb31 bbbd d52f a0bd dc83 e3bd
00000390: 5c71 ea3d eea5 183d 46b1 60bd 3d7b ca3f
000003a0: b33f 833f 931e 4ebe 4c4a dbbd 7f5d abbd
000003b0: dda6 0ebd 6523 a33d 4998 9c3c fcdb 21be
000003c0: 7299 63bf 285e 6fbf c27b 65be a70b 42bd
000003d0: 3d8e dbbd 6f4f b4bd 6ba1 303d b160 cbbd
000003e0: c37d 363d 3ffb 9d3f 09f1 ccbf b917 413c
000003f0: aa03 e4bd 9988 d63d 52f1 1abe dd75 9c3d

onnx::LSTM_93 f4 [1, 32, 8]
0.115048856 -0.09725979 0.3717113 0.22903351 -0.08153578 -0.19309333 -0.07734743 -0.24752247
-0.15484181 -0.00603333 0.19663818 0.11750454 -0.1352501 0.14463201 -0.16383126 0.21645062
-0.041583117 0.010332959 0.24596225 0.07141157 0.048260253 -0.110514835 0.20295665 -0.14152545
-0.13909517 -0.057741813 0.04166617 -0.24601175 0.30672833 0.2861937 -0.2578984 -0.23250589
-0.42033798 0.31613377 0.219825 0.30346495 0.18497846 0.35984734 0.23832911 -0.14508337
0.110442236 -0.16052842 -0.051075146 0.09827411 -0.10884393 0.24308842 -0.3644619 0.048455533
0.28220364 0.044232767 0.25324282 0.1560425 -0.25591514 0.03423427 -0.26383555 -0.27093792
0.176433 -0.23426159 -0.29406178 0.21385445 -0.11480718 -0.20685965 -0.046244778 -0.06310779
0.29990396 -0.2692614 0.15724695 0.040142503 0.1437447 -0.13320039 0.17281285 -0.331152
-0.3227169 0.25240722 0.28503272 -0.20063771 0.28166702 0.0091159865 -0.22089149 0.22817007
0.115813285 -0.14616518 -0.3725439 -0.13354643 -0.17247286 -0.2576645 0.15889888 0.30369854
0.097932614 -0.30228677 0.28099293 -0.27030313 0.056629084 0.2796947 -0.16337804 -0.23649804
-0.39718089 0.14550926 -0.21126796 0.17858477 0.109192565 -0.11879697 -0.015498111 -0.14954755
0.053431995 -0.09521144 -0.2357995 -0.11346552 0.0060173953 0.09028411 -0.3438726 -0.0966458
0.061755255 0.1639919 0.31316188 0.05225642 0.17714818 0.035207704 0.17555358 -0.32737827
0.0005393536 0.16555169 -0.13527653 0.21472849 0.3481813 -0.08668101 -0.31134662 0.32371143
0.2623948 -0.37279567 0.12561944 -0.013753359 0.22610971 -0.1435724 0.38377878 0.17820841
-0.33206433 -0.20081353 0.062093172 -0.03821768 -0.041624863 0.07546927 0.021621967 0.2584555
-0.13634953 -0.12170247 0.13242964 0.24585389 -0.2008858 -0.30068 0.011756681 -0.27055287
0.09062428 -0.13425532 -0.22508608 -0.31762838 0.10510597 0.15801169 -0.18833587 0.19855493
-0.36210495 -0.23807593 0.012077099 0.26658303 -0.21573259 0.2340883 -0.153835 -0.23690365
-0.13885021 -0.14619546 -0.11771481 -0.28710678 0.37621525 -0.106691994 -0.21169217 0.08285798
0.19124909 -0.061140902 -0.19752535 -0.3211082 0.30436754 0.17364769 0.15405394 -0.31996748
-0.30420017 -0.27692273 0.09978809 0.26478782 -0.10048429 -0.31159088 -0.1670193 -0.10678702
0.16773546 0.09114899 -0.1620456 -0.098445855 0.05408564 0.071474575 -0.0063880235 -0.15627843
-0.29140377 -0.23635761 -0.15850255 -0.2726168 0.21929288 0.29938886 0.25885224 0.07892237
-0.32546484 0.105269 0.15680903 -0.27816197 -0.20521194 -0.26526505 0.04430321 -0.10144996
-0.3772283 -0.017176514 0.05664902 0.14028259 -0.12969783 0.13794614 -0.08341201 -0.088317364
0.18727179 0.021683712 0.11505551 0.26047292 0.25110778 0.052318282 -0.3926554 0.08457383
-0.17324635 -0.2888853 0.24212395 -0.14815913 -0.065271825 -0.324447 -0.32727882 -0.029420072
-0.31375408 0.16177748 -0.10775609 -0.2759258 0.090322636 0.219654 0.18829799 -0.24782674
0.057354663 0.21884528 -0.28225923 -0.027408075 -0.16491835 0.19350237 -0.116941705 0.14711744
00000000: bc9e eb3d 2430 c7bd f250 be3e c387 6a3e
00000010: 3bfc a6bd 42ba 45be 5468 9ebd 8876 7dbe
00000020: da8e 1ebe 3eb3 c5bb 855b 493e 38a6 f03d
00000030: 017f 0abe 6a1a 143e 62c3 27be 3ba5 5d3e
00000040: 0f53 2abd 924b 293c 87dd 7b3e 3b40 923d
00000050: 8bac 453d 9a55 e2bd ded3 4f3e 0cec 10be
00000060: f76e 0ebe ae82 6cbd 25aa 2a3d 81ea 7bbe
00000070: 7f0b 9d3e fb87 923e 420b 84be 0616 6ebe
00000080: 8a36 d7be 49dc a13e ce19 613e c25f 9b3e
00000090: fe6a 3d3e e93d b83e 8c0c 743e bc90 14be
000000a0: 8a2f e23d 9061 24be 2c34 51bd f043 c93d
000000b0: 91e9 debd 2cec 783e c09a babe 4f79 463d
000000c0: ff7c 903e 6b2d 353d 0ba9 813e 9bc9 1f3e
000000d0: 4f07 83be 3c39 0c3d 7415 87be 60b8 8abe
000000e0: daaa 343e 45e2 6fbe 448f 96be a9fc 5a3e
000000f0: 0720 ebbd 04d3 53be 2a6b 3dbd a83e 81bd
00000100: 038d 993e a1dc 89be 5805 213e 776c 243d
00000110: d031 133e af65 08be daf5 303e c18c a9be
00000120: 263b a5be 853b 813e cfef 913e f973 4dbe
00000130: a936 903e 385b 153c 6131 62be 6aa5 693e
00000140: 842f ed3d 53ac 15be 13be bebe 65c0 08be
00000150: ba9c 30be 9aec 83be 63b6 223e 607e 9b3e
00000160: e590 c83d 55c5 9abe 4ede 8f3e 2c65 8abe
00000170: e6f3 673d 2534 8f3e 934c 27be 8b2c 72be
00000180: 4b5b cbbe 6100 153e a156 58be edde 363e
00000190: 5aa0 df3d d34b f3bd caeb 7dbc fe22 19be
000001a0: 82db 5a3d 37fe c2bd 6d75 71be 9c60 e8bd
000001b0: 922d c53b e0e6 b83d 1210 b0be 3cee c5bd
000001c0: 14f3 7c3d 7eed 273e c156 a03e d40a 563d
000001d0: 5566 353e f435 103d 51c4 333e 209e a7be
000001e0: 6863 0d3a 6286 293e ee85 0abe c9e1 5b3e
000001f0: d244 b23e d085 b1bd d368 9fbe 81bd a53e
00000200: 9c58 863e 13df bebe 62a2 003e c555 61bc
00000210: 4e89 673e a504 13be a77e c43e 447c 363e
00000220: 5604 aabe 10a2 4dbe 6955 7e3d 248a 1cbd
00000230: d57e 2abd a28f 9a3d 8d20 b13c 4754 843e
00000240: 369f 0bbe 253f f9bd a39b 073e 1fc1 7b3e
00000250: 02b5 4dbe bbf2 99be 189f 403c e885 8abe
00000260: 3999 b93d 3a7a 09be f77c 66be 30a0 a2be
00000270: cc41 d73d d1cd 213e 1edb 40be fc51 4b3e
00000280: d265 b9be 2dca 73be 06df 453c 927d 883e
00000290: 01e9 5cbe d8b4 6f3e ec86 1dbe df96 72be
000002a0: c02e 0ebe 43b4 15be 7614 f1bd a9ff 92be
000002b0: 499f c03e 5581 dabd d5c5 58be 72b1 a93d
000002c0: cdd6 433e e26e 7abd 1644 4abe 4b68 a4be
000002d0: 10d6 9b3e b3d0 313e 51c0 1d3e c7d2 a3be
000002e0: 20c0 9bbe d1c8 8dbe b35d cc3d 4592 873e
000002f0: b5ca cdbd d788 9fbe 1b07 2bbe 27b3 dabd
00000300: d8c2 2b3e 52ac ba3d 48ef 25be fb9d c9bd
00000310: e788 5d3d 4361 923d a052 d1bb 7407 20be
00000320: e032 95be bb07 72be 7e4e 22be 6e94 8bbe
00000330: 508e 603e 7f49 993e 4888 843e 0da2 a13d
00000340: 54a3 a6be 4697 d73d 8c92 203e 3f6b 8ebe
00000350: 1423 52be d2d0 87be 4877 353d ffc4 cfbd
00000360: 1124 c1be c3b5 8cbc ce08 683d 3da6 0f3e
00000370: 82cf 04be c141 0d3e ead3 aabd bcdf b4bd
00000380: 2dc4 3f3e 0aa2 b13c 39a2 eb3d b55c 853e
00000390: 3391 803e b24b 563d 210a c9be 0b35 ad3d
000003a0: 7e67 31be c6e8 93be 57ef 773e 07b7 17be
000003b0: 3cad 85bd eb1d a6be 1791 a7be 5d02 f1bc
000003c0: 60a4 a0be ffa8 253e 3aaf dcbd 2546 8dbe
000003d0: 13fb b83d faec 603e 30d1 403e 4bc6 7dbe
000003e0: b9ec 6a3d fa18 603e 4884 90be e686 e0bc
000003f0: 5be0 28be 7c25 463e 227f efbd f4a5 163e

onnx::LSTM_94 f4 [1, 64]
-0.15858823 0.15895379 0.07902813 -0.27344874 0.11653325 -0.22372045 0.11150197 -0.25336364
0.3576518 -0.20268501 -0.20835426 -0.08407016 0.27117738 -0.34440392 -0.03639259 0.34510463
0.3686792 -0.26830763 0.2201313 0.045808475 0.28885168 0.21486124 -0.12494084 -0.097386524
-0.06115883 -0.26269937 -0.2075853 -0.22673723 -0.2690758 0.06843036 0.15718912 -0.35998303
-0.18049276 0.07853002 0.020983187 -0.19923323 0.20182292 0.3030361 -0.22875576 -0.09890454
0.21937016 0.05971119 -0.027573803 -0.026090154 -0.19842438 -0.023155069 0.3850423 0.09167663
0.097981974 0.07661167 -0.30740115 0.20233522 -0.00975931 0.13057661 -0.019569175 0.13263959
0.42186248 0.2288755 0.2741206 0.2505947 -0.44377616 0.14779498 -0.18617164 -0.014696693
00000000: f464 22be c8c4 223e 80d9 a13d 7901 8cbe
00000010: fca8 ee3d f916 65be 255b e43d e1b8 81be
00000020: 231e b73e a98c 4fbe d25a 55be fa2c acbd
00000030: c3d7 8a3e b655 b0be 6510 15bd 8eb1 b03e
00000040: 85c3 bc3e 9e5f 89be 196a 613e aba1 3b3d
00000050: 5ee4 933e 9604 5c3e fce0 ffbd 9672 c7bd
00000060: ae81 7abd 8880 86be 3e91 54be ce2d 68be
00000070: 4ec4 89be 3725 8c3d 2ff6 203e b24f b8be
00000080: 18d3 38be 59d4 a03d efe4 ab3c cc03 4cbe
00000090: abaa 4e3e 8c27 9b3e f33e 6abe 778e cabd
000000a0: 92a2 603e b993 743d 75e2 e1bc 05bb d5bc
000000b0: c32f 4bbe b3af bdbc 4424 c53e f5c0 bb3d
000000c0: c6aa c83d 94e6 9c3d af63 9dbe f730 4f3e
000000d0: 83e5 1fbc e0b5 053e 894f a0bc acd2 073e
000000e0: 5cfe d73e 575e 6a3e 8959 8c3e f34d 803e
000000f0: a136 e3be 9157 173e c7a3 3ebe 66ca 70bc
