Assets/Models/LSTM-90Hz-Delta-DS2-WithZ-v1.onnx (onnx, 23418 bytes, 5 tensors)

net.0.weight f4 [3, 32]
-0.0017050027 -0.19437194 0.015761053 -0.16863757 -0.078740485 -0.06788003 -0.1535696 0.09553445
-0.13074148 -0.19065435 -0.2648054 -0.07710371 0.13258126 0.23180623 -0.15423965 -0.027026875
-0.09212306 0.13077956 -0.20459494 -0.13977584 -0.16084999 0.05452234 0.10517979 -0.080309734
-0.04177462 -0.12745333 -0.19179945 -0.1582517 0.13479672 -0.32852912 -0.20884596 -0.19595802
0.17222375 -0.054493632 -0.03805766 -0.09473766 -0.112880185 -0.039379008 -0.16965133 -0.05289873
-0.16395353 -0.13615401 0.1760382 -0.10458417 -0.2819168 0.14956236 0.07238114 -0.20087086
-0.05847886 0.084669486 0.029641451 -0.10249198 0.08716137 0.07591029 0.026006732 -0.11309558
0.15669824 -0.09739599 0.09052583 -0.057908483 0.19032784 -0.12102674 0.08846397 0.105486326
0.10006061 0.15626788 -0.023822755 -0.084901504 0.089201555 -0.03714429 -0.06690276 -0.15968686
0.009114412 0.031333234 0.2198354 0.10728979 0.07118679 0.18606494 -0.13158284 -0.08662061
0.07269492 -0.020778732 -0.17153344 -0.058616225 -0.1940618 0.074238785 -0.017191697 -0.16590111
-0.18484631 0.057234313 -0.00061356917 0.10858502 0.08452406 0.21107897 0.06341388 -0.084762745
00000000: 667a dfba 7009 47be 531d 813c 54af 2cbe
00000010: b142 a1bd af04 8bbd 5941 1dbe 91a7 c33d
00000020: 18e1 05be e53a 43be 9394 87be 8de8 9dbd
00000030: 62c3 073e 9d5e 6d3e 00f1 1dbe 7767 ddbc
00000040: 04ab bcbd 14eb 053e 5681 51be 6621 0fbe
00000050: dcb5 24be d152 5f3d 8068 d73d 6e79 a4bd
00000060: dd1b 2bbd 2083 02be 1367 44be bc0c 22be
00000070: 2708 0a3e f834 a8be b7db 55be 38a9 48be
00000080: 6c5b 303e b734 5fbd 59e2 1bbd d105 c2bd
00000090: ba2d e7bd e24b 21bd 14b9 2dbe 57ac 58bd
000000a0: 6fe3 27be f56b 0bbe 5c43 343e 3a30 d6bd
000000b0: 6657 90be e026 193e 903c 943d 17b1 4dbe
000000c0: 8787 6fbd 3267 ad3d a1d2 f23c 51e7 d1bd
000000d0: a981 b23d db76 9b3d 120c d53c a89e e7bd
000000e0: 8175 203e 8c77 c7bd 9b65 b93d 7231 6dbd
000000f0: 4de5 423e dedc f7bd 992c b53d 3709 d83d
00000100: 94ec cc3d b004 203e f027 c3bc d7e0 adbd
00000110: 4eaf b63d 9c24 18bd 5004 89bd f484 23be
00000120: 9d54 153c 4757 003d 881c 613e c0ba db3d
00000130: 61ca 913d cf87 3e3e a7bd 06be 2566 b1bd
00000140: 13e1 943d 2938 aabc 76a6 2fbe 9117 70bd
00000150: 23b8 46be 810a 983d 9ad5 8cbc fbe1 29be
00000160: 5a48 3dbe 876e 6a3d eed7 20ba d361 de3d
00000170: f31a ad3d 1625 583e 23df 813d 1798 adbd

net.0.bias f4 [3]
0.102243595 0.08217916 0.037252296
00000000: 1765 d13d 8c4d a83d dd95 183d

onnx::LSTM_92 f4 [1, 128, 9]
-0.013525815 -0.042653985 0.07022173 -0.018400032 -0.122115344 -0.11325796 0.35727173 -0.47785497
-0.23359554 0.016577868 0.19044544 -0.02497911 0.13601612 0.11589551 -0.09172808 -0.3026123
-0.17419013 0.7916903 0.116501726 0.06445209 0.047804303 0.1872313 0.12629212 -0.16224833
-0.23070036 0.29420352 0.35997903 -0.1092414 -0.1301534 -0.008303467 0.06491089 -0.13191
0.034264077 -0.29160473 -0.43248516 -0.07550194 -0.0722269 -0.15450063 -0.011066357 -0.07189958
-0.13060094 0.024054974 -0.26882616 -0.2583806 0.6555235 0.02039164 -0.021477604 -0.22742556
0.10123184 0.020960078 -0.27651405 -0.3584337 -0.3423066 -0.16229081 -0.06006986 0.2598448
-0.1646661 -0.124023825 -0.04505927 -0.16191912 0.48676708 0.74129933 0.45154598 0.011982246
-0.037294343 0.3080617 -0.08053089 -0.019712865 0.010170897 -0.72550935 0.43825245 1.0232707
0.09781522 0.16721225 -0.2797207 -0.102728665 0.2517328 0.008221253 0.61832356 0.8384305
0.811322 0.056739043 0.09710039 0.13621776 -0.23066874 0.067986384 -0.104322396 -0.47507626
-0.48634958 0.67999405 0.3072559 0.07014682 0.19725756 0.04977895 -0.020237394 -0.036315937
0.9256572 -0.8264135 0.27123275 0.088139094 -0.09399775 -0.12311372 0.12550013 0.20993027
-0.1235339 0.6260735 0.36059362 -0.22816297 0.04686795 -0.080440335 -0.18139313 -0.10182683
0.14269125 -0.2606944 0.48537025 -0.86983633 0.6505783 0.049593184 0.22955148 0.0876268
0.046000738 0.095136605 -0.18145424 0.55976856 0.6547122 0.6497156 -0.19064823 0.013492407
-0.01598717 -0.24074742 -0.0548798 0.12174843 -0.44550112 0.48150966 -0.41302782 -0.18533018
-0.14538305 -0.03271523 -0.13024865 0.03599091 0.022953013 -0.19504248 -0.5996163 -0.5951385
-0.07483979 0.24603522 -0.16123135 -0.070043415 0.13368075 0.043904338 0.4887483 0.9586829
-0.18509345 0.13210973 -0.025837673 -0.007950715 0.0535142 -0.14752446 -0.071273655 -0.45117953
-0.6953433 0.76049495 0.2833118 0.0010074126 -0.16205728 0.10922513 0.06189731 -0.06297942
-0.381747 0.59509295 -0.5414488 0.23036493 -0.052058358 0.1662817 0.052380923 0.11132355
0.14324218 -0.23853907 -0.362556 -0.4574603 -0.0318648 0.16075866 0.11659535 -0.25102222
0.13218434 0.011571274 -0.7763111 0.71621007 -0.060025595 -0.22802365 -0.032117695 -0.24358329
-0.34969097 -0.027612446 -0.14301407 -0.26276377 -0.78885806 -0.37020707 -0.1410761 0.17463958
-0.09169417 -0.17426214 -0.091888644 -0.18313266 0.27207953 0.17681077 0.3329171 0.0059092217
-0.04071081 -0.09309938 -0.26114035 -0.25561285 0.0195177 -0.017934697 0.64639914 0.48723224
0.07349404 -0.13556577 -0.03714335 -0.02185824 0.17644079 -0.1524628 -0.6096198 0.28889853
-0.35261127 -0.062500775 0.048355922 0.012960856 -0.042643916 0.051345807 -0.0022533585 0.40773624
0.47228023 0.14654724 0.20977412 -0.0013403662 -0.033194583 0.10809066 -0.066422105 -0.115389735
0.46726763 -0.6314875 0.4911463 -0.04423793 -0.0926618 -0.025244333 -0.15115729 0.09796217
-0.12702556 -0.52982825 -0.40178925 0.6411606 0.10899376 -0.09925177 0.0656663 0.16487311
00000000: 619b 5dbc f2b5 2ebd 69d0 8f3d aabb 96bc
00000010: 9c17 fabd caf3 e7bd 52ec b63e 68a9 f4be
00000020: ab33 6fbe 4fce 873c 2104 433e fea0 ccbc
00000030: cf47 0b3e a05a ed3d eedb bbbd 00f0 9abe
00000040: e65e 32be 37ac 4a3f 7598 ee3d 75ff 833d
00000050: 72ce 433d 90b9 3f3e b952 013e 6d24 26be
00000060: b73c 6cbe d8a1 963e 2c4f b83e f5b9 dfbd
00000070: ef46 05be 440b 08bc 00f0 843d 6a13 07be
00000080: 7d58 0c3d 374d 95be b26e ddbe c3a0 9abd
00000090: b2eb 93bd 6a35 1ebe aa4f 35bc 1640 93bd
000000a0: 41bc 05be f00e c53c 95a3 89be 764a 84be
000000b0: 63d0 273f 5e0c a73c cdf1 afbc 3fe2 68be
000000c0: a452 cf3d 78b4 ab3c 4093 8dbe 9f84 b7be
000000d0: d042 afbe 902f 26be d00b 76bd 610a 853e
000000e0: 3b9e 28be 3400 febd 1290 38bd 20ce 25be
000000f0: 8939 f93e cbc5 3d3f 0931 e73e 2f51 443c
00000100: f4c1 18bd 43ba 9d3e 61ed a4bd e07c a1bc
00000110: d5a3 263c fbba 39bf a062 e03e 89fa 823f
00000120: 5953 c83d b039 2b3e 8d37 8fbe 6863 d2bd
00000130: 1fe3 803e 6fb2 063c 744a 1e3f 62a3 563f
00000140: ccb2 4f3f 3367 683d 92dc c63d ab7c 0b3e
00000150: 6d34 6cbe 723c 8b3d fba6 d5bd 323d f3be
00000160: d002 f9be 1714 2e3f a550 9d3e 23a9 8f3d
00000170: e3fd 493e 03e5 4b3d e4c8 a5bc 05c0 14bd
00000180: dff7 6c3f d68f 53bf 05df 8a3e 4582 b43d
00000190: e481 c0bd 0c23 fcbd 1b83 003e f6f7 563e
000001a0: 57ff fcbd 5a46 203f ba9f b83e 8ea3 69be
000001b0: 9cf8 3f3d e7bd a4bd 1fbf 39be 968a d0bd
000001c0: a81d 123e bd79 85be 7382 f83e 98ad 5ebf
000001d0: 4d8c 263f 3922 4b3d 8b0f 6b3e ae75 b33d
000001e0: 456b 3c3d fbd6 c23d 24cf 39be fe4c 0f3f
000001f0: 389b 273f c353 263f 4a39 43be 420f 5d3c
00000200: 87f7 82bc 7e86 76be a4c9 60bd 3e57 f93d
00000210: b918 e4be 6f88 f63e 6278 d3be 32c7 3dbe
00000220: 4bdf 14be 6800 06bd e75f 05be 346b 133d
00000230: f507 bc3c 37b9 47be 7480 19bf ff5a 18bf
00000240: 9b45 99bd a8f0 7b3e d519 25be ec72 8fbd
00000250: 9be3 083e 09d5 333d 383d fa3e 3e6c 753f
00000260: 2389 3dbe c647 073e 87a9 d3bc b743 02bc
00000270: b531 5b3d a710 17be ecf7 91bd 0101 e7be
00000280: 0502 32bf ccaf 423f 3f0e 913e 280b 843a
00000290: 58f2 25be 6db1 df3d 0988 7d3d 5bfb 80bd
000002a0: 5874 c3be 0358 183f 639c 0abf c9e4 6b3e
000002b0: 253b 55bd c045 2a3e 618d 563d 9afd e33d
000002c0: 14ae 123e 9643 74be f1a0 b9be 3d38 eabe
000002d0: aa84 02bd eb9d 243e 8bc9 ee3d fc85 80be
000002e0: 555b 073e 7195 3d3c 53bc 46bf 8b59 373f
000002f0: 66dd 75bd 087f 69be d88d 03bd e66d 79be
00000300: b20a b3be 7f33 e2bc 4872 12be f988 86be
00000310: 9af2 49bf c88b bdbe 4176 10be b8d4 323e
00000320: 27ca bbbd c671 32be 1d30 bcbd 2187 3bbe
00000330: 024e 8b3e e20d 353e 1c74 aa3e 25a2 c13b
00000340: 61c0 26bd e3aa bebd 30b4 85be b0df 82be
00000350: 95e3 9f3c c9eb 92bc 6a7a 253f 8176 f93e
00000360: 0b84 963d c1d1 0abe a023 18bd 0d10 b3bc
00000370: e5ac 343e 351f 1cbe 0b10 1cbf 82ea 933e
00000380: 7789 b4be 6800 80bd dc10 463d c559 543c
00000390: 63ab 2ebd fb4f 523d 15ad 13bb cec2 d03e
000003a0: b7ce f13e 7b10 163e 07cf 563e 3aaf afba
000003b0: 0bf7 07bd a35e dd3d 5008 88bd 7451 ecbd
000003c0: b43d ef3e 2aa9 21bf 8777 fb3e d532 35bd
000003d0: 78c5 bdbd 34cd cebc fac8 1abe 64a0 c83d
000003e0: fd12 02be d3a2 07bf 52b7 cdbe 1a23 243f
000003f0: 1f38 df3d 8344 cbbd 0e7c 863d 7fd4 283e

onnx::LSTM_93 f4 [1, 128, 32]
0.16460738 0.06170914 -0.090533696 -0.0054901363 -0.06208866 -0.079039074 0.031063272 0.029186623
-0.053653665 0.115526214 0.0147031685 0.0023473443 -0.1306561 0.015118521 -0.10709774 -0.021810843
-0.06948218 -0.14111629 -0.16419676 0.02680023 -0.0021847794 -0.051233474 0.18015014 -0.15383673
0.09832993 -0.13254754 -0.11782131 0.110182986 0.044739604 -0.05209317 -0.079214245 0.073309585
-0.011961408 0.06898328 0.024649944 0.15259978 0.099711396 -0.05875638 -0.14181264 -0.21271539
-0.12549837 0.14089926 -0.11713148 0.004949418 0.07641377 0.22567534 0.08696884 0.1399098
0.026664924 -0.08331033 0.095566586 0.12830171 0.078593455 0.14261298 -0.1505888 -0.031629227
-0.025682187 0.16876273 -0.034742776 0.045632523 0.107355386 -0.1153878 -0.031302612 -0.0018671547
-0.0008914803 -0.1116058 0.14083141 -0.071288936 0.039868407 0.06647276 -0.15787265 -0.015344235
0.141456 -0.03685547 -0.021861628 -0.04310671 0.16332209 -0.00044091398 -0.06315174 -0.109969795
0.15109527 0.05498916 0.13012208 0.011811255 -0.08101823 -0.14587201 0.14620711 -0.16857187
0.029840846 0.07299775 -0.08219925 -0.029151175 -0.03975466 0.06752643 -0.08233647 -0.062564954
0.10135517 -0.06423355 -0.040116698 0.17799309 0.19039358 -0.020780627 0.10196886 0.09668792
-0.1447379 -0.029659688 0.12565337 0.08833307 -0.10547662 -0.050180458 -0.07851749 -0.07739618
-0.18290167 0.08029702 -0.0451306 -0.0034918718 0.03881924 0.05291933 0.114429034 -0.14707114
-0.05805459 -0.11157368 -0.071499795 -0.15497974 -0.037684396 -0.012220992 0.032096498 0.024875676
0.027736047 0.123729505 0.14112762 -0.1087262 0.13846973 0.054140676 0.051524285 -0.15862276
-0.05627836 0.106859006 -0.02613 -0.06864393 0.08174506 0.1656793 0.07365869 0.025459586
-0.11986431 0.09566875 -0.10558216 -0.14521457 -0.031050421 0.11243145 0.0825079 -0.045711033
0.16650736 0.11769078 -0.20453227 0.09154272 0.022814106 -0.10691813 -0.10790538 -0.05983751
0.05092007 0.08155188 -0.108508065 0.18046173 0.0019311265 -0.0031611149 -0.13941255 -0.026879609
-0.032015894 0.083739944 -0.05289658 -0.00080087146 -0.05755104 0.22476175 -0.014305528 -0.075266294
0.09848451 -0.15356363 0.06268419 -0.110053465 0.013802031 -0.044073675 -0.04622866 0.13410835
-0.051103093 -0.10509656 -0.059778355 0.16172273 -0.043310396 -0.035015825 0.060568605 0.1970782
-0.07629539 -0.05527816 0.007007852 -0.101174906 -0.0737919 -0.060748737 0.058191355 -0.07862371
0.18092059 0.123724245 0.027044997 0.101626515 0.19785254 -0.13486229 -0.08012886 -0.028341671
0.040642392 -0.025083488 0.17793964 0.08571219 0.03871543 -0.11247384 -0.102233835 0.0013848402
0.013237128 0.13710843 -0.09069943 0.17832986 0.15634224 0.07072737 0.14543161 0.023555538
-0.028887486 0.16162144 -0.0059389 -0.036479987 0.25394344 0.16160294 -0.12660252 -0.0022965174
-0.16875634 0.0050586252 -0.45612556 -0.21671757 0.42909014 -0.013395468 0.12183658 0.08783426
-0.17534892 -0.25831774 0.1788946 -0.053295504 0.093533985 -0.09083747 -0.028727524 0.04509867
0.09070525 0.103669114 -0.13847728 0.072699524 -0.19200288 -0.62128294 0.014345776 0.2984402
00000000: d68e 283e b9c2 7c3d bb69 b9bd 9ae6 b3bb
00000010: ae50 7ebd 3ddf a1bd 6778 fe3c c918 ef3c
00000020: f2c3 5bbd 0299 ec3d 8fe5 703c e7d5 193b
00000030: b6ca 05be acb3 773c 0f56 dbbd a7ac b2bc
00000040: ac4c 8ebd ca80 10be 3223 28be 288c db3c
00000050: 842e 0fbb 31da 51bd 4779 383e 6087 1dbe
00000060: 3461 c93d 8bba 07be 4d4c f1bd 9ea7 e13d
00000070: e040 373d a65f 55bd 143b a2bd 5623 963d
00000080: c8f9 43bc 1b47 8d3d aeee c93c 1e43 1c3e
00000090: 7d35 cc3d 88aa 70bd 5537 11be 10d2 59be
000000a0: a582 00be e547 103e a1e2 efbd ba2e a23b
000000b0: d37e 9c3d 7017 673e b81c b23d 8444 0f3e
000000c0: 6670 da3c 9b9e aabd 6ab8 c33d 8661 033e
000000d0: 9bf5 a03d 2309 123e f333 1abe a68d 01bd
000000e0: 7363 d2bc 23d0 2c3e 714e 0ebd 2be9 3a3d
000000f0: 24dd db3d 7050 ecbd 2b37 00bd 51bb f4ba
00000100: 3bb2 69ba 9591 e4bd 1c36 103e efff 91bd
00000110: 0e4d 233d df22 883d 5ea9 21be 6366 7bbc
00000120: d7d9 103e c3f5 16bd 2817 b3bc a990 30bd
00000130: e83d 273e 792a e7b9 b355 81bd d837 e1bd
00000140: b8b8 1a3e 503c 613d b93e 053e fe83 413c
00000150: e3ec a5bd 795f 15be 51b7 153e 1b9e 2cbe
00000160: ca74 f43c d87f 953d 1558 a8bd 72ce eebc
00000170: c8d5 22bd 4c4b 8a3d 06a0 a8bd 0e22 80bd
00000180: 4d93 cf3d e18c 83bd 6851 24bd d243 363e
00000190: 89f6 423e 223c aabc 0dd5 d03d 5104 c63d
000001a0: 2c36 14be e0f8 f2bc 47ab 003e f8e7 b43d
000001b0: 2004 d8bd 068a 4dbd c7cd a0bd e381 9ebd
000001c0: 934a 3bbe c472 a43d ddda 38bd e3d7 64bb
000001d0: ec00 1f3d f0c1 583d c559 ea3d d199 16be
000001e0: a6ca 6dbd be80 e4bd 7c6e 92bd 02b3 1ebe
000001f0: f45a 1abd 8e3a 48bc 9e77 033d 13c8 cb3c
00000200: b536 e33c e565 fd3d c283 103e d8ab debd
00000210: 02cb 0d3e 9dc2 5d3d 210b 533d 016e 22be
00000220: 2384 66bd e5d8 da3d 950e d6bc 3095 8cbd
00000230: f469 a73d d6a7 293e 5eda 963d 9f90 d03c
00000240: 6b7b f5bd faed c33d 763b d8bd 21b3 14be
00000250: 745d febc 7642 e63d e7f9 a83d 7e3b 3bbd
00000260: e880 2a3e dd07 f13d e870 51be c07a bb3d
00000270: a6e4 ba3c e4f7 dabd 7ffd dcbd 2d18 75bd
00000280: 9091 503d ac04 a73d 7a39 debd f6ca 383e
00000290: da1d fd3a b52a 4fbb 2ac2 0ebe a032 dcbc
000002a0: 1923 03bd d97f ab3d 16aa 58bd 93f1 51ba
000002b0: a4ba 6bbd f227 663e bc61 6abc 3725 9abd
000002c0: 3fb2 c93d c93f 1dbe 9260 803d b663 e1bd
000002d0: ea21 623c 9986 34bd 435a 3dbd b353 093e
000002e0: 7a51 51bd de3c d7bd 26da 74bd a59a 253e
000002f0: 3e66 31bd c16c 0fbd c916 783d dece 493e
00000300: c240 9cbd 5a6b 62bd 20a2 e53b ca34 cfbd
00000310: 3520 97bd abd3 78bd 0f5a 6e3d 7805 a1bd
00000320: 3f43 393e 2363 fd3d 788d dd3c 9021 d03d
00000330: db99 4a3e 5719 0abe 9a1a a4bd cb2c e8bc
00000340: a378 263d e37b cdbc cf35 363e df89 af3d
00000350: 1294 1e3d af58 e6bd f95f d1bd 8783 b53a
00000360: 8ae0 583c 2766 0c3e 9fc0 b9bd 1a9c 363e
00000370: 2e18 203e 83d9 903d 06ec 143e 8bf7 c03c
00000380: 73a5 ecbc 1780 253e 1b9b c2bb 0a6c 15bd
00000390: e004 823e 3e7b 253e 17a4 01be 2b81 16bb
000003a0: 76ce 2cbe d3c2 a53b 4a89 e9be 36eb 5dbe
000003b0: b4b1 db3e aa78 5bbc 7585 f93d 73e2 b33d
000003c0: ab8e 33be 3942 84be 2530 373e 634c 5abd
000003d0: bf8e bf3d ff08 babd fc55 ebbc 62b9 383d
000003e0: adc3 b93d 7950 d43d fdcc 0dbe 7de3 943d
000003f0: 679c 44be 660c 1fbf 8c0a 6b3c 27cd 983e

onnx::LSTM_94 f4 [1, 256]
0.026380366 0.16060448 -0.157532 0.11753919 0.04703758 0.120307095 0.066252045 -0.05407639
0.10370854 0.058001246 0.2841276 -0.070962116 0.5120787 0.13710338 -0.04692469 0.074464284
-0.12376555 0.13497214 0.15885286 0.111114495 0.13576788 0.014632993 -0.012045402 -0.06564176
-0.026723199 -0.009518598 0.20970294 0.036191832 0.04928681 0.27128622 -0.117741585 0.47128087
-0.039298568 -0.045994725 -0.04547169 -0.032453634 0.018634962 0.1186754 -0.067602485 0.01569314
-0.05299661 -0.079080634 -0.037246067 0.16385055 0.37093568 0.06986443 0.10149357 -0.022954673
0.1987223 -0.04418547 0.21288162 0.1362811 0.08421403 0.05151292 -0.11770577 -0.102875516
-0.011099902 -0.01630894 0.04418352 -0.012471199 -0.09908527 0.33689874 0.20495133 0.43468788
0.12689482 -0.062735245 0.147545 0.15799521 -0.056391854 0.11718442 -0.065386325 -0.1581192
-0.17146066 -0.06836727 -0.21243389 -0.12570004 -0.0055928836 -0.14656276 -0.073095076 -0.07794285
-0.04831611 0.12232213 -0.07215207 0.11275333 -0.04747643 0.062751494 0.13581626 0.08465019
-0.03506806 -0.15298395 -0.023541426 -0.12011056 0.083227165 0.058446303 -0.19311695 -0.16289644
-0.015177895 0.18246506 -0.15552586 0.13911387 -0.118798316 0.19642287 -0.07630608 0.05019335
-0.10731177 0.1419663 -0.0017270765 -0.1605606 0.12497033 -0.14347011 0.09408215 0.114094935
-0.11638975 -0.17823367 0.058890413 0.14387788 -0.08535876 -0.089617215 0.10839986 -0.029146526
0.064247526 -0.1354436 -0.06554888 0.16620414 -0.12170693 0.10528877 0.07315696 0.09270237
-0.11424344 -0.075124055 -0.14869463 -0.11018915 -0.05391511 0.04143153 0.13545261 0.0693895
-0.06155692 0.07021734 0.011611051 0.09761209 0.4670398 0.24202414 -0.10723876 -0.14343877
0.17548838 0.07887658 0.046959184 -0.15628865 0.02797459 0.10003165 0.12459834 0.10857372
0.019672623 -0.13792503 0.14017606 0.14760207 0.16642079 0.25693107 0.15754755 0.65341866
0.011046528 -0.08440559 -0.02341794 0.1359609 0.106413834 -0.08401137 0.07595883 -0.031228248
-0.08737895 -0.122336455 0.27066186 -0.0005861804 0.36887687 0.2603829 0.09581495 0.045844696
-0.01042951 0.08128625 0.10160694 -0.0010113381 0.00016670593 -0.14911884 -0.080915175 -0.014595288
-0.042466875 0.051348172 0.024243802 0.052401416 -0.09596998 0.36491764 0.076627485 0.6666716
-0.038276102 0.0025285087 0.043360148 -0.06307934 0.092580825 0.0079895845 0.1283195 0.07877321
-0.13860932 -0.042727914 -0.18191782 -0.01579108 -0.22074154 -0.16242364 0.039612234 0.066503674
-0.00598158 -0.074397095 -0.17027938 -0.017942676 -0.10647664 0.13764328 -0.09638105 0.09790751
-0.11202899 -0.13203236 0.10330389 -0.07528577 -0.17263812 -0.14986373 0.12225013 -0.13673083
-0.0792582 0.18363349 -0.10170352 -0.0016082035 0.17268284 -0.015640046 0.002770041 -0.13821508
0.0005906641 0.057472974 0.020385882 -0.09624392 0.12776962 0.007340298 0.082597494 0.18782914
-0.0134718325 -0.17567813 0.091716014 0.110380106 0.112456985 0.05529575 0.025556112 -0.024821483
0.0064710374 -0.015716592 0.05226101 -0.021263931 -0.17617051 -0.16090338 0.12591127 0.04522295
00000000: a31b d83c 8075 243e 1250 21be 63b8 f03d
00000010: 7aaa 403d 9163 f63d 27af 873d 347f 5dbd
00000020: 2565 d43d b792 6d3d 2c79 913e 9654 91bd
00000030: 9717 033f d464 0c3e 1b34 40bd bb80 983d
00000040: cb78 fdbd 2336 0a3e 53aa 223e ff8f e33d
00000050: bc06 0b3e 39bf 6f3c 145a 45bc 306f 86bd
00000060: 9cea dabc e5f3 1bbc 5ebc 563e e33d 143d
00000070: f7e0 493d 07e6 8a3e 8022 f1bd ba4b f13e
00000080: 89f7 20bd f764 3cbd 8640 3abd 1aee 04bd
00000090: 59a8 983c 170c f33d 2c73 8abd e68e 803c
000000a0: f912 59bd 07f5 a1bd 558f 18bd 70c8 273e
000000b0: 48eb bd3e 1515 8f3d dcdb cf3d 700b bcbc
000000c0: dc7d 4b3e d3fb 34bd a4fd 593e 468d 0b3e
000000d0: 6878 ac3d 36ff 523d b90f f1bd 66b0 d2bd
000000e0: 5ddc 35bc 539a 85bc c7f9 343d 0054 4cbc
000000f0: 38ed cabd fe7d ac3e c3de 513e 698f de3e
00000100: b7f0 013e 567b 80bd 0916 173e 7fc9 213e
00000110: 25fb 66bd 63fe ef3d 44e9 85bd 00ea 21be
00000120: 6293 2fbe 2404 8cbd 4588 59be 83b7 00be
00000130: 8244 b7bb 8c14 16be dfb2 95bd 80a0 9fbd
00000140: 1de7 45bd 0684 fa3d 77c4 93bd 38eb e63d
00000150: a576 42bd db83 803d 6b13 0b3e 145d ad3d
00000160: 87a3 0fbd d3a7 1cbe f3d9 c0bc 86fc f5bd
00000170: 0173 aa3d 6465 6f3d 73c0 45be 53ce 26be
00000180: b5ac 78bc 1fd8 3a3e 2c42 1fbe de73 0e3e
00000190: 884c f3bd 1423 493e 5d46 9cbd 8b97 4d3d
000001a0: 46c6 dbbd 9d5f 113e 125f e2ba ff69 24be
000001b0: 72f0 ff3d d4e9 12be 24ae c03d 9baa e93d
000001c0: c05d eebd e382 36be 1337 713d b954 133e
000001d0: 93d0 aebd 3b89 b7bd bf00 de3d b2c4 eebc
000001e0: 3594 833d bab1 0abe 7e3e 86bd 6b31 2a3e
000001f0: 7c41 f9bd a3a1 d73d 51d3 953d bdda bd3d
00000200: 77f8 e9bd a4da 99bd 6843 18be d9aa e1bd
00000210: 17d6 5cbd 1cb4 293d 17b4 0a3e 151c 8e3d
00000220: 1c23 7cbd 1cce 8f3d 473c 3e3c d9e8 c73d
00000230: d71f ef3e 2dd5 773e ff9f dbbd 9de1 12be
00000240: 3ab3 333e 0b8a a13d 4658 403d 220a 20be
00000250: f82a e53c 65dd cc3d 6a2d ff3d e65b de3d
00000260: 7b28 a13c 383c 0dbe 508a 0f3e ff24 173e
00000270: 366a 2a3e 788c 833e 2554 213e 7246 273f
00000280: 7ffc 343c d7dc acbd fbd6 bfbc 5639 0b3e
00000290: 7fef d93d 270e acbd 4e90 9b3d 62d2 ffbc
000002a0: bcf3 b2bd 898b fabd 3194 8a3e e7a9 19ba
000002b0: 6edd bc3e e850 853e a13a c43d a6c7 3b3d
000002c0: 89e0 2abc 6879 a63d 4d17 d03d e08e 84ba
000002d0: c8cd 2e39 9cb2 18be dbb6 a5bd 1321 6fbc
000002e0: bff1 2dbd 7652 523d f09a c63c dea2 563d
000002f0: e98b c4bd 7cd6 ba3e dfee 9c3d fdaa 2a3f
00000300: 67c7 1cbd 56b5 253b 699a 313d be2f 81bd
00000310: 049b bd3d bfe6 023c 3066 033e d953 a13d
00000320: 9aef 0dbe 7703 2fbd aa48 3abe 4c5c 81bc
00000330: 120a 62be 6252 26be 7040 223d 1433 883d
00000340: 2101 c4bb 815d 98bd b85d 2ebe 85fc 92bc
00000350: 6d10 dabd 5cf2 0c3e 6e63 c5bd bc83 c83d
00000360: 756f e5bd 7e33 07be fd90 d33d 6d2f 9abd
00000370: 0cc8 30be e175 19be 475e fa3d 2b03 0cbe
00000380: 2052 a2bd 6b0a 3c3e ef49 d0bd 5bca d2ba
00000390: c5d3 303e 8e1f 80bc 9489 353b 4188 0dbe
000003a0: ccd6 1a3a c868 6b3d 4b00 a73c 881b c5bd
000003b0: 0ad6 023e e286 f03b e028 a93d 4856 403e
000003c0: f6b8 5cbc f8e4 33be 9bd5 bb3d f70e e23d
000003d0: d94f e63d cc7d 623d 0d5b d13c 6c56 cbbc
000003e0: ff0a d43b 15c0 80bc a40f 563d b231 aebc
000003f0: 0b66 34be dbc3 24be e2ee 003e b33b 393d
