Assets/Models/LSTM-90Hz-NoHead-Delta-DS2-WithZ-v1.onnx (onnx, 21882 bytes, 5 tensors)

net.0.weight f4 [3, 32]
000000 d1 2a 35 bd ba e0 6e 3d b1 57 dd 3d 89 c9 f1 bd
       -0.044230286 0.058319785 0.108077414 -0.11806018
000010 fd 0e 4b be 53 4b 60 bd 7a 17 c3 bd 32 85 fd bc
       -0.19829936 -0.054759335 -0.09525962 -0.030947302
000020 e6 83 1a be 3c e6 16 be 51 90 c3 bd 94 fa 6d bc
       -0.15089378 -0.14736265 -0.095490105 -0.0145250745
000030 fe 87 28 3d eb 26 4c 3d b3 54 f9 3c d8 a8 3e be
       0.041145317 0.049841803 0.030435896 -0.18619096
000040 15 89 ae bd d3 90 08 be 48 ea f7 3d f1 a1 a4 3d
       -0.0852224 -0.13336496 0.121052325 0.080387
000050 82 2c 0e bc bf ba 38 3d 15 e5 f4 bd 03 e3 49 3e
       -0.008677604 0.04509997 -0.119577564 0.19715504
000060 05 97 fc bd 54 34 33 be 0b f6 e0 bd 43 67 f1 bd
       -0.12333492 -0.1750043 -0.10984429 -0.11787274
000070 61 1a 1d bd 86 30 06 3e 44 11 1b 3e 7d a3 47 3e
       -0.038355235 0.13104448 0.15143305 0.1949596
000080 cb 9f 6c bd 39 1c c9 bd 3c 1b 02 bd c6 8b f2 3d
       -0.057769578 -0.09819836 -0.031764254 0.11843066
000090 5b f0 2a bd d5 97 ad 3d 72 59 01 3e 1c 33 a1 3d
       -0.041733127 0.08476225 0.12631777 0.078710765
0000a0 d0 02 72 bb 51 45 cd bd 22 da 63 3c df 61 d3 3d
       -0.0036927946 -0.10022987 0.013906987 0.10321402
0000b0 28 0a a9 bc 60 ec 12 3e 2a cc e7 bd 7b 71 fc 3d
       -0.020634726 0.14347982 -0.11318238 0.12326332
0000c0 b3 47 0d 3e 47 1f cc 3c 60 7e 28 3d cd 2d e1 bd
       0.13796882 0.024917258 0.041136146 -0.10995064
0000d0 e4 4b 2d bd fd 9c fd bd 44 31 11 be 11 3d b4 3d
       -0.042308703 -0.12383459 -0.1417895 0.0880071
0000e0 b6 80 bb 3c 33 a2 09 3e 04 77 c1 bd 85 f8 25 3e
       0.022888523 0.1344078 -0.094465286 0.16208084
0000f0 15 6e 81 bd 35 eb 0c 3e 5e e7 2d 3d 0c bd 2a be
       -0.063198246 0.137616 0.042456977 -0.16673678
000100 9b 8d 21 be 10 8c fe 3d f5 85 ab 3d 2b d0 e2 bd
       -0.15776674 0.124290586 0.0837516 -0.11074861
000110 c2 0b ea 3d 3b 41 14 be 91 be 08 3e 23 11 da 3d
       0.11428024 -0.14478008 0.13353945 0.106478
000120 02 30 28 bb 0c c6 95 bb 0e 60 ed bd f2 4c e8 3b
       -0.002566338 -0.004570728 -0.115905866 0.0070892507
000130 55 14 61 3d 3c f5 f6 3d e6 01 35 be 35 30 1c be
       0.05495103 0.120584935 -0.17676505 -0.15252765
000140 d7 59 ba bd 2d 8b 8c 3c 50 52 a8 bc df d9 b6 bd
       -0.09099167 0.017156208 -0.020547062 -0.08928274
000150 fe ca 77 bc a8 c2 a5 3d 83 3a eb 3d f8 d2 1d 3e
       -0.015124081 0.08093768 0.114857696 0.1541251
000160 98 0c 3a bd 31 0c a0 bd 78 2f a5 3d 6a cb 3b bd
       -0.045422167 -0.07814825 0.080656946 -0.045848288
000170 3d 5e 1e 3e 63 fb 0a be 46 5d fe 3d 1b 18 0b be
       0.15465637 -0.13572459 0.12420134 -0.13583414

net.0.bias f4 [3]
000000 02 b9 0e be 51 40 56 3d 26 a2 11 bc
       -0.13937762 0.05230743 -0.008888757

onnx::LSTM_92 f4 [1, 128, 6]
000000 b7 a8 0d bd 30 ee 76 be f5 3f d0 be 05 b4 56 bd
       -0.034584727 -0.24114299 -0.40673795 -0.052417774
000010 16 38 a6 be 78 cd 7c be d2 31 86 3e ad d9 76 bb
       -0.32464665 -0.24687755 0.26209885 -0.0037666366
000020 4d d3 81 3e 20 62 87 3d b3 f3 09 be 9f ef 63 3d
       0.25356522 0.06610513 -0.1347187 0.055648442
000030 b3 1d cb 3e 9e eb 96 3d 40 cd 9c 3d cd ca 05 be
       0.39671096 0.07369159 0.07656336 -0.13065644
000040 a5 82 f8 3d 77 25 0f be 3d 23 75 3e 06 9c 42 bd
       0.121342935 -0.13979135 0.23939224 -0.047512077
000050 01 75 8d 3d 8a d1 d9 3d 03 36 70 be b4 cb 81 3c
       0.06907082 0.106356695 -0.23458104 0.015844204
000060 6e 79 ec bd b1 4f ac 3d 57 70 2e be 62 82 1a 3d
       -0.115465984 0.084136374 -0.17035042 0.037722
000070 d8 dc df bd 68 7d 15 3e 0e be 8d 3d cb d4 25 be
       -0.109307945 0.1459862 0.06921016 -0.16194455
000080 e9 01 87 3c 07 c7 6e 3d c8 c4 64 3d 85 b6 f6 3d
       0.016480403 0.058295276 0.055851728 0.120465316
000090 af d0 c9 3e 9b 1d 47 be b4 1e 06 3e 6d 85 c3 bd
       0.39417025 -0.19444887 0.1309765 -0.09546933
0000a0 d2 00 64 bd 41 e7 e0 bd 8b d5 5f 3e 79 10 92 3e
       -0.055664845 -0.10981608 0.21858804 0.28528193
0000b0 f0 ac 2c be de 83 07 be 75 6f 0b 3c 09 3d 0d 3e
       -0.16862845 -0.13233897 0.00851046 0.13792814
0000c0 db 9e 32 3f b7 0c b0 3d be ed 04 be cf 93 b0 bd
       0.69773644 0.08596175 -0.12981316 -0.08621942
0000d0 6f 01 e0 bd 2e 4c 27 be a8 19 84 3e 5c a7 08 be
       -0.109377734 -0.16337654 0.25800824 -0.13345093
0000e0 25 ba e2 bc fa 4b a0 3e 78 2a 07 3e 80 9e 08 3e
       -0.027676651 0.31307966 0.13199794 0.13341713
0000f0 53 04 86 be 53 95 e3 3d 90 bf 05 be d6 39 bd 3e
       -0.26175174 0.11112466 -0.13061357 0.36958188
000100 74 93 1b be dc 2f de bd 55 b9 84 3e a7 5d 99 be
       -0.15192968 -0.10848972 0.25922647 -0.29954264
000110 60 45 36 be 9d a1 a1 be b4 62 0a bf d7 08 a3 bd
       -0.17799902 -0.31568614 -0.5405686 -0.079606704
000120 0e a3 09 be ac 3f 00 bf 6a 0e c8 be 36 59 06 be
       -0.13441107 -0.50097156 -0.39073497 -0.13119969
000130 2f 52 07 bf 03 85 1d bd fb 06 3e 3e 58 00 75 bb
       -0.5285978 -0.038456928 0.1855735 -0.0037384238
000140 9d 0a 18 3d a4 10 10 3f e5 3e ea bd f2 ec 6a be
       0.037119497 0.5627539 -0.114377774 -0.2294195
000150 2e 2f e6 bd 90 c1 78 3e b0 c5 f2 bb 17 1e dd bd
       -0.112394676 0.24292588 -0.00740882 -0.10796755
000160 ce 80 12 3f d9 a7 8d bd e6 86 32 3e 7d 00 fe bd
       0.5722779 -0.0691678 0.17434272 -0.12402437
000170 1a 78 02 3e 2e 1e 42 3b 52 28 19 be 58 16 d3 3e
       0.12741128 0.002962004 -0.14956787 0.41227984
000180 d8 c5 ca be 0a e0 0a 3e 33 3a 05 3e da 51 cb be
       -0.39604068 0.13562027 0.13010482 -0.39710885
000190 cf 9d ec 3b 92 1e 67 bd 4b 47 00 3e ff f2 10 3e
       0.0072209607 -0.05642564 0.12527196 0.14155196
0001a0 82 ed 15 3e 68 b6 a3 3e ef 1d e5 3d 63 05 c3 be
       0.14641383 0.31975102 0.1118735 -0.38090047
0001b0 01 60 19 3f e7 f9 11 3e 30 cc 31 3d 01 b7 2a 3e
       0.59912115 0.14255486 0.04340762 0.16671373
0001c0 77 9c 15 be 39 72 86 3e f9 c2 54 bf 30 79 b3 bd
       -0.14610468 0.2625902 -0.83110005 -0.08763349
0001d0 41 c6 c3 be 99 2d 65 be be 45 05 bd 8b 5b fb bd
       -0.38237193 -0.22380675 -0.032537214 -0.1227332
0001e0 a7 f6 a1 be d9 c1 da bd f8 7b b6 be 60 ee 19 3d
       -0.31633493 -0.10681505 -0.35641456 0.037580848
0001f0 ce e7 70 3e 84 98 64 be 71 75 18 be 55 72 88 3d
       0.23525926 -0.22323805 -0.1488855 0.06662432
000200 e4 f5 de 3e 0f c2 25 be 24 09 3f be 0d d6 15 3e
       0.43546975 -0.16187309 -0.1865583 0.14632435
000210 0c 8f 04 3d 87 94 5f bd 9d 26 80 3c b8 6a 6f be
       0.032362983 -0.054585006 0.015643412 -0.23380554
000220 fc c9 f1 3d 47 7b 0a 3e 3c 63 6c bd a4 22 aa 3d
       0.118061036 0.13523589 -0.057711825 0.083073884
000230 01 91 78 3d 02 3a aa bd 29 e8 82 bd a3 9c 82 3d
       0.06068516 -0.08311845 -0.06391937 0.06377532
000240 19 43 51 3e 3c 74 1f be b5 d5 f2 bd 3b fa 1f 3e
       0.20435752 -0.15571684 -0.11857168 0.15622799
000250 64 c4 cc bd b9 b2 43 be c1 48 3b 3e bf 8b 45 be
       -0.09998396 -0.19111146 0.18289472 -0.1929159
000260 3f 7a 75 3e 5b b2 85 3e 36 f4 27 3d 38 04 06 be
       0.23972414 0.26112637 0.041004382 -0.13087547
000270 30 11 52 3e 5b 5c 0b bd 6f 88 8f 3e 14 94 7f 3e
       0.20514369 -0.034023624 0.28033778 0.24958831
000280 2e 1d 1d 3c 3f 97 bd 3d 3f cf 04 bd d7 ad 44 3d
       0.0095894765 0.092573635 -0.032424208 0.04801735
000290 b1 61 41 3d 8d e9 e3 3d d2 7a da bd b9 ce d8 3d
       0.047212306 0.11128531 -0.10667957 0.10586304
0002a0 0c 27 27 3f ed 47 91 bd 07 b9 bd bd 83 52 1b 3f
       0.65293956 -0.07093797 -0.09263807 0.6067278
0002b0 32 97 c2 be 8c db a7 3e 08 3b a2 3d 16 41 de bd
       -0.38005978 0.32784688 0.079214156 -0.10852258
0002c0 a1 07 69 bc 5a 45 32 be ba fe 7e be 7d f8 06 bd
       -0.01422301 -0.17409268 -0.24901858 -0.03295182
0002d0 b4 00 d2 be 5d 25 f5 bb 5c 6b da be 84 b1 8e 3d
       -0.4101616 -0.0074812607 -0.42660034 0.06967452
0002e0 34 bd df 3d 20 1d a0 be e7 29 b1 be 5e 77 85 3e
       0.109247595 -0.3127222 -0.3460228 0.26067632
0002f0 b5 9b e3 bc f9 be 08 3d 90 1d 3e 3d 66 61 17 3e
       -0.027784208 0.03338525 0.04641491 0.14783248
000300 a7 ff 99 3d c0 e8 01 bf bb f1 d4 bd 9d 9f 5a bc
       0.07519465 -0.50745773 -0.10397669 -0.013343719
000310 e5 58 b1 be 17 88 ce bd ea e3 e9 3d 0e 7e 96 3d
       -0.34638134 -0.10084551 0.11420424 0.07348262
000320 8a e1 2c bd c3 62 99 be a5 82 91 3e 89 cc b9 3c
       -0.04220728 -0.29958162 0.28419986 0.022680538
000330 ad a0 7f 3e 9c 2f 3e be c0 95 a1 bd 13 a4 9b 3e
       0.24963637 -0.18572849 -0.07889891 0.30398616
000340 17 f8 82 3c 8a b5 08 be 3b 5d 4c 3e 42 46 04 3e
       0.01598744 -0.13350502 0.1995744 0.12917426
000350 7c f7 05 3e 5b 0a 00 3e 65 68 ab bd c8 9c 5b bd
       0.13082689 0.1250395 -0.08369521 -0.053616315
000360 d9 c2 a2 3d 4f ee 96 bd c5 1a 51 be 68 c9 66 bd
       0.079473205 -0.073696725 -0.20420368 -0.05634442
000370 d2 3a c4 3c 1f 9a 87 3d e9 0f b2 be 00 b2 89 be
       0.023953829 0.06621193 -0.34777763 -0.26893616
000380 03 f3 c3 3d 4e b4 9e be b5 7a 2f 3d bc 68 f4 3d
       0.09567835 -0.30996937 0.042841632 0.11934039
000390 c9 0e 1c 3e c4 b3 ef 3d 50 5f 7d 3d a9 f0 b2 be
       0.15240015 0.117042094 0.061858475 -0.34949234
0003a0 64 f8 19 be 4e fc dd 3c 44 c3 ee be 02 26 cd 3d
       -0.1503616 0.027097847 -0.4663335 0.10017015
0003b0 37 d4 09 be 2a be 12 bf 29 a1 1e bd e8 38 74 bd
       -0.1345986 -0.5732142 -0.038727913 -0.059624583
0003c0 03 38 ae 3e 9d bf 9c 3d 1c 5f 9b bd 9a db 4a be
       0.3402711 0.07653735 -0.075865 -0.19810334
0003d0 79 87 a0 3c a5 8a 5d 3e 59 d1 b0 be 91 74 1a 3e
       0.019595848 0.2163492 -0.3453472 0.15083529
0003e0 1f 6c 10 be e9 dd 6a 3d 94 77 eb 3d 41 6e a7 3d
       -0.14103745 0.057340536 0.11497417 0.08175326
0003f0 cd c7 1f be 0f 24 7b be 2c b6 b0 bd 69 a5 02 3f
       -0.15603562 -0.24525474 -0.086284965 0.51033646

onnx::LSTM_93 f4 [1, 128, 32]
000000 fe 35 93 3d 59 da 96 3d db ea 7d 3d 58 14 12 be
       0.071880326 0.07365865 0.061991554 -0.14265573
000010 be e5 51 bd cc 7d b8 3d da 97 26 be 0e 44 26 be
       -0.05124449 0.09008369 -0.16268864 -0.16236898
000020 50 d1 21 3e dd 86 57 bd ff 3f 31 bd 4d f6 9b 3d
       0.15802503 -0.05261885 -0.043273922 0.076153375
000030 34 4b 62 bd cf cb 35 3d 57 c5 09 be ec af 10 3b
       -0.0552475 0.04438382 -0.13454185 0.0022077514
000040 b3 fb 0e be a9 99 28 be 01 e3 d4 3d 79 a9 67 bd
       -0.13963203 -0.16464867 0.1039486 -0.056558106
000050 54 c3 0e 3e b8 c6 28 3e ac 02 9b 3d 91 80 df bd
       0.139417 0.16482055 0.07568869 -0.10913194
000060 1b 17 88 3c bd f4 12 3e 27 c8 a8 3d 7d 1b 3f 3d
       0.01661258 0.14351173 0.08241301 0.046657074
000070 e3 55 cd 3d c4 71 9a bc 0b d3 b2 3d 2c 60 47 bd
       0.10026147 -0.018853076 0.087316595 -0.0486757
000080 09 c2 f7 3d 4b f6 0c be d6 8c 1c be d9 a7 3a be
       0.12097556 -0.13765828 -0.152881 -0.18228091
000090 e7 41 8f bd cb 84 74 3c 4c 65 b0 bd 8f b1 19 3e
       -0.06994992 0.014924238 -0.08613071 0.1500914
0000a0 33 23 25 3e 12 af f1 3d 1b 2e 97 bd fb 0f b9 bd
       0.16126709 0.1180097 -0.07381841 -0.09036251
0000b0 49 73 4e bc 5d 65 9f bd 51 77 0e be 43 ec 04 be
       -0.012600728 -0.077830054 -0.13912703 -0.12980752
0000c0 15 b6 bf 3d 1c c4 32 3e 0e ae 42 bc 86 6f c2 bd
       0.09360901 0.17457622 -0.011882318 -0.09493928
0000d0 58 0e 90 bd 93 f9 2d be e7 1a d8 bd 64 c4 12 39
       -0.07033986 -0.16989736 -0.10552006 0.00013996806
0000e0 64 a6 10 3e 9c 52 97 bd 7a 19 c8 3d 85 9d 1c bd
       0.14125973 -0.07388803 0.09770484 -0.03823616
0000f0 96 66 d9 bd a2 87 00 be a2 06 9c 3d db 61 28 be
       -0.1061527 -0.1255174 0.076184526 -0.16443579
000100 96 41 ba bd 77 b3 cd bd 94 10 1c 3e 75 ff 44 3e
       -0.09094541 -0.10043996 0.15240699 0.19238074
000110 7b a4 05 be c7 4b 43 3e ea a2 0e 3e 10 b5 67 bd
       -0.13051026 0.19071876 0.13929334 -0.05656916
000120 04 8c af 3d 80 1f 44 3e f5 7b 8b bd 46 28 4d 3e
       0.08571628 0.19152641 -0.06810752 0.20034894
000130 cd 82 ea bd db eb ba bc 8d 2c 08 3d 89 6b be bb
       -0.114507295 -0.022817543 0.033245612 -0.005811159
000140 bc db 34 bd 5f f6 c7 bd fd 5b c1 bc 67 bf a5 bd
       -0.044154868 -0.097637884 -0.023603434 -0.08093148
000150 8e 02 47 be a2 22 dc bb d0 eb 8d 3d 30 17 bc bd
       -0.19434568 -0.0067179957 0.06929743 -0.0918411
000160 34 71 f2 3d 73 91 38 3d 99 60 62 3d f0 3f e2 bc
       0.11837998 0.045060586 0.055267904 -0.027618378
000170 ad 3b 36 bb 1e eb c4 3d d3 83 06 bd 07 45 13 3e
       -0.0027806566 0.096151575 -0.03284056 0.143818
000180 0a a4 1e bd 5b ed 2e 3e c3 c2 31 be d8 d0 bd 3c
       -0.03873066 0.17082731 -0.17359452 0.023170874
000190 7c b2 9c bd 20 ea 69 bc 90 e7 07 3d e3 d2 54 bd
       -0.07651231 -0.014277011 0.03317982 -0.05195893
0001a0 e6 b7 20 3e aa e7 2c be 24 15 d2 bd 50 57 0c bd
       0.15695152 -0.16885248 -0.102579385 -0.034262955
0001b0 21 fd d9 3d af 09 27 3e c9 57 1a be c0 af 03 3e
       0.10643984 0.16312288 -0.1507255 0.12860012
0001c0 12 68 39 3e 30 b3 45 3e af 84 a6 3d ff 58 1b be
       0.18106106 0.19306636 0.08130776 -0.15170668
0001d0 6d af d0 bd 62 b6 32 be 14 19 0b 3d dc f9 d0 3c
       -0.1018971 -0.17452386 0.033959463 0.025509767
0001e0 14 06 1b be bd 3c 9c bd 19 5d d7 bd f7 b4 93 bd
       -0.15139037 -0.076287724 -0.10515804 -0.07212251
0001f0 33 27 01 bd 43 08 b4 3d 6f 0d d2 3d 34 af 3b 3b
       -0.031531524 0.08790638 0.102564685 0.0028638365
000200 24 8f 1a 3e 61 e4 4b be 71 e7 13 be 73 ac 08 3e
       0.15093666 -0.19911338 -0.14443757 0.13347034
000210 06 35 17 3d d1 8a 0e 3e 91 c2 3b bd cc 5e 06 bd
       0.0369158 0.13920142 -0.04583985 -0.03280525
000220 bf 9a 24 3e f3 49 38 3e 94 ad d9 bd 94 68 0c be
       0.16074656 0.1799696 -0.106288105 -0.13711768
000230 aa a2 ed bd fb 3e 64 3d 7a 5b 07 3e 88 65 f6 3d
       -0.11603291 0.055724125 0.1321849 0.12031084
000240 ad 7b 9a bc e0 c9 d3 bd be 56 b7 3d b2 b5 1a 3e
       -0.018857801 -0.10341239 0.08952092 0.15108374
000250 82 c3 57 bd 3b 11 75 3d d6 a4 9f 3b fa 5e be bd
       -0.052676685 0.059830885 0.004871945 -0.09295459
000260 49 41 e5 3b 38 2b bf 3d ac c5 69 3d 52 c4 c7 bd
       0.006996308 0.09334415 0.05707328 -0.09754242
000270 58 42 91 bd 80 b4 ea bd b2 8b c4 3d 14 1a fb 3d
       -0.07092732 -0.11460209 0.09596957 0.122608334
000280 9f b5 32 be 21 95 9b 3d 0b 32 32 3e a8 1e 5e 3d
       -0.17452095 0.075968035 0.17401902 0.054228455
000290 02 c0 08 be 8f 66 a2 bc b9 38 8d bd 25 f0 07 3e
       -0.13354495 -0.019824294 -0.068955846 0.13275202
0002a0 81 40 1e 3e 08 a8 13 be 93 24 e3 bd 95 de 01 3d
       0.15454294 -0.14419568 -0.1109096 0.03170641
0002b0 e9 38 49 be 0b 82 24 3c cf 28 26 3c 77 5c 92 bd
       -0.19650616 0.01004077 0.010141565 -0.071465425
0002c0 a0 a0 a4 bd f1 5f 2c 3b 50 9e 16 bd ea b2 38 3d
       -0.08038449 0.0026302303 -0.036772072 0.0450925
0002d0 3a cb b2 3d 5a d4 83 bd 94 96 de 3d c3 4c 86 3e
       0.08730169 -0.06436987 0.10868564 0.2623044
0002e0 85 33 37 3e e0 49 5f bd 99 a3 0f be 38 23 0d be
       0.17890747 -0.054513812 -0.14027251 -0.13782966
0002f0 c1 cb fc 3d 72 ac d8 bd be d4 8c bd 09 ec 3e bd
       0.123435505 -0.10579766 -0.06876515 -0.04661182
000300 17 30 6d bd 30 84 30 3d b2 95 e6 3b b9 b4 b2 3d
       -0.05790719 0.043094814 0.007036888 0.08725876
000310 a2 fc 1e be b2 0f 37 3e 1e 36 fd 3c 67 f4 4c bd
       -0.1552606 0.17877081 0.030909594 -0.050037768
000320 f5 36 25 3c cb a3 c7 3d 6c 92 57 bd 71 c2 4a bd
       0.010083904 0.09748038 -0.052629873 -0.04950184
000330 89 cb 82 3d 69 0e 97 3d 24 e6 09 be 1d 7e 93 3d
       0.063864775 0.073757954 -0.13466698 0.072017886
000340 6f e7 1b 3e d6 06 af 3c a4 78 18 bd 2c ea ad 3d
       0.15225004 0.021365564 -0.037224427 0.0849193
000350 dc dc e8 bd bc 83 e3 3d 41 75 75 bd 97 a6 cd bd
       -0.113702506 0.11109111 -0.059926275 -0.1004154
000360 94 d8 d3 3d 1f 66 1a be 22 cd 75 3b 25 13 1b be
       0.103440434 -0.15078019 0.0037506302 -0.15144022
000370 7e 2d 15 3e 0b 5b a1 3d d9 0f 22 be 20 b1 1b be
       0.14568135 0.07878693 -0.15826358 -0.15204287
000380 69 49 98 3d 2b b3 a7 3c 64 ac 9d 3e a9 ba 7d 3d
       0.07435877 0.020471176 0.30795586 0.06194559
000390 48 a4 a8 bc 82 fe 6b be 06 2f 6f be d2 2a bb 3e
       -0.020586148 -0.23046306 -0.23357782 0.36556107
0003a0 c8 34 7a 3d 55 f1 d3 3d 38 c5 87 be a9 a2 d4 3c
       0.061085492 0.10348765 -0.26517653 0.025956469
0003b0 65 a1 09 3e 40 36 ce 3d ad b5 12 be 6c ef 26 be
       0.13440473 0.10068941 -0.14327116 -0.1630227
0003c0 46 2b 59 be 82 d6 a2 3c 76 ea 15 be 5b 79 a6 bc
       -0.21207914 0.019877676 -0.14640221 -0.020321539
0003d0 97 77 2b 3e 96 5f 4d be 8e ae 26 3d 00 28 06 3e
       0.16744839 -0.20055994 0.040693812 0.13101196
0003e0 76 f8 e7 3d 1a 79 4b be 5d ac 14 3d a2 fb 33 3b
       0.11326687 -0.19870415 0.03629719 0.0027463217
0003f0 b4 97 62 bd 85 cb a8 3d 32 55 02 3e 6f d1 92 3e
       -0.055320457 0.08241943 0.12727812 0.2867541

onnx::LSTM_94 f4 [1, 256]
000000 59 cf 21 bd fa 54 6e 3c c1 a2 b0 3d df c4 69 3d
       -0.039504383 0.014546627 0.08624793 0.057072517
000010 a1 26 9e 3c 71 ca e1 3d 2c 7c 42 3d 9b e3 60 3e
       0.01930553 0.11024941 0.0474817 0.21961825
000020 85 23 52 bd 8d 51 e5 bc bd 80 49 3c c6 30 8f bd
       -0.051303405 -0.027992988 0.01229876 -0.06991725
000030 a7 0d 5b bd 68 41 ab 3b 1b 7d c4 bd 54 db 14 3c
       -0.053479817 0.005226303 -0.095941745 0.009085495
000040 e2 58 c0 3c 07 2d 42 3e 2e 3f 21 3a 99 90 f6 bc
       0.023479883 0.18962489 0.0006151077 -0.030098246
000050 5b f1 b6 bd aa e0 0f 3e d9 88 ee bd 1b fd d2 3d
       -0.08932754 0.14050546 -0.11647195 0.10302182
000060 b6 84 35 be 94 81 10 bd e5 76 57 bd c5 9a c6 bd
       -0.17726406 -0.035279825 -0.05260362 -0.09697489
000070 25 4c 13 3d a9 52 da bd a3 52 bf 3c b5 e8 8f bc
       0.03596129 -0.106602974 0.023354834 -0.017567018
000080 b8 fd 56 3b de 85 8a 3b 70 7d 25 3e 99 cc 10 3e
       0.0032805037 0.004227384 0.16161132 0.14140548
000090 61 c3 1f 3c d3 71 f6 3d fa 46 c9 bd 76 bc 56 3e
       0.009751172 0.12033429 -0.09827991 0.2097033
0000a0 ff b7 1d bd 5c c9 d0 3d 03 07 de bd f4 94 60 3e
       -0.03850555 0.10194656 -0.10841181 0.21931821
0000b0 a1 8b c7 bd 5c c5 6f bd d2 f1 e7 3d 56 76 8d bd
       -0.09743429 -0.058537826 0.113254204 -0.069073364
0000c0 a9 83 03 3e c6 df 63 bc a1 48 3b 3d d5 2b 42 3d
       0.12843193 -0.013908332 0.04572356 0.047405083
0000d0 d9 c7 5a 3e 09 b3 01 be df 8e 99 3c eb 28 c7 bd
       0.21365298 -0.12665953 0.018744884 -0.09724601
0000e0 6b 6b 14 3e 7c ad c7 3d ea b5 56 3d b5 2b 1d 3d
       0.14494102 0.097498864 0.05241958 0.03837176
0000f0 c3 a4 1c bc b3 82 30 be 25 f0 94 bd 7f 2f 97 bd
       -0.009560767 -0.17237358 -0.072723664 -0.07382106
000100 e4 af 07 be a4 02 e5 3d a7 a5 55 bd fc 21 2d 3d
       -0.1325069 0.11182144 -0.05215993 0.04226874
000110 84 39 51 bd 64 f5 96 3e 7a c7 d2 3c 99 97 94 3e
       -0.05108024 0.29484093 0.025729883 0.2902191
000120 0f c2 08 bd d8 78 c1 3d 97 22 4d bc af 50 72 3e
       -0.033388194 0.09446877 -0.012520454 0.23663591
000130 55 cb 17 3d d9 4b 16 be 66 90 08 3e 76 c0 05 bd
       0.037059147 -0.14677371 0.13336334 -0.03265425
000140 8b b8 eb 3c 74 0b e5 bd a1 17 c9 3d 10 be a2 3d
       0.02877452 -0.11183825 0.0981896 0.07946408
000150 cd 61 2f 3e f3 a2 2c bc 29 9f 23 3d 3e 6f 9e bd
       0.17127152 -0.010536897 0.03994671 -0.077360615
000160 72 01 02 be a6 74 6a 3c ba d3 c4 bc b2 3e 63 3d
       -0.12695864 0.014310038 -0.02402674 0.055479713
000170 5e 8e c3 bd 10 13 02 3d 00 58 51 bd 29 49 49 3e
       -0.09548639 0.03175646 -0.051109314 0.19656815
000180 3c 7a 0d be 9e e4 05 be 31 64 f7 3d 65 24 a5 bd
       -0.1381616 -0.13075492 0.12079657 -0.08063582
000190 d4 3d 3c be 8e f7 9f bd 6a 75 66 3d 2f 9f d4 bc
       -0.1838296 -0.07810889 0.05626432 -0.02595481
0001a0 e0 76 72 3d 92 f4 db 3d 14 95 9f bd fc 72 f4 bd
       0.0591954 0.107400075 -0.07792106 -0.11935994
0001b0 be 4d 16 bd 35 9b fd bd 80 e7 fd bd 41 a5 02 be
       -0.036695234 -0.12383119 -0.12397671 -0.12758352
0001c0 e5 89 1a bd d3 06 81 bd 92 7f a7 3d b8 b5 9d 3d
       -0.037729163 -0.0630013 0.08178629 0.07700676
0001d0 c3 70 bc bd 3a ba c9 bd 9d be 66 3d 1f d3 2f 3e
       -0.09201195 -0.09849973 0.056334127 0.1717038
0001e0 51 a9 19 3e 76 3d 04 be 29 13 43 be 1c dc c0 bd
       0.15005995 -0.1291407 -0.19050278 -0.094169825
0001f0 ce 3a 20 3e e3 f1 e2 3b c9 4d ad bc f3 1b 0d 3e
       0.15647432 0.006925808 -0.021155255 0.13780193
000200 eb 80 27 3e 63 52 35 be 20 33 1c be ab 5b cb bd
       0.16357772 -0.1770721 -0.15253878 -0.09929594
000210 bc 01 25 3e 50 a6 8a 3d a5 24 d0 bd d1 c3 92 bd
       0.16113943 0.06770003 -0.101632394 -0.07166255
000220 bd 3b ab 3d 0f b1 09 3d 6e 0b 2e 3d cd c0 1f 3e
       0.083610035 0.03361612 0.04249137 0.15600891
000230 a4 9d e0 bd ef 75 a6 bd c2 4f a2 3d 93 01 64 3c
       -0.109675676 -0.08127963 0.07925369 0.013916391
000240 1b e4 75 bd 9d 72 0a 3e bc 45 71 3c 1e 59 1a 3d
       -0.06003199 0.13520284 0.014726099 0.037682645
000250 fd 2b be 3d b2 b7 47 3b ff f5 f6 3d 5c f3 3d bd
       0.09285734 0.0030474481 0.12058639 -0.046374664
000260 a9 d0 ac 3d c8 ee c1 3d b7 48 a6 3d 10 fb 80 bb
       0.08438236 0.09469372 0.08119338 -0.003936179
000270 91 1f 4e 3c af c6 04 be a0 f7 03 3e dd c9 af bc
       0.012580768 -0.12966417 0.1288743 -0.02145856
000280 eb 9e 9c bd 83 34 6e bd 04 bf a6 bd fd 06 de bd
       -0.07647499 -0.058155548 -0.08141902 -0.10841177
000290 fc 79 16 3e b0 97 8f 3d c9 40 ef ba 3e 9f 1e 3d
       0.14694971 0.07011354 -0.001825356 0.038726084
0002a0 7a af 23 bc fe cd e1 3d 97 29 04 be 73 56 94 bd
       -0.009990567 0.11025618 -0.1290649 -0.072430514
0002b0 d5 e3 f3 bd 98 a2 1e 3e f1 08 5b 3c 1e 43 f1 bc
       -0.1190869 0.15491712 0.013368831 -0.02945095
0002c0 94 4d 48 3e e6 eb 15 3d f8 f8 94 3d 81 44 3c bd
       0.19560844 0.036601923 0.072740495 -0.045963768
0002d0 74 a4 c0 3d 8c 21 84 3d e0 74 c2 3c 3c 4c 76 3d
       0.09406367 0.06451711 0.023737371 0.060131297
0002e0 c1 18 38 be 42 c8 04 3e a2 b8 b3 bd fd 97 2b 3d
       -0.17978193 0.12967017 -0.0877545 0.041892994
0002f0 b5 6c 08 be 7c d1 f2 bd f4 b0 18 3e fd 00 dc 3b
       -0.13322718 -0.11856362 0.14911252 0.006713985
000300 f9 5d b0 bd 0f ef 32 3c d9 0f 9e bd 3c 26 b2 bd
       -0.08611674 0.010921254 -0.077178665 -0.08698699
000310 4a d1 fb 3d 9a 7d 06 bd f0 50 ce 3d 15 a0 3f 3e
       0.12295778 -0.032834627 0.10074031 0.1871341
000320 37 c0 f5 3d da f2 02 be 00 90 24 3e ff ce 19 3e
       0.11999553 -0.12787953 0.16070557 0.15020369
000330 bb 87 e9 bd c3 50 6f bd eb 5d a4 bc 73 02 93 bc
       -0.11402842 -0.05842663 -0.020064315 -0.017945504
000340 ed fa 80 bd 10 a3 7c 3d 22 12 64 bb 29 dd 00 be
       -0.0629786 0.061678946 -0.0034800847 -0.12584366
000350 0c d7 af 3e 19 e5 1d be e7 c3 15 be 75 02 8c 3b
       0.34343755 -0.15419425 -0.14625512 0.004272754
000360 3c e4 cb 3d 12 0e 10 be 63 06 ac bd 49 13 1a 3e
       0.099556416 -0.14067867 -0.08399656 0.15046419
000370 1c 0f f0 3d 72 b8 dc bd f3 55 e4 3d f7 4f f6 39
       0.11721632 -0.10777368 0.11149206 0.00046980355
000380 63 6b 2c bc 4d 00 c2 bd 38 c6 9c bc 5b c4 f7 3d
       -0.01052365 -0.094727136 -0.019137487 0.12097999
000390 44 e2 e8 3a 99 a8 4a bc 9f a4 21 be c1 7e c6 bc
       0.0017767628 -0.012369298 -0.15785454 -0.024230363
0003a0 58 1f a1 3d 5f ad 40 3d 7e f3 b6 3d 4b 29 e8 3d
       0.078673065 0.04704034 0.08933161 0.11336001
0003b0 76 48 4c bc 37 30 71 bd b2 58 d0 bd ec cf 4b 3c
       -0.012468448 -0.058883872 -0.10173167 0.012439709
0003c0 0a 47 25 be a3 64 f6 bd fe fd c0 bd 71 64 3e 3e
       -0.1614038 -0.12030914 -0.09423445 0.18593003
0003d0 47 a5 26 3e 59 3d b3 3d db 7f 0d 3e 6b 2f 91 bb
       0.16273986 0.087519355 0.13818304 -0.0044307015
0003e0 9f 7c 10 3e bf e3 a4 bd e0 74 f7 bd d1 48 19 3e
       0.14110039 -0.080512516 -0.12082839 0.14969184
0003f0 87 1a a4 bd cc 71 d4 bd 8e 62 0c 3e f8 49 62 3d
       -0.08012872 -0.103732675 0.1370947 0.055246323
