Assets/Models/LSTM-Delta-DS2-WithZ-v1.onnx (onnx, 78586 bytes, 5 tensors)

net.0.weight f4 [3, 64]
00000000: 079f 9fbd ffd6 71bd dbe4 c03d 41c1 80bd
00000010: b9f1 063e c0d6 88bc c916 c03d 2416 2d3d
00000020: 108f 10bd 3bb3 83bd f5f3 4dbb bd15 f83b
00000030: 0ee4 8a3d fada 233d ed75 343d a0f9 01be
00000040: d42b 99bd cf1c 27bd 396f 403d 7c1f 3d3d
00000050: e59f 9e3d cda0 81be 1d50 25bd 097d 443d
00000060: 2de3 f83d f566 d7bd d384 003d 5dd1 a6bb
00000070: 9246 babc 4050 d53d 68ae c6bb b2e4 4d3d
00000080: ffa1 a43c 2df7 9b3d a30e ed3c ca6c 223d
00000090: e2ab e83b 8e55 31bd c132 7fbd 1b40 acbd
000000a0: 8579 00be 9676 ea3d e9a1 fd3b 9f5a f3bd
000000b0: 5674 8b3d 7db2 1d3d 973d a23b 5e5f c0bc
000000c0: 71e2 01bd d820 383d efdc c33d efc5 bcbd
000000d0: 4df2 893d 3ead 7c3d 93d7 dbbd f76c e6bd
000000e0: 1cd2 24bd 166e 18bc 7fb2 d63d 9317 41bd
000000f0: 115f fb3c d628 943d b57e 983d bbe8 d83d
00000100: 7d0f d9bc 9140 c23d 924a 923d c46c d4bd
00000110: 6498 0fbe ae24 82bc b8e1 04be 6586 e8bd
00000120: 62ca 1c3b 44da 883d cffa acbd 02a8 83bd
00000130: 59c1 d13d 8091 52bd 4244 613d 1317 c6bd
00000140: 1d65 f73d 08b6 ce3d 7049 4d3d 4dcd e73d
00000150: f54d a73d 1bdc 00be c417 c83d b3ea 09be
00000160: d41b 51bc 73c3 593d 9c1d 373d ee3a f13d
00000170: ea0e 983d 5145 38bd 0103 0a3e 5a2a e2bd
00000180: 30fd 9ebd f463 30bd 9c2b 1ebd bb91 0abe
00000190: 6683 82bc 5d81 b33d fffc 023e 397b 9bbd
000001a0: 7c2d 03bd 8db4 96bd 9f7b 34ba ab05 073d
000001b0: 6610 2c3e 2ad8 c9bc c602 f4bd 63d3 033d
000001c0: 712b 453d 4924 3b3c df48 c23d 9541 ab3d
000001d0: ac43 ddbc a279 c23d 3983 a6bd 76f8 843d
000001e0: c990 123d 53e9 c23d a225 babd 259a dbbd
000001f0: a0e3 043d 5c99 a6bd 91bd 54be 60fe 9cbd
00000200: 0856 b33c 9faa cebd ee19 063e dc3e 703d
00000210: 06df e3bd 3321 b1bc 3211 c73d 0219 1cbd
00000220: 5d1a e33d 8ef1 c6bb 9b3a fd3d 94bf aebc
00000230: 7147 a1bd 3f0d 403e 51e4 05bd 2c58 063e
00000240: fa6c 543c cf19 2c3d 83a2 f33d 127a 41bd
00000250: d5ad 753c c7a2 59bd f969 463a b405 c9bd
00000260: e99e 273d f817 a5bd 57e4 6f3c cec9 233d
00000270: e8c0 fdbb c7e0 f03d d7ba 7b3d 681f 47bb
00000280: 173a 6bbd 5bd5 5e3d b807 3c3d 8bd3 14bd
00000290: 0f54 70bd bfb9 df3d 3b99 9fbd 3469 463d
000002a0: 9743 ab3c 3ca9 9f3d 4197 a6bd 3f17 8c3d
000002b0: 33ab d93d 171e cf3d 98e1 2e3d e2d9 be3d
000002c0: 7019 91bd 2767 6fbb aba9 223d bc45 bfbd
000002d0: 090a 3e3d 73f6 073e c2b8 cfbd 21bf 82bd
000002e0: 377f e9bd a37e 2cbc 79c1 353d e40d 1abd
000002f0: 9001 883d 3abb 02be 37a0 8ebd 412b ff3d
-0.07794004 -0.059042927 0.09418651 -0.0628686 0.13178147 -0.016703963 0.09379346 0.042257443
-0.035292685 -0.0643067 -0.0031425927 0.007570951 0.06781779 0.040003754 0.044057775 -0.1269288
-0.07479063 -0.04079896 0.04698107 0.046172604 0.07745341 -0.25317994 -0.040359605 0.047970805
0.12152705 -0.10517684 0.03137667 -0.005090876 -0.022738729 0.10415697 -0.0060632713 0.05026693
0.020096777 0.076155044 0.028937643 0.03965453 0.007100568 -0.043294482 -0.062304262 -0.08410665
-0.12546356 0.114484 0.0077402485 -0.11882519 0.06809299 0.038500298 0.0049511897 -0.023482975
-0.031710092 0.044953197 0.09563624 -0.0921744 0.06735668 0.061688654 -0.10734477 -0.11251252
-0.04023944 -0.00930359 0.10483264 -0.047141623 0.03068498 0.07234351 0.074460424 0.10591265
-0.026496643 0.09484971 0.071431294 -0.10372308 -0.14022976 -0.01588663 -0.1297673 -0.11353759
0.002392434 0.06682256 -0.084462754 -0.06428529 0.10241956 -0.05140829 0.054996736 -0.0967237
0.12079833 0.100933135 0.050118864 0.11318455 0.08169166 -0.12583964 0.09770158 -0.13468437
-0.012762982 0.05316491 0.044705972 0.11778818 0.0742472 -0.04498798 0.13477708 -0.11043234
-0.077631354 -0.043064073 -0.038615808 -0.13532154 -0.015931796 0.087649085 0.12791823 -0.07591862
-0.0320258 -0.07358656 -0.0006884876 0.03296439 0.1680313 -0.024639208 -0.119145915 0.032184016
0.048137132 0.011422225 0.09486555 0.08362118 -0.027009808 0.09495856 -0.081304975 0.06492703
0.03578261 0.09517159 -0.09089209 -0.1072276 0.032443643 -0.0813472 -0.20775439 -0.07665706
0.021891609 -0.10091137 0.13095829 0.058653697 -0.11126523 -0.021622276 0.097200766 -0.038109787
0.11089013 -0.006071276 0.12364694 -0.021331586 -0.078749545 0.18755053 -0.032688443 0.13119572
0.012965435 0.0420168 0.11896231 -0.047235556 0.014995058 -0.053133752 0.0007568892 -0.09815541
0.040923033 -0.08061212 0.014641843 0.039987378 -0.0077439435 0.11761623 0.06145748 -0.003038371
-0.057428446 0.05440269 0.0459058 -0.036334556 -0.058673915 0.109241 -0.07792898 0.048440173
0.020906253 0.07795951 -0.08134318 0.06840371 0.10628357 0.10113161 0.04269561 0.093189016
-0.0708493 -0.003652999 0.03971259 -0.09339473 0.04639629 0.13277607 -0.10142662 -0.06384111
-0.114012174 -0.010528239 0.044373963 -0.037610903 0.06640923 -0.12766734 -0.06964152 0.12459422

net.0.bias f4 [3]
00000000: 545c adbd e2eb 683d b516 bbbc
-0.08464876 0.05686558 -0.022837976

onnx::LSTM_92 f4 [1, 256, 9]
00000000: 1c9b f6bd c2a8 ca3c 66e6 173e 9a80 873c
00000010: 4edf 843d 223f bf3d 8c4d c2bd 02ac 00bd
00000020: 323e 883e ce3f 0abd 585e c03d 75a2 b1bd
00000030: 252b 03be bdc0 c5bd 60de d9bd 292c be3d
00000040: d731 893e a4d4 d43e e9a9 f9bc 6157 1e3e
00000050: cdec 4ebd 9c9b be3b 21b0 8c3d 6cf8 83be
00000060: 4c29 4abc e3fe f03c e83b fa3e ba9f bf3d
00000070: 0b48 e4bd c8f4 96bd 07f2 2cbe 085c 913d
00000080: 9a91 eebd 976d dfbb 9536 323d ce8e ad3e
00000090: 5c65 a73d aac0 8a3a 7013 edbd e504 85bd
000000a0: fbc5 0f3e 8355 b8bd 159c 9f3d 4b3e 58be
000000b0: 2e0d 0fbd 2af2 153d 3fc2 bb3c 6692 32be
000000c0: 24d8 b73c 69e6 a53c 18b9 24be 9ec0 273e
000000d0: 8216 de3d bd71 5a3d 815b 973c fd1a 8e3d
000000e0: b6c8 64bc b562 5a3c 7fb6 65bd 1fc3 a23c
000000f0: 49af b73e c5ec f6bd 913d f73e 103f 113e
00000100: c416 a8bd dc93 10be 45f2 4dbd 4c55 e8bb
00000110: 59f2 95be 7f3f bf3e a300 bebe 0317 553e
00000120: 2905 b63d e66b 333e f8e7 9bbd d7fa 79bd
00000130: c4f6 5b3e e75b 3bbd 3a6a 5c3e ce4a ad3d
00000140: d753 c53e 342f 153d bce2 ae3c acdc ecbd
00000150: ff22 493e 1698 523d 5b50 c8bd 6184 6b3e
00000160: f168 98be d55f 8f3e df0b f9bd 3e66 963d
00000170: 136d 01bd 7e4d e73c f992 0fbe 7ca1 d7bd
00000180: d00b 66be 9566 30be db6b 8f3e aa5d cdbd
00000190: a17f 33bd 81b2 123d 9a14 c5bc a1c1 b43c
000001a0: 6ef6 9fbd c799 dabd 7ee1 f0be 43ab 2c3e
000001b0: 8e2e 453e 9571 07be 3aab 9bbd 2a46 9abc
000001c0: a744 233e c05b aabd 9dfb 60be 0a2b 61be
000001d0: 1dda a43e 5915 a2bc d594 e03c 34b4 46bc
000001e0: 114d 67bd f1f1 03bd 164b 4d3d 282b 213e
000001f0: baff ecbe 2ed3 a13d 7590 a33d 3c29 3fbb
00000200: 68f1 ad3d 20b8 65bd f7b3 0c3e dcb0 18be
00000210: 7884 523e 61ac c03d f69a 58bc 46f9 09be
00000220: fa70 dbbd bdc8 4abe 46ba 1ebe ed93 7abc
00000230: 9b97 8fbd 4a5e 0ebf 8bc1 103e 475d c33e
00000240: a774 5cbd 909e 3b3d a3bb e13c ae0e 1dbe
00000250: e70d a83d 9870 c5bc 08e4 ee3d c800 95be
00000260: 242b d83d 0cf5 61bc 83b1 71bd c36f c03d
00000270: 7170 f9bd 9629 86bb 6370 a0bd ac89 2abb
00000280: 6d60 4bbe 97a3 cbbd a6e1 123e 6f4c 913d
00000290: d277 43be 2dde 97bd c0c8 ee3d a2be 27be
000002a0: 9fef 12be 842c 9cbe c3ed 98bd b320 1d3e
000002b0: 7d16 87bd 1450 0ebe 8736 fe3c 8048 e23d
000002c0: 93b2 cebc 7ba7 a6be bc2d dcbe 0a7e ff3e
000002d0: c9c1 023d 1d52 513d 8aa4 0ebd 7eee 863c
000002e0: f728 24bd 15a6 d3bd e6c3 9f3c 2aed 1e3e
000002f0: 3f18 d43d 0852 4bbd a0af 823e 2ef0 bbbe
00000300: a867 2abe e441 543c 9bf2 cdbe 35c7 b33e
00000310: b2ea 5c3e 902f 343f dd63 423b 6c9c 843d
00000320: 9434 33be 535d 5a3b a1a0 223e 48b2 97be
00000330: c7a5 f7bd 072c 563e 2ab3 ec3e e517 fc3d
00000340: 2d92 2a3c 04b0 0abe 6019 bebd e25d d0bd
00000350: b7a2 1d3d 1932 9e3e 34e6 07be 6534 bfbd
00000360: 409d 18bc 0bef 07bd 56f7 163d fdc5 2abe
00000370: f9a2 7b3b 7452 5bbd 15dc 133e 5196 35bd
00000380: e315 dd3e 11ce e23c 9b26 363d ad1e f0bd
00000390: a885 603d fb3e 8e3d a78c 2cbe a0ee 31be
000003a0: c037 e03d 67ce 443e 1fac 2bbd 9e81 013c
000003b0: a12a bbbd 96d2 623d f7e5 10be 9fa9 24bd
000003c0: b812 253e 39b1 d3bd a6b5 193f fdf9 be3d
000003d0: bf35 5cbd 9a0e bc3d 4e2a a13d a3dd 583d
000003e0: 1654 05be c633 453e d2b6 793e be8f 163f
000003f0: 6271 adbd f224 923e 12bc e2bd 0641 0ebd
-0.120413035 0.024738673 0.14833984 0.016540814 0.064879045 0.093382135 -0.09487447 -0.03141404
0.2660995 -0.033752255 0.09392995 -0.08673564 -0.12809427 -0.096559025 -0.10638118 0.09285767
0.26795837 0.41568482 -0.030476527 0.1546302 -0.0505188 0.00581689 0.068695314 -0.25775468
-0.0123389475 0.029418414 0.4887383 0.09356637 -0.111465536 -0.07370907 -0.16889201 0.07097632
-0.11648865 -0.006818484 0.043509085 0.33898014 0.0817363 0.0010585983 -0.11575973 -0.06495074
0.14040367 -0.09000685 0.07793442 -0.21117513 -0.03492468 0.0366079 0.022919772 -0.17438659
0.022441931 0.02025147 -0.16086233 0.16382071 0.10844137 0.053331126 0.01847625 0.06938741
-0.013963869 0.013329198 -0.056082245 0.019868432 0.3587592 -0.12056879 0.4828916 0.14184213
-0.08207467 -0.14118904 -0.050279874 -0.0070902463 -0.2928646 0.3735313 -0.3710986 0.2080956
0.08887703 0.17521629 -0.07612604 -0.061030235 0.21480852 -0.04574194 0.21524897 0.084615335
0.38540527 0.03642197 0.02134835 -0.11565527 0.19642256 0.05141457 -0.097809516 0.22999717
-0.29767564 0.28002802 -0.12160467 0.0734372 -0.031598162 0.028235193 -0.1402091 -0.105288476
-0.22465444 -0.17226632 0.28011975 -0.100276306 -0.04382289 0.035814766 -0.024057675 0.022064986
-0.078106746 -0.10673862 -0.47047037 0.16862206 0.1925604 -0.13226922 -0.07601018 -0.018832285
0.15944158 -0.08318281 -0.21970983 -0.21989074 0.32197657 -0.01978557 0.027414719 -0.012127925
-0.05646998 -0.032213155 0.050120436 0.15739119 -0.46288854 0.079016075 0.07986537 -0.0029168865
0.0849331 -0.0560838 0.13740526 -0.14911216 0.20558345 0.09407879 -0.013220539 -0.13473997
-0.10714908 -0.19803138 -0.15500745 -0.015294057 -0.07011338 -0.55612624 0.14136331 0.38157102
-0.053822186 0.045805514 0.027555292 -0.15337631 0.08205777 -0.02410154 0.11664587 -0.2910216
0.105551034 -0.013791334 -0.05900718 0.09396317 -0.121796496 -0.004094313 -0.07833936 -0.0026022
-0.19861002 -0.09943312 0.1434389 0.07094657 -0.19088677 -0.074154235 0.11659384 -0.16381314
-0.1434922 -0.30502713 -0.074672244 0.15344505 -0.06596086 -0.13897735 0.03103186 0.110489845
-0.025231635 -0.32549652 -0.43003643 0.49900848 0.03192309 0.0511037 -0.034824885 0.016471144
-0.04007813 -0.10334412 0.019502591 0.15520158 0.10356187 -0.049638778 0.25524616 -0.3670668
-0.16641104 0.012955163 -0.40224156 0.3511292 0.21573904 0.70385075 0.0029661574 0.064751476
-0.17500526 0.0033319786 0.15881588 -0.29628205 -0.120921664 0.20915233 0.4623044 0.12309245
0.010410828 -0.13543707 -0.09282184 -0.10174157 0.038485255 0.30897596 -0.1327141 -0.09336165
-0.009314835 -0.033186954 0.03685697 -0.16677089 0.00383967 -0.05354543 0.14439423 -0.044332806
0.4318076 0.02768615 0.04447041 -0.11724601 0.054814965 0.06945606 -0.1685053 -0.17376184
0.109481335 0.19219361 -0.041912194 0.007904438 -0.0913899 0.05537661 -0.14150225 -0.040200826
0.16120422 -0.10336537 0.600428 0.09325025 -0.053762194 0.091824725 0.07869397 0.052945744
-0.13020357 0.19258031 0.24386147 0.58813083 -0.08468892 0.28543812 -0.11071028 -0.03472998

onnx::LSTM_93 f4 [1, 256, 64]
00000000: 9e0f 79bc 22fe 7fbd 5d73 f93d c026 8c3d
00000010: abd9 1dbd b600 dc3b a58c c43d f147 eebd
00000020: 7f34 5e3b 381e 21bd f7e5 ac3c 0044 ff3d
00000030: 4e2e 2abd 2549 0abb 2d15 fb3d d991 d93c
00000040: 2eb9 ad3d 2fcc 14be dd22 163b 2ba1 923d
00000050: 756c c9bd 471d abbc cd1a 82bd 2616 86bd
00000060: a531 b03d 0084 bbbd 068a a13d 696a 14bb
00000070: ac16 1fbc bd1a a3bd ef35 d33d 8967 4abd
00000080: df45 bfbc 5bd1 bc3d 285f 92bd 7e92 f7bd
00000090: a02c b1bd 2f53 dfbd 56bc b33d 41ca 01be
000000a0: 759a eb3d 85e0 75bd 8f08 08bc c1a0 9b3c
000000b0: 1f96 163e 26a7 e6bc ad97 093e 6475 1abe
000000c0: bd82 163e 6433 ddbd 9a11 ab3c 2fd4 9c3d
000000d0: c8f5 93bc cafc ee3d 7f64 9ebd a8a9 d0bd
000000e0: d842 b3bd 6b96 a6bc ec5d 34bd b094 97bd
000000f0: 4bfd 9e3c 6116 0abd ed05 43bd 9ee8 ea3c
00000100: b4f9 cd3c 50f9 6abd 0d59 b43d 5bc0 75bc
00000110: 5bc1 a1bb ba97 113e b257 123d 7b35 34bd
00000120: 95d1 1b3e 17fa 71be 7170 d33d 3b97 42bb
00000130: 3d22 96bd 32f6 b23d a061 0a3e cb1e e23e
00000140: 2822 1abe ad81 6abe d97c 68bc f409 203d
00000150: f438 7ebd d2d6 17bf f7d4 cc3d 3bfc 463c
00000160: 77b9 0a3d 4ffb 843d 38be adbd db34 283e
00000170: 461d 25bc 0cdd 4d3e c085 1e3d 1442 673c
00000180: 5220 4fbe 360d 36bb ab92 91bd 9712 0dbe
00000190: e689 0b3e 94b4 7fbd 4685 83bd b03c 2d3d
000001a0: a0ac 423e c6bf ae3d f2a4 8fbd 7af6 05be
000001b0: 55d3 36bc 8ec3 90bc f963 f33c 9ec9 e13e
000001c0: 192b 253c da69 4ebd a811 273e 8328 5bbe
000001d0: 693c 85bb 4765 a4bd c33b 243c 9d2b ad3d
000001e0: 4af8 0b3e 97ae 773d 5984 b93d 8597 c139
000001f0: 38a7 5dbc ac31 2d3e 8697 e43c 0343 d2bd
00000200: ce41 17bd 8ad1 b53d c4d3 693d b246 9d3d
00000210: f2f8 05bd 8a9f dcbd 4bf6 17bd 6fc6 17bd
00000220: 2fab c2bc b312 f8bd 1e3f ddbd 7fba af3c
00000230: d1c1 8dbc f33c 923b eab8 b3bd b1a2 01be
00000240: 0d29 793d 65f3 973d ffc3 81bd db1a 75bd
00000250: 011b c13d 73c8 143e 0c75 68bd 0f01 8ebd
00000260: 4e08 e0bd e272 ce3d a46d 043e 37c8 753d
00000270: 34f6 debd 0df7 8abd 7698 95bc db8c ff3d
00000280: ad60 d73d bece 16bc 893e 15bd 9437 bebc
00000290: 68c5 983d 3fae 02be 32d8 e0bd 0233 003e
000002a0: 2b04 693d 6905 74bc aa0f cfbd afbe 73bd
000002b0: b466 07be 0583 583d 7227 12bc 915a 813d
000002c0: 0f39 773d 0cae 1b3e f0ad 9cbc 4192 933d
000002d0: 80c9 3bbd 3726 b1bd fdba a03d c999 01be
000002e0: 08f3 e2bd d6a3 ce3c baac 293d a666 e9bd
000002f0: b55a f43d 83ed b63c fa19 e53d 1218 65bd
00000300: cd09 f13d 5c81 7d3d 2ce1 f53c afd9 10be
00000310: c341 113d 5ab3 c03c e2af 1dbd fa82 af3d
00000320: 6977 4cbd b682 49bd d73b 143d 3611 223e
00000330: 9543 a1bd 147e 883d edbc 8f3d a08f 38bc
00000340: 82ef debd a8ef 54bd 69d9 bc3d 955b 8b3d
00000350: 737b ef3d a89a 43be f478 1d3d db3a 74bd
00000360: bf68 033e 3133 763d 8d48 36bd e843 8e3d
00000370: 4574 29bd fcee ec3c 191c 79bd 890d e63d
00000380: b26c 79bc d01c 7dbd a14a ba3d 7bbd ca3c
00000390: a165 e0bd c343 c0bd adba 9d3d bf5d f3bc
000003a0: f16f 483c 6fca 0fbc e42e e33d 80fd 7f3c
000003b0: f0cc e63d 517b c8bd 6699 e2bd 0d54 19bd
000003c0: 4c67 b53d e6b2 6e3d 4ebb d6bc f17f e93d
000003d0: 983d 8abd d510 243c d72c b93d f7ee 9a3d
000003e0: 6465 e43c 6b47 253d d44b fa3d 734f e1bb
000003f0: 2a78 57bd ba73 e9bb 22f8 9ebd b757 c63c
-0.015201477 -0.06249822 0.12180207 0.068433285 -0.038537662 0.006713952 0.09597138 -0.116348155
0.0033905802 -0.03933546 0.02110575 0.12464142 -0.041548066 -0.0021100726 0.12259898 0.026558803
0.08482586 -0.14531015 0.0022908964 0.071596466 -0.0983514 -0.020887984 -0.06352768 -0.06547193
0.08603219 -0.091560364 0.07887654 -0.0022646433 -0.009709995 -0.07964084 0.103130214 -0.049415145
-0.023348747 0.09219619 -0.07147056 -0.12088488 -0.0865109 -0.10904538 0.087761566 -0.1267481
0.1150407 -0.06002857 -0.008302822 0.018997552 0.14705704 -0.028155874 0.13436766 -0.15083843
0.1469831 -0.108008176 0.020882417 0.07657658 -0.018061534 0.116693094 -0.07734012 -0.10188609
-0.08752984 -0.020335397 -0.044034883 -0.07401407 0.019407889 -0.03371275 -0.047613073 0.028675374
0.025143482 -0.05736667 0.088060476 -0.014999474 -0.00493638 0.14218035 0.035728164 -0.043996315
0.15216668 -0.23630558 0.10324181 -0.0029692191 -0.07330749 0.08738364 0.13513803 0.44164118
-0.15052092 -0.2290103 -0.014189922 0.039071992 -0.062066033 -0.59312165 0.10001557 0.012145097
0.03386828 0.06493246 -0.08483547 0.16426413 -0.01007778 0.20103854 0.038701773 0.014114875
-0.20227173 -0.002777887 -0.07108053 -0.13776623 0.13626823 -0.062428072 -0.06421904 0.042294204
0.19011164 0.08532672 -0.07013883 -0.13082305 -0.011158784 -0.017671373 0.029710757 0.44099134
0.010081076 -0.050393917 0.16315329 -0.21402173 -0.0040660393 -0.080271296 0.010024014 0.08455584
0.13668934 0.060469236 0.090584464 0.0003692472 -0.013528638 0.1691348 0.027904283 -0.10266688
-0.03692799 0.08877857 0.05708672 0.076795 -0.032708116 -0.10772617 -0.037100118 -0.037054475
-0.023763267 -0.121129416 -0.10803054 0.021451233 -0.017304333 0.004462832 -0.08775504 -0.12659718
0.060830165 0.07419471 -0.063362114 -0.059840064 0.09428979 0.1452959 -0.05675225 -0.06933796
-0.10939084 0.10080506 0.1293245 0.060005393 -0.10886803 -0.067854024 -0.018261176 0.12478038
0.10516486 -0.009204565 -0.03643659 -0.023219861 0.07459527 -0.12761782 -0.10978736 0.12519458
0.05688874 -0.014893868 -0.101104096 -0.059508022 -0.13222772 0.052859325 -0.008920537 0.06316102
0.06035715 0.15203112 -0.019125909 0.0720563 -0.045846462 -0.08649867 0.07848165 -0.1265632
-0.11081511 0.025224607 0.04142449 -0.11396532 0.119313635 0.022330051 0.11186595 -0.05593116
0.117694475 0.061890945 0.030014597 -0.1414554 0.035463106 0.023523021 -0.038497813 0.08569904
-0.049918566 -0.04919692 0.03618988 0.15826878 -0.078742184 0.066646725 0.070184566 -0.011264712
-0.10885526 -0.051986367 0.09221155 0.06804577 0.11693468 -0.19101965 0.038445428 -0.05962644
0.12832926 0.060107414 -0.044502784 0.06946546 -0.04137065 0.02892255 -0.06081781 0.112330504
-0.015223669 -0.061795056 0.090962656 0.024748554 -0.10956884 -0.093879245 0.07701621 -0.029707788
0.01223372 -0.008776291 0.11092928 0.015624404 0.112695575 -0.09789146 -0.11064415 -0.037433673
0.08857593 0.05827608 -0.02621236 0.11401356 -0.06750029 0.010013779 0.09041756 0.0756511
0.027880378 0.040351313 0.12221494 -0.006875926 -0.05260483 -0.0071243914 -0.07762171 0.024211748

onnx::LSTM_94 f4 [1, 512]
00000000: ab0e 0e3e 9be9 be3d a2af 92bb 29d0 f33d
00000010: e0cf 0c3e bdf4 573c 26b8 e3bd 6776 abbd
00000020: 23bd b6bd 151d f63d e877 1a3e 8309 263e
00000030: a921 133e 5b4c 273e 897e e7bd 344d 393e
00000040: 7b87 2f3d 7a8a f43c 1a3b 273e 49de 073e
00000050: 6cc6 273d 05b3 033f 84d4 af3c d8a3 76bb
00000060: b90c 94bd d05f 553d 2e30 e03d 8d55 b6bd
00000070: e0d7 153d f7df f93d 54a6 c13d 7c81 a7bd
00000080: bc49 ac3c 3f35 803d 2e79 e93c 2f9c 843e
00000090: f726 4d3d 2928 88bd b233 063c 559c 57bd
000000a0: fba2 243e 957d acbd 6f44 f43d 8de7 25bb
000000b0: 262c 8b3d 0762 a43e 779d cf3d aa4c 143f
000000c0: f3df 513e 16f8 723d da9e 90bd f04d 7c3d
000000d0: f0e5 413d e94d c43b 7483 f23c ebee cdbc
000000e0: 3e53 f2bc ea5c 8f3d 6dd1 f03a 0461 923d
000000f0: 6510 a6bc 9311 653e 73da 9f3d 87e0 6abc
00000100: 7801 3e3d c666 3e3e 0764 dfbb 57ba 833c
00000110: 2fe7 7fbc b4ba 0a3e a724 833d daf4 3d3d
00000120: 95e5 f73d 2e69 53bc 4b29 043d 3a73 d13c
00000130: 211b 6e3d 6049 863e 05b9 57bc 240c 093e
00000140: 3110 173e a9ef 353d 169b 8f3e 0426 ef3d
00000150: b8c7 c03d 96bb 073f c676 dc3d 57d2 e63d
00000160: 7802 3bbc bb22 4fbd cdd1 b13d 4bcc f03d
00000170: 70c1 ffbd 99fa dbbd a609 93bd 7a7d 9d3d
00000180: 598f fc3d abda df3c 6b70 c3bd a0fe 973e
00000190: ac29 533d 066d d3bd c490 883d 58e2 503d
000001a0: 87b4 cc3d 5765 2bbb 7702 f13c 8fcc d1bd
000001b0: aa36 02bc 9550 e33e 9ce2 6fbc 3266 bb3e
000001c0: a3e4 943e 7b62 d53d dcba fabb fe46 803d
000001d0: 7502 ca3c 7dc7 9a3d 2337 1b3d 06e3 653c
000001e0: c924 ca3d e6da e43d 977d 95bd 90fa 583d
000001f0: 4391 683d c944 333d be6c 093e 959d 60bd
00000200: bfc7 d5bd 93c2 05be bd6d ea3d 0614 a7bd
00000210: 842e c7bd 08f1 67bd 7e17 89bb 2b3a 91bd
00000220: cb06 08bd 177b 0dbe e7e4 10bd c909 56bd
00000230: 4bf5 be3d f250 0e3d db22 0b3d cb86 b43d
00000240: 3e34 b4bc 6b91 febc 77af 8cbe 7642 cfbd
00000250: 4187 45bd ba02 d3bd c9d1 bbbd 5638 d63d
00000260: 4808 823d 547c a4bc 2af4 07be 8bc1 a0bc
00000270: a6ea a93d b798 d8bb 8d09 08be 9afe c4bc
00000280: e445 fc3c fab6 dc3d 442c 69bc 6a2c 043d
00000290: abe0 b63d abdf 9e3d 4a97 d03d 85d4 2dbd
000002a0: 7525 c83d fb6b e93d 2b97 863d 206b 9c3a
000002b0: 6337 cdbd 5e84 bebe ad95 e63d 5353 c7be
000002c0: 29d9 46bd 0df8 22be d12c ee3d 3ee3 053d
000002d0: 7f07 06bd ccbd a33d fa86 963d e1d9 6ebc
000002e0: 269d 9bbd c554 ef3c e377 893d 1043 a93d
000002f0: debe a53d 3357 7cbd 320d c5bd 230e 563d
00000300: e071 a83d b622 1e3d bca2 0c3e 3a4e 7c3d
00000310: fb87 803d 36fe 82bb 87be c33d d9a4 c23d
00000320: e9c4 923c f671 b23d 4f64 f03c defe 453d
00000330: bdb4 673d 970f bdbd fca6 0abb c90d bb3c
00000340: 65ff e5bc adaf 0dbd 4d9c b3bc 3902 2fbd
00000350: 3159 b0bd 8935 70bd 5b8f c2bc 8329 0b3e
00000360: 1b04 4cbd db4b b6bc 6440 07ba 9efc a43d
00000370: d363 d13d 4966 c43d dce6 e7bd 8d54 3e3c
00000380: 2ae5 d0bd 9efa 503a 14ac d3bd 8dc1 c7bb
00000390: d0d2 48bc 57c3 f7bd 4a12 ccbd b7e9 d33c
000003a0: ae4e a2bd 79fa f33d cc19 8fbd 972f 8bbd
000003b0: 0f18 3dbc 932a cfbd c4af 323d 8cba 61bd
000003c0: 5d37 ca3d 1335 9cbd 2ad6 923c 38e1 d5bd
000003d0: 46ec 04bd 3f9c ce3d 8cc2 543d a273 7e3d
000003e0: 65f5 093d b00d 6ebd b397 463b 9ef6 febd
000003f0: 8242 9fbd abca ee3c ff1e a5bd 3ad4 913d
0.13872783 0.093219005 -0.0044765035 0.11904938 0.13751173 0.013180909 -0.11119108 -0.08372193
-0.08922794 0.12017266 0.15084803 0.16214566 0.14368309 0.16337721 -0.113034315 0.18095857
0.042853814 0.029851187 0.16331139 0.13268389 0.040960714 0.5144504 0.02146364 -0.003763428
-0.07228989 0.052093327 0.109466895 -0.08903036 0.036582828 0.12200921 0.09455553 -0.08178994
0.021031253 0.06260156 0.028500166 0.2590041 0.050085988 -0.06648285 0.008191036 -0.052639324
0.16077797 -0.0842239 0.11927115 -0.0025315017 0.0679553 0.3210604 0.10137456 0.5792948
0.20495586 0.059318624 -0.070615485 0.061597764 0.047338426 0.005990733 0.029603697 -0.025138339
-0.029580709 0.07000144 0.0018372961 0.071474105 -0.02027149 0.22369985 0.07805338 -0.014335758
0.04638812 0.18593892 -0.006817344 0.016080065 -0.015619083 0.13547784 0.06403475 0.046376087
0.12104336 -0.012903495 0.032265943 0.02556764 0.05813134 0.26227856 -0.013166671 0.13383538
0.1475227 0.04441801 0.2804801 0.11677173 0.09413093 0.5302061 0.10764842 0.11270588
-0.011414163 -0.05057023 0.086825944 0.11757716 -0.12488067 -0.10741157 -0.07179575 0.076899484
0.12332029 0.027325949 -0.095429264 0.2968645 0.051553413 -0.10323529 0.06668237 0.05099711
0.0999537 -0.0026152933 0.02942012 -0.102440946 -0.007947603 0.44397417 -0.01464143 0.36601406
0.29080686 0.10419174 -0.00765167 0.06263541 0.024659375 0.075575806 0.03789438 0.014031177
0.098702975 0.11174564 -0.07299345 0.05297333 0.056779157 0.04376677 0.13420388 -0.054837782
-0.10438489 -0.13062505 0.11446712 -0.08158116 -0.09725669 -0.05662635 -0.0041837087 -0.07091173
-0.033209603 -0.13816486 -0.03537455 -0.052255426 0.0932413 0.034745164 0.033968788 0.08814772
-0.021997567 -0.0310752 -0.2747762 -0.10120098 -0.04822469 -0.103032544 -0.09170873 0.10459964
0.06349236 -0.020078816 -0.13276735 -0.019623538 0.08296709 -0.006610002 -0.13284893 -0.024047185
0.030795045 0.107770875 -0.014231745 0.03226892 0.08929571 0.07757505 0.10185106 -0.042439003
0.09772769 0.11397549 0.06571802 0.0011933781 -0.1002033 -0.37210363 0.11259017 -0.3893076
-0.048546944 -0.15914936 0.11629642 0.03268742 -0.032721993 0.07995185 0.073499635 -0.014578314
-0.07598333 0.029215226 0.0671232 0.08264744 0.08093046 -0.061606597 -0.096216574 0.052259576
0.08224845 0.03860732 0.13733953 0.06159804 0.06275936 -0.0039975895 0.095578246 0.095040984
0.01791616 0.087131426 0.029344706 0.048338763 0.05656885 -0.09231489 -0.002115666 0.022833722
-0.028075883 -0.034591366 -0.021925116 -0.04272673 -0.08610762 -0.058644805 -0.023749998 0.13590054
-0.049808603 -0.022252968 -0.0005159436 0.080559954 0.10224118 0.09589822 -0.1132333 0.011616838
-0.101999596 0.0007971915 -0.10335556 -0.006096071 -0.012257293 -0.12097805 -0.09964426 0.02586828
-0.07925163 0.11913008 -0.06987342 -0.067961864 -0.011541381 -0.10115542 0.043624654 -0.055109546
0.09873841 -0.076273106 0.017924387 -0.10443348 -0.03245189 0.10088395 0.051943347 0.062121995
0.033681292 -0.058118522 0.0030302822 -0.12449382 -0.07776357 0.029149374 -0.08062553 0.07120557
