Assets/Models/LSTM-90Hz-WithZ-v1.onnx (onnx, 23418 bytes, 5 tensors)

net.0.weight f4 [3, 32]
000000 8d 44 05 bd c4 0e 72 3e e0 16 67 3e ae 26 67 3b
       -0.03253608 0.23638445 0.2256732 0.0035270858
000010 d9 7e 5e be c2 2e 9c bd 2d 14 60 3c 21 ba 77 be
       -0.21728076 -0.07626106 0.013676685 -0.24192096
000020 4e 8c 0f be 86 b4 8e bd b8 65 4f be 7e 5b d3 bd
       -0.14018366 -0.06968026 -0.20253646 -0.10320185
000030 f3 3b 77 be f7 36 58 bd f1 40 4a be 18 99 d8 3c
       -0.24143963 -0.052786794 -0.19751336 0.026440188
000040 ea 13 9f 3c ab 5e 16 3e 84 8c 0c 3e c9 42 89 bd
       0.019418675 0.1468455 0.13725477 -0.067021914
000050 b5 21 1f 3e b8 0e 2d be c8 ec 23 3e 87 08 91 3d
       0.15540202 -0.16900146 0.16008294 0.070817046
000060 be 2d db 3d 9f e9 73 3e 85 5c 74 3e 04 14 37 3e
       0.10702084 0.23819588 0.23863418 0.17878729
000070 a1 ef 45 3e cf 69 58 be 9a 77 8a 3e d0 9e 95 3d
       0.19329692 -0.21134113 0.27044374 0.07305682
000080 26 ce 5c 3e 57 ff 98 bb cf 97 0e be 04 e2 fe 3b
       0.21563014 -0.0046691108 -0.13925098 0.007778408
000090 1e f2 50 be 28 d5 41 3e ad 52 60 be d5 0b 9f 3d
       -0.2040486 0.18928969 -0.21906538 0.07765929
0000a0 31 43 83 bb 6c 76 40 be a8 f8 77 be fe c5 47 3e
       -0.0040058126 -0.18795174 -0.24215949 0.19509122
0000b0 c9 76 8a be 68 72 1a 3e f6 e9 f0 bd 43 dd 64 3e
       -0.2704375 0.15082705 -0.117633745 0.2235003
0000c0 78 d2 24 3e 50 3a 63 be 8b 1c 34 be 24 14 d4 3b
       0.16095912 -0.22190213 -0.17589013 0.0064721275
0000d0 b5 f2 10 be 8d 8e 5a 3e 41 01 44 3e 98 9c 59 be
       -0.14155085 0.21343441 0.19141103 -0.21251142
0000e0 65 e3 df bd 43 35 67 bd 33 b3 d2 bd 62 ad 7a bd
       -0.10932044 -0.05644728 -0.10288086 -0.061200507
0000f0 67 0e 3d 3e c7 d6 0b 3e 45 2d 42 3e b2 6f 99 3d
       0.18462525 0.1365615 0.18962581 0.07492007
000100 13 73 31 3e 5a 31 f2 bd 6b dc a0 bd 47 82 39 3e
       0.17329054 -0.11825819 -0.078545414 0.18116103
000110 47 23 11 be 14 d2 7e bd e2 af 84 3d 02 d1 2b 3e
       -0.14173613 -0.062212065 0.064788595 0.16778949
000120 39 bc d6 3d dd 9d b9 be df 0a 42 bd 17 dd 80 3d
       0.104851194 -0.36253253 -0.04737365 0.062921695
000130 35 fd c7 bd d1 00 1f be 36 4c 9c 3d a9 8a 95 3b
       -0.09765092 -0.15527655 0.076317236 0.0045636487
000140 93 68 23 3e 4e 21 2d 3e a7 67 9e 3e fb 30 c9 3d
       0.1595786 0.16907236 0.30938455 0.098237954
000150 d4 31 fd 3d 46 05 a4 3d 99 0f 12 be c2 57 c4 bd
       0.123630196 0.08008818 -0.14263763 -0.09587051
000160 15 22 46 3e 32 5d 40 be 09 36 51 3e d3 c3 07 be
       0.19348939 -0.18785551 0.20430769 -0.13258295
000170 53 19 a6 bd 87 35 60 3d 38 60 5a bc c5 9b 98 3e
       -0.08110299 0.054738548 -0.013328604 0.29806343

net.0.bias f4 [3]
000000 68 d8 d7 3d 7b fc 79 bd d5 c1 c8 3d
       0.10539323 -0.0610318 0.098025955

onnx::LSTM_92 f4 [1, 128, 9]
000000 f8 c9 03 3d 71 f2 3f be 57 1a 27 3e a3 66 74 3d
       0.032175034 -0.18744828 0.16318642 0.059668195
000010 76 dc e5 bc 0c e3 38 3e a2 a2 c0 bd 4c 9e 89 3c
       -0.028059226 0.18055362 -0.0940602 0.016799115
000020 3e 10 9b bc fc 62 61 3b 37 2c 91 3d 66 c6 c5 bb
       -0.018928643 0.0034391275 0.070885114 -0.006035614
000030 4e ad 5e 3d 51 27 9e bd 8a 2e 3e 3e 40 cb 3d 3e
       0.054364495 -0.07722343 0.1857244 0.18534565
000040 17 3b 72 bc c1 a0 41 bd fc 19 27 3d af 63 5b 3d
       -0.014784596 -0.047272447 0.040796265 0.053561863
000050 67 52 9e 3c 4d 99 5a 3e 77 98 77 bc ba de 08 bd
       0.019326402 0.21347542 -0.015112034 -0.033415534
000060 89 01 8e 3d 31 68 d8 3d 45 61 29 3e 96 a4 d9 bd
       0.069338866 0.10566748 0.16541012 -0.106270954
000070 7a 03 33 bc 39 9f 09 be a8 c7 8d bc 8b 58 f5 3c
       -0.010926122 -0.13439645 -0.017307118 0.029949447
000080 be f6 76 3d 68 77 43 3e 69 8a 82 3e 4e f8 ab bc
       0.060293905 0.19088519 0.25496224 -0.020992424
000090 56 4e a8 bd eb a0 5f 3b ea a0 27 3e d0 43 ac 3d
       -0.082180664 0.0034123014 0.16369978 0.08411372
0000a0 d1 26 b7 3c 49 2c ee 3d 71 2a 0d bd 22 11 1d bc
       0.022357376 0.116295405 -0.034464303 -0.009586604
0000b0 05 67 56 3d 41 aa 21 be a2 33 68 bd 1d 70 61 bd
       0.05234434 -0.15787603 -0.056689866 -0.05503856
0000c0 42 60 d1 3d be 8f db 3d a5 16 0c 3d 5d 2b ef 3d
       0.10223438 0.10720776 0.034201283 0.11678193
0000d0 52 d1 60 bd 3e f3 40 3c 3a 62 28 3d 25 9f 18 be
       -0.054887123 0.011776743 0.0411093 -0.14904459
0000e0 dc 28 08 39 d2 94 01 3d 8d 03 dd bc e9 b7 47 3e
       0.00012985192 0.031636067 -0.026979232 0.1950375
0000f0 d9 be 8a 3c e7 c4 28 be 47 41 2c 3e 2c a5 cf 3d
       0.016936706 -0.16481362 0.16821776 0.10138926
000100 c5 73 22 be 5d 80 8f bd bc c7 96 bd 19 5b ce 3c
       -0.15864475 -0.07006905 -0.07362315 0.025189923
000110 1e 6b 50 3e bd 5e 46 bd 43 c6 a4 3c b5 03 40 3e
       0.20353362 -0.048430193 0.02011407 0.18751414
000120 b2 7e 81 3d 76 2e 0d 3e c9 44 85 3d a5 94 33 3b
       0.06322993 0.13787255 0.0650726 0.0027401831
000130 24 92 24 bd 93 84 48 3e 34 c6 f8 bd a5 3e da bc
       -0.040178433 0.19581823 -0.12147179 -0.0266412
000140 3d c7 1b 3e e7 88 75 bc 88 1a 3e bc 2a fc ff 3d
       0.15212722 -0.014986253 -0.011603005 0.12499268
000150 04 41 dc bd 73 6c bd 3d 23 a2 81 3e ca 93 a8 bd
       -0.10754588 0.09249201 0.25319013 -0.082313135
000160 ab f4 f0 bc 68 5f 00 3d f3 4e a3 bd 11 b4 01 bc
       -0.029413542 0.031340986 -0.07974043 -0.007916466
000170 94 6a 14 3e c2 bb 10 3d 80 3a 14 3c 4f 8b 37 3e
       0.14493781 0.03533531 0.009047151 0.17924236
000180 6f f5 75 be 7d 96 71 be 73 ac a7 bd 5c 20 db bc
       -0.24019407 -0.23592563 -0.08187189 -0.026748829
000190 cd e9 dd bd da 9a be bb 66 9c 0a 3d 00 7d b6 bd
       -0.108356096 -0.0058167996 0.03384056 -0.089105606
0001a0 1b 4e f6 3d 0f b6 12 3d 4e 14 43 3e 55 e1 6f bd
       0.12026616 0.035818156 0.19050714 -0.058564503
0001b0 99 59 47 bb f6 a3 49 be 5c 2c 31 3e 35 4f 2b bd
       -0.0030418395 -0.19691452 0.17302078 -0.041823585
0001c0 54 64 0c be df 2f b4 bd cc 7d 2a bd 1e ba 0e 3e
       -0.13710147 -0.08798193 -0.041623875 0.13938186
0001d0 c0 9c 1f 3d 30 30 2a 3d e9 4f f3 bc b3 9f 0c 3e
       0.038967848 0.04154986 -0.02970119 0.13732795
0001e0 d4 d5 08 be 81 b9 02 be 3a f5 4d bd 03 bf 32 be
       -0.13362819 -0.12766077 -0.050282694 -0.17455678
0001f0 55 52 a4 3d 44 38 cb 3d 22 45 26 bd ab ef cf bd
       0.08023516 0.09922841 -0.040593274 -0.10153135
000200 cb 84 e2 bc 8a f9 05 3e 1c 07 06 be 7b 76 20 3d
       -0.027651211 0.13083473 -0.1308865 0.03917549
000210 2c 8a 04 be 70 6b a7 bd 55 66 ca 3d 90 e0 43 3e
       -0.12943333 -0.08174789 0.098827995 0.19128633
000220 53 59 14 3d 6e 40 c2 bc cc 57 75 3d 2e 50 eb bd
       0.036218 -0.023712363 0.059898183 -0.114899024
000230 3b eb 4f 3b ec cf d8 39 e9 58 40 bd de 31 1f 3e
       0.0031725902 0.00041353644 -0.04695979 0.15546367
000240 9d 97 36 3d d0 1e cf 3d 3a 0f 5f bd 7c b5 50 bd
       0.044578183 0.10113299 -0.05445788 -0.050954327
000250 ab 00 87 3d 28 ec 12 3e c0 9d 81 be ec 9d fe 3d
       0.06591924 0.14347899 -0.25315666 0.12432465
000260 c2 78 b1 3d 1c 27 e9 bd 66 69 8e bd 10 28 4f 3e
       0.08665611 -0.11384413 -0.06953697 0.20230126
000270 f1 23 ea bd 32 ee 1b be 60 b0 43 3e 9b d2 f9 3a
       -0.114326365 -0.15227583 0.1911025 0.0019059958
000280 2a 61 46 3d 7a 1a 35 3e bc 52 0c be b3 67 1f 3e
       0.048432507 0.17685881 -0.13703436 0.15566902
000290 45 a9 02 3e 15 00 9b bd 8e 4c 97 bd 25 c2 cf 3c
       0.12759884 -0.07568375 -0.073876485 0.02536113
0002a0 ed 72 74 3d 50 87 98 3d 32 4a 35 3e bd 4a 05 be
       0.059679914 0.07447684 0.17704085 -0.13016792
0002b0 7d 2d 79 bd 29 a9 e2 3d e0 b6 c8 3d c0 35 f3 3d
       -0.060834397 0.11067421 0.09800506 0.118754864
0002c0 27 d3 26 be 52 e6 03 3d 5c 24 56 bd 2f b2 88 3e
       -0.16291486 0.032202072 -0.05228077 0.26698443
0002d0 37 11 3f bd a6 4d 69 3c 32 38 8b ba 60 c0 ca 3d
       -0.046647277 0.014239704 -0.0010621606 0.09899974
0002e0 d8 66 d1 bd db a0 1d 3d 03 02 53 be 80 25 d7 3d
       -0.10224694 0.03848348 -0.20606236 0.105051994
0002f0 16 ba 1e be 03 c0 1e 3d 6d 64 12 3e c0 2e 85 3d
       -0.15500674 0.038757335 0.14296122 0.065030575
000300 6d d5 c0 3d de 34 87 bc c1 12 5a 3e bc f6 1f bd
       0.09415708 -0.016504701 0.21296217 -0.039053664
000310 3b 6f 40 3e c3 af 08 3e 18 ed 65 3e 96 77 99 3d
       0.18792431 0.13348298 0.22453725 0.07493512
000320 c8 b7 53 3e 3b eb e8 3d 16 7b 6e 3d 9d 04 70 3c
       0.20675576 0.11372992 0.058222853 0.014649537
000330 24 95 12 3e 66 dd 6b 3d 6c 56 05 be af 0d d0 bd
       0.14314705 0.05758419 -0.13021249 -0.1015886
000340 91 9b 93 3d 65 f3 d5 3d ab b0 0c 3e b6 35 06 3d
       0.07207406 0.104468144 0.13739268 0.032766066
000350 22 25 e4 3d 4a 92 c7 bd 15 dd 02 3d 54 e5 91 3b
       0.11139895 -0.09744699 0.03194912 0.004452387
000360 94 b5 aa 3d 97 a8 be 3d 73 bd ca 3d eb b6 00 bd
       0.083354145 0.093095 0.09899416 -0.031424444
000370 fb 8d 8a bd ab 02 7f bd 3d de c7 bc 92 3a 9c 3d
       -0.06765362 -0.062258404 -0.024397964 0.07628359
000380 77 20 22 3e 76 0a 83 bd 74 52 20 bd 9d 23 22 3d
       0.15832697 -0.0639848 -0.039141133 0.039584745
000390 04 8f 30 3c 4f b9 9a bd 0c 57 f8 bd 63 e9 82 3e
       0.010776285 -0.07554876 -0.12125978 0.25568685
0003a0 51 e6 80 bd 0f 9c 2f be 7b 33 9a bd 6b d0 83 bd
       -0.06293929 -0.17149375 -0.0752935 -0.06436237
0003b0 0c ba 8b bd e8 ad 79 3d 8e be fa bd 62 85 31 3e
       -0.06822595 0.060956866 -0.12243377 0.17336038
0003c0 8b af a9 39 0e 71 3e be ef ff d7 3d 0a 93 48 39
       0.00032364982 -0.18597814 0.10546862 0.00019128263
0003d0 a8 3e 83 bd a0 f0 3f 3e 38 8f 02 be a4 d8 94 3d
       -0.06408435 0.18744135 -0.12749946 0.072678834
0003e0 bb ac 46 3e 00 6e 01 be aa 47 20 3e 2a 7f 83 3e
       0.19401829 -0.12639618 0.15652338 0.25682956
0003f0 33 f0 d4 3d 83 02 19 3e 59 e9 3d 3e ff 66 04 3e
       0.10397377 0.14942364 0.18546046 0.12929915

onnx::LSTM_93 f4 [1, 128, 32]
000000 20 d2 3f 3e ca 85 82 be 7e 16 f5 bd 1d 5f 6e 3e
       0.187325 -0.25492698 -0.11967181 0.2327847
000010 74 22 1b bd b4 67 22 be 14 b0 8a bd d6 f7 f0 3d
       -0.037874654 -0.15859872 -0.067718655 0.11766021
000020 f8 b5 2f 3d 95 56 0b 3e 4b 4f 65 3c 07 10 88 bd
       0.04289815 0.13607247 0.013995956 -0.06643682
000030 bf 6f 69 3e f7 be 53 3d f1 05 68 3e 82 6f da 3d
       0.22796534 0.05169579 0.22658516 0.106658
000040 50 0e ca bd b5 b8 90 bd fb 7b ea 3d 64 b4 11 3e
       -0.09866011 -0.0706648 0.11449429 0.1422897
000050 14 ab 1a be 82 9a 62 3d 8a 2a bf bd 0e eb a1 bd
       -0.15104324 0.05532313 -0.093342856 -0.07906161
000060 04 3c 88 3d eb 29 04 be 9d db a6 3a 17 3e c3 3d
       0.06652072 -0.12906615 0.0012730245 0.09533327
000070 2e 17 d7 3c 20 c0 c9 bb 04 46 03 3e 5f e2 4a 3d
       0.02625617 -0.0061569363 0.12819678 0.04953229
000080 bf 71 8d bd 81 6a 0b 3e 50 17 77 3e ac cd 47 3d
       -0.06906461 0.13614847 0.24129987 0.04878013
000090 7a 22 a4 3c 90 03 5b 3d 08 a5 28 bd 45 be 86 bd
       0.020035971 0.053470194 -0.04117301 -0.0657926
0000a0 9d 17 94 bc 35 c1 4f bd 1c 44 9d 3e c1 91 8c bc
       -0.018077666 -0.050721366 0.30716026 -0.017159345
0000b0 99 a6 15 3e fe dc 6a be d7 4e a4 3b 27 af c4 3b
       0.14614333 -0.22935864 0.0050142813 0.006002325
0000c0 f7 f9 c7 3c 49 79 73 3d 9f 99 12 3e 34 17 a4 3d
       0.024411185 0.05944184 0.14316414 0.08012238
0000d0 ba a0 51 3c 7f 74 d1 3d cd 2e cf 3c 70 10 a6 3d
       0.012794668 0.10227298 0.025290871 0.08108604
0000e0 d4 85 35 3e e1 df af 3e 2d be 06 3e 1d 45 e3 bd
       0.17726833 0.34350494 0.13158484 -0.11097167
0000f0 cc bd 40 3e 4c ba 6a 3d f8 34 ef 3d 61 bf 8d be
       0.18822402 0.057306573 0.11680025 -0.27685073
000100 11 e5 51 3e a3 97 20 3e 7b a7 c5 bc 42 31 40 3e
       0.20497538 0.15682845 -0.024127712 0.1876879
000110 f6 85 41 3d 5a e8 50 be fe ee 57 3b b3 05 08 be
       0.047246896 -0.20401135 0.0032948847 -0.13283424
000120 f9 33 78 3e 63 77 1b 3e 88 8b a0 3d 2c ad df 3d
       0.24238576 0.15182261 0.078391135 0.10921702
000130 9f a4 54 be 5e 1b 36 be 39 e8 d2 3d 59 92 73 3d
       -0.20765923 -0.17783877 0.10298199 0.05946574
000140 f2 11 13 bd 24 50 4e 3e b1 ea 85 bc e5 a3 39 3e
       -0.035905786 0.20147759 -0.016347261 0.18128927
000150 42 81 05 3e ed 58 01 3e 0e 46 72 3e f2 e7 7e 3d
       0.13037589 0.12631579 0.23659536 0.06223292
000160 29 91 83 bd d6 7e 48 3e 18 af 4a bd 75 3a 26 be
       -0.064241715 0.19579634 -0.04948339 -0.16233237
000170 2f d6 42 bc 02 7c 66 3d d2 48 db 3d 18 a6 d2 bc
       -0.011891886 0.056270607 0.10707249 -0.025713965
000180 30 b4 34 bd 38 5b 1a be 0a 06 ef bc c2 75 71 3c
       -0.044117153 -0.1507386 -0.029177684 0.014737548
000190 24 cf b1 3d ff 3a cd 3d e8 07 35 3e c9 e6 02 3e
       0.08682087 0.10021018 0.17678797 0.1278335
0001a0 12 f9 06 bd 1b a7 23 be 13 4e 6e 3e 9d 31 f5 3d
       -0.032952376 -0.15981714 0.2327197 0.119723536
0001b0 dc 13 82 3e c2 9b 14 be c7 ff 90 bd d6 e1 f1 bd
       0.25405777 -0.14512542 -0.07080036 -0.11810653
0001c0 5c fb dd 3d 91 7d 2c 3e 3d 38 4f 3e 1d 9b 4e 3e
       0.108389586 0.16844775 0.20236297 0.20176359
0001d0 49 92 9f 3d 70 4c 64 bc 9d b8 3f be 9d c8 10 3e
       0.077915736 -0.01393424 -0.18722768 0.14139028
0001e0 13 1a 9a 3d ad 4c ba 3c c0 71 c6 3d 28 db fd bd
       0.075245045 0.02274164 0.09689665 -0.12395316
0001f0 96 6a 15 be 9e 4b fd bd b5 95 d1 bc 75 1e a8 3d
       -0.1459144 -0.123679385 -0.025584081 0.08208934
000200 1c 61 ac bd 36 68 00 be 2a 97 9b bd 2b e3 3f 3e
       -0.0841696 -0.12539753 -0.07597192 0.18739001
000210 7b 25 12 be d0 71 fe bc d8 66 b3 bb 78 d5 9e 3c
       -0.1427211 -0.03106013 -0.0054749064 0.0193889
000220 7b 9c c4 bd 7c 43 0d be 70 c3 97 3d 94 9a 86 3d
       -0.09600159 -0.13795274 0.074103236 0.06572452
000230 66 a3 1d 3e f6 14 8d bd ae 4b 98 3d 8b 5f ee bc
       0.15394363 -0.068887636 0.0743631 -0.029098293
000240 41 52 0a be dc f5 90 bd b2 6b 06 3e e2 3e a3 bd
       -0.1350794 -0.07078144 0.1312702 -0.07970978
000250 0f a4 11 bd c9 54 7c 3d 0f 0c 5f 3d 3c 3d 37 be
       -0.03555685 0.061604295 0.05445486 -0.17894453
000260 6f 35 7f 3d ce ac 27 3e 94 af 08 3e ab 9c 9d 3b
       0.062306818 0.16374514 0.13348228 0.004809936
000270 90 4f e1 3b 49 45 c2 3d 91 8b 17 3d 62 f9 c8 3d
       0.0068759397 0.09485871 0.036998335 0.09813191
000280 90 ca d2 3c 2b 4e 5a bc 10 00 0c be c9 51 89 3c
       0.025731355 -0.013324301 -0.13671899 0.016762631
000290 21 c0 7c bc 32 d3 c3 3d d3 f3 09 3d b5 04 77 3c
       -0.0154266665 0.09561767 0.033679795 0.015076806
0002a0 3d 03 db 3d e6 43 50 be 2e 2d e5 3d a5 77 79 3d
       0.10693977 -0.20338401 0.11190258 0.060905118
0002b0 f6 ad 90 3e 80 ab b2 bd 73 a8 83 3e 15 cd e8 3c
       0.28257722 -0.08724117 0.25714454 0.028418103
0002c0 2d c4 8c 3c 33 e9 d1 3b fd 94 1b 3e 35 9b f1 3d
       0.017183388 0.0064059733 0.15193553 0.117971815
0002d0 17 6c 71 be a1 13 08 3e dd 8a 9d 3e bf 29 8c be
       -0.23576389 0.13288738 0.30770007 -0.273756
0002e0 7c ac b7 bd 43 a4 e9 3c 9a c9 0c be fd 38 3f bd
       -0.08968446 0.028520709 -0.1374878 -0.046685208
0002f0 4a 2b 53 3d 12 4c 37 bd 30 4f 0e 3d 92 6b ae 3e
       0.051554956 -0.04475028 0.034743488 0.34066445
000300 ab 29 6b 3e bd e2 64 3e 92 58 51 be 8c 95 04 3e
       0.22965114 0.22352119 -0.20443943 0.12947673
000310 29 83 62 ba 2f 00 57 be 1d 54 8b 3e cc 54 49 3d
       -0.000864076 -0.20996164 0.2721261 0.049153134
000320 62 96 7b 3e 5a e4 ad bc 45 8e 76 3e bc 82 4b bc
       0.24569085 -0.02122705 0.24077709 -0.012421306
000330 3e 66 fd 3d 1e f6 03 be 32 a2 28 3d e6 f0 5f be
       0.12373017 -0.12886855 0.041170307 -0.21869239
000340 34 a0 69 bd 4a ad 89 bc 0c 86 d7 3c 55 5c 40 bd
       -0.057037547 -0.016806263 0.026309036 -0.046963055
000350 3c 0c bd bd 4e ed 9c 3d d2 d1 27 3d 69 75 a8 3d
       -0.09230849 0.0766245 0.040971585 0.08225519
000360 f2 8c 8d 3d dc 22 b7 3d ef b3 de 3c d3 59 dd bd
       0.06911649 0.08942196 0.027185408 -0.10808148
000370 ed 92 ae 3d be 2d c9 3b cf 96 0a 3e c9 81 d7 3c
       0.085241176 0.006139486 0.13534091 0.026307004
000380 8c 4d 94 3d 09 2d 0c 3e af 5f d2 3a 5a ba 12 3d
       0.072413534 0.13689055 0.0016050244 0.03582225
000390 c3 b0 10 3e 44 f4 12 be d0 ba fe 3d c9 c8 c1 3c
       0.14129929 -0.14350992 0.124379754 0.023655312
0003a0 25 8b 69 3e 2d 28 d6 bd 5b 6f 62 3e 0a 39 45 3e
       0.22806986 -0.10456882 0.22112791 0.1926004
0003b0 c3 d9 b5 3d cc e5 48 be 46 9c 21 3e 0c 4f 52 3b
       0.088794254 -0.1961891 0.1578227 0.0032090573
0003c0 fa ef 66 bd 04 4d 9a 3e 1e 9c 21 3c 80 29 80 3c
       -0.056381203 0.30136883 0.009863881 0.015644789
0003d0 84 b1 bd bd 94 4c 3d bd b1 ac 5b bd 55 fb 33 be
       -0.09262374 -0.04621561 -0.05363149 -0.17576344
0003e0 af 04 46 3e cb 08 e6 3d 12 f7 be bd c5 14 3e 3d
       0.19337724 0.11232146 -0.09324469 0.046406526
0003f0 d2 75 3c be e3 f5 c5 3d b2 e3 a9 bd 2f f9 e0 3c
       -0.1840432 0.0966604 -0.082953826 0.02746257

onnx::LSTM_94 f4 [1, 256]
000000 0d 89 e6 3d 07 17 ca 3d 7c 5e 4e 3e 16 e5 11 3e
       0.11256609 0.09867673 0.2015323 0.14247546
000010 d4 10 ad bd 87 cc 51 3e d2 56 7e 3e 76 2b 97 bd
       -0.08450475 0.20488177 0.24837807 -0.073813364
000020 36 b4 f6 3d 8b 3e 62 3e a7 3e 9f bd 87 f7 28 3e
       0.12046091 0.22094171 -0.07775622 0.16500674
000030 37 88 31 3e cb 3d 4d 3e a6 88 79 3e 44 55 45 3e
       0.17337118 0.20043103 0.24368533 0.19270808
000040 d5 ea 31 3e b7 a3 07 3e 22 c8 33 3e 4d 47 13 3d
       0.17374738 0.13246046 0.17556813 0.03595667
000050 93 d2 11 3e 20 ab 92 bb 1b 1f 1e 3d ba d5 a8 3d
       0.14240484 -0.004475966 0.038603883 0.0824389
000060 75 f9 7a 3e d5 a2 d4 3d ae ba 82 bd 17 c7 23 3e
       0.24509223 0.1038262 -0.063832626 0.15993915
000070 a5 a0 db bc 2f 50 3d 3e c8 dd 65 3e 04 6f 10 bd
       -0.02681 0.18487619 0.22447884 -0.035262123
000080 c6 ed f9 3d 3c cb 7f 3e c5 fd 6d 3e 32 5e 2c 3e
       0.12203555 0.24979872 0.23241337 0.16832808
000090 8f b9 07 3e 39 5a 14 bd 5a 4b 17 3d a3 5e 28 3e
       0.13254379 -0.036218856 0.036937095 0.16442351
0000a0 10 f3 3d bd 90 42 3c 3e 11 f5 ef 3d 7b a6 12 3e
       -0.04637438 0.18384767 0.117166646 0.1432132
0000b0 a5 7f 7d 3e 14 35 10 3e 1a 09 f2 3d 80 e5 2c 3e
       0.24755724 0.14082748 0.11818142 0.16884422
0000c0 52 c1 85 3c 86 e3 43 3e a1 5b df 3c ca 36 1e bd
       0.016327534 0.19129762 0.027265372 -0.03862647
0000d0 65 8d c6 bd df 60 12 3d d4 50 4c 3e 1b a8 8b bd
       -0.096949376 0.035736915 0.19952708 -0.06819173
0000e0 3b 21 f8 3c 27 7f 56 3e 53 9c ef 3d 69 28 1d 3e
       0.030289283 0.20946942 0.11699738 0.15347447
0000f0 07 0f 06 3e 12 71 9e bd ab 18 f8 3c 16 40 1b bd
       0.1309167 -0.0773641 0.0302852 -0.037902914
000100 15 09 80 3c aa a1 f4 bd 3a 55 12 3e 20 c4 3f 3e
       0.01562933 -0.119448975 0.14290324 0.1872716
000110 63 d5 51 3e 9e 20 c4 3d de 0d d4 3d 2b 17 75 3d
       0.20491557 0.09576534 0.103542075 0.059836548
000120 54 8b 30 bd cc 15 e6 bc 37 72 8c bc 13 da 1a 3c
       -0.043101624 -0.028086565 -0.017144306 0.009451407
000130 10 a5 05 3d 95 a4 0c 3e 39 81 37 3e 6f 0c f7 bd
       0.03262812 0.13734658 0.17920388 -0.120629184
000140 d9 76 2a 3e a4 10 93 bd 03 d8 84 bd d1 99 98 bb
       0.166469 -0.07180908 -0.064865135 -0.004657008
000150 53 29 3a bc 67 d2 1a 3e 79 ac 9d 3d 80 ad 95 b9
       -0.0113623915 0.15119325 0.07698912 -0.00028548762
000160 56 99 91 bd 9d 4f da 3b 38 c2 57 3e 3f 5d c0 3d
       -0.07109325 0.0066623227 0.21070182 0.09392785
000170 69 05 a9 3d 5f 5a 85 3d 56 2d 33 bd 51 37 c2 bd
       0.08252985 0.065113775 -0.043744408 -0.09483207
000180 63 33 61 3d bc bf 02 bc 99 0d 82 bd 7e fe 87 3d
       0.054980647 -0.007980283 -0.0635025 0.066403374
000190 35 8d b1 bd 87 41 09 be 98 ea 1e 3e ff ec 23 3e
       -0.08669511 -0.13403903 0.15519178 0.16008376
0001a0 87 22 66 3e ba 55 ea bd 66 00 3b 3b d0 f1 1f 3e
       0.22474109 -0.11442132 0.0028534173 0.15619588
0001b0 50 a7 8e 3d cb e5 38 be ef b1 c9 3d 24 3f a3 3c
       0.06965506 -0.18056409 0.09848391 0.019927569
0001c0 97 8d 0e 3c cb da 06 3e b2 7d fe 3c 87 e6 67 3d
       0.00870075 0.131694 0.031065796 0.056616332
0001d0 c9 65 18 be cd dd 90 3d 7e 4b 4a 3d c8 f5 54 bd
       -0.14882578 0.07073555 0.0493884 -0.051992208
0001e0 5b 07 a7 3d 4f 84 0b be 93 85 7b bc e8 dd 30 be
       0.081557 -0.1362469 -0.015351671 -0.1727215
0001f0 76 3a cd bd bd a3 8f bd 17 18 02 3e 57 1f a1 3c
       -0.10020916 -0.070136525 0.12704502 0.019668264
000200 09 a4 d4 bc 04 fa 44 3e 69 7c 1e 3e 4d a9 80 3d
       -0.025957124 0.19235998 0.15477146 0.062822916
000210 d1 71 f8 bc 91 08 40 3e dc 38 f2 3d d1 f2 4f 3e
       -0.03032771 0.18753268 0.11827251 0.20307471
000220 fb ae 5a 3e 11 4a b2 3e 84 f5 3f bd 70 19 6d 3c
       0.21355812 0.34822133 -0.046865 0.014471397
000230 07 23 6b 3e e6 c9 98 bd 12 cc fa 3c 77 16 8b bc
       0.2296258 -0.07460384 0.030614886 -0.016978486
000240 03 25 f8 3d 50 01 b4 3d 71 fd 98 3d 7a db f1 bd
       0.121164344 0.08789313 0.07470215 -0.1180944
000250 76 c3 8e bd 4e 3f 68 3e 40 f4 e1 3d 79 d5 c5 bd
       -0.06970875 0.22680399 0.11032915 -0.09659857
000260 5b 18 93 bb c7 3d 1d 3e 50 f7 85 3e eb 5c 31 3e
       -0.0044889874 0.15355597 0.26165247 0.17320602
000270 ae d2 08 3d fb 8a 09 3d a6 38 e6 3d bf 77 10 3e
       0.033404045 0.033579808 0.112412736 0.1410818
000280 d0 ec 64 3d 26 69 7a 3e 34 66 09 bd f6 ec 88 3e
       0.055889904 0.24454173 -0.033544734 0.26743287
000290 71 6c 04 3e 44 32 f7 3d 7f 78 87 3e a3 2d 23 3e
       0.12931992 0.12070134 0.2645912 0.15935378
0002a0 0f 62 1d 3e aa 75 a3 3e ed 6c ad bc 9c bc 4c 3d
       0.15369438 0.31925708 -0.021170104 0.04998456
0002b0 8f 0f ba 3d 6c 54 71 bd 5f a9 32 3e d0 2c 57 3e
       0.09084999 -0.0589184 0.17447422 0.21013188
0002c0 3f 7a e4 3d fd 6f b8 3c cb 7d 83 3e cd b2 8f bd
       0.11156129 0.022514338 0.2568191 -0.070165254
0002d0 ef cb 46 3c 40 6d 11 3d 94 7e 0e 3e 5f c3 cb bd
       0.0121335825 0.03550458 0.13915473 -0.099493735
0002e0 11 68 bf bc 48 e5 42 bd af 3d 5f 3e a4 f1 85 3e
       -0.023365052 -0.04758194 0.21800874 0.2616092
0002f0 5f 50 11 3e fb 61 66 3e 92 c8 43 bd 3d 1f 28 3d
       0.14190815 0.22498314 -0.0477987 0.041045416
000300 5c 75 9d 3c ff 5a 58 bc 03 6c 47 3d ee 29 ca bd
       0.019221 -0.013205289 0.048686992 -0.09871279
000310 ea da cd 3d cc 47 80 3d d3 7f 46 3e a8 98 1d 3e
       0.1005152 0.06263694 0.19384699 0.15390265
000320 08 22 49 3e e5 40 a7 bd c4 c3 ac 3d d9 42 c2 3c
       0.19641888 -0.081666745 0.08435777 0.023713516
000330 9a 39 20 bd 1a 12 15 3e e8 80 a6 bd 15 19 0c bd
       -0.039117433 0.14557686 -0.08130056 -0.034203608
000340 7b d6 ec bd 22 77 d6 3b 48 ae 0d 3d a8 c4 d4 3d
       -0.115643464 0.0065449635 0.034590036 0.10389072
000350 20 8d 89 bd 94 4c 5e 3d fd b9 9d 3d a1 38 36 3e
       -0.067163706 0.05427225 0.0770149 0.1779504
000360 7a a9 b3 3d f3 cb 62 bb 43 65 ae bd cd 04 61 bd
       0.087725595 -0.0034606426 -0.08515408 -0.05493622
000370 a4 20 18 3c 40 a5 03 be 36 30 15 3e d9 6f 90 bd
       0.009285126 -0.12856007 0.14569172 -0.07052583
000380 73 0c a8 bd a7 26 26 3d 62 10 c8 3d 97 9b 2b 3e
       -0.082054995 0.040564205 0.0976875 0.16758572
000390 07 11 9a bd b1 b8 09 be 59 3a ca 3d f7 29 13 3e
       -0.07522779 -0.1344936 0.0987441 0.14371477
0003a0 fe e8 fa 3c 98 46 1d bc da 20 25 3e 09 00 43 3e
       0.030628677 -0.00959935 0.16125813 0.19042982
0003b0 d8 88 a3 3d 02 65 d5 3d 3e a8 10 3e 52 b4 c2 3d
       0.07985085 0.10419656 0.1412668 0.095070496
0003c0 dd 11 c5 bd 8e e2 24 bd 8f e4 b6 bd ed 91 5b 3e
       -0.09622548 -0.040255122 -0.08930313 0.21442385
0003d0 ba dd 62 3d be d9 50 3d c8 cd ab 3d c3 8e 1e be
       0.055387236 0.050988905 0.08388859 -0.15484147
0003e0 61 66 38 3e 2f 60 59 3d 31 1a 03 3c 08 67 89 3d
       0.18007804 0.053070243 0.00800185 0.06709105
0003f0 f3 35 af 3c b3 b2 3c 3e 0b 4c f0 bc 04 8d 0e 3e
       0.02138803 0.18427543 -0.029333135 0.1392098
