Assets/Models/LSTM-45Hz-v1.onnx (onnx, 23325 bytes, 5 tensors)

net.0.weight f4 [3, 32]
00000000: bd1c b7bd d9ea 1b3f c6ae b03c 0b57 233f
00000010: d3fe 25be 0ca6 cdbe e6e0 16be a26b 9cbe
00000020: 11f1 9e3c 233c a1be 1b2e de3e 9a90 7940
00000030: 25dd 22be 68b5 f1be 68a2 8abd aac2 f1bb
00000040: db91 ec3d 0b87 cebe dbfa b3bf 7219 e4bd
00000050: 79d4 15be a226 06bf a957 0740 a858 46bc
00000060: 7d24 bdbd dc97 8b3f 19e6 9bbe f0cf 10bf
00000070: b780 aabd a169 bfbc 7e79 a43c 13a5 1dbb
00000080: 872c da3e 8dd8 3f3f e1b2 b23e ec13 6dbf
00000090: 2bce 143f 3266 5dbd 5435 d33e 2948 ffbe
000000a0: 2570 e23d 3791 f0be edfb aa3e d948 edbf
000000b0: c8d6 c73e 74ae bdbd 3c74 3dbe e1b6 acbc
000000c0: 7ad3 bfbe 1905 bfbd 95ca 4b3f 1da0 ad3d
000000d0: 8c48 113f 14fb 94bc a8f6 ffbf a5aa 9ebc
000000e0: e656 d63e d0c9 613f 4cef aa3e 981d dcbe
000000f0: af64 c33e 4556 dbbd 1a91 473e 90f8 823c
00000100: f860 353e 422e b83e 1634 2e3f 8101 5b3f
00000110: 7bf0 0dbd f25f 2d3c 9112 8b3e bd51 eb3d
00000120: 24f5 02bd cd74 4c3f 2633 903e 0dfe 033f
00000130: 01e2 953e acc9 a63d 6d22 ea3b 21f6 b13b
00000140: 1412 00be 09d4 bc3e 619a 5e3f 6c1e 2c3f
00000150: 2015 113f 2bfd 9e3d 182e 07bf 5848 adbc
00000160: 614f 7cbb 18ad cabe 4e14 49bf 8dfe a03e
00000170: c41e c8be 0502 01bd daf2 35bf 51d9 c1bd
-0.08941028 0.60905224 0.021567713 0.6380469 -0.16210489 -0.40165746 -0.1473423 -0.30550867
0.019402059 -0.31491193 0.4339455 3.8994508 -0.15904672 -0.47208714 -0.06769258 -0.007377942
0.11551257 -0.40337405 -1.406093 -0.11137666 -0.14631833 -0.524027 2.1147254 -0.012106098
-0.09235475 1.0905719 -0.30448988 -0.5656729 -0.08325332 -0.023365797 0.020077463 -0.002405469
0.42612097 0.74939805 0.349021 -0.92608523 0.5812709 -0.05405254 0.41251624 -0.4985974
0.11056546 -0.4698579 0.3339533 -1.8537856 0.39031053 -0.0926179 -0.18501371 -0.021083297
-0.3746603 -0.09327144 0.7960599 0.08477805 0.5675132 -0.01818613 -1.9997149 -0.019368479
0.41863173 0.88198566 0.33385694 -0.42991328 0.38162753 -0.10709814 0.19488946 0.015987664
0.17712772 0.35972792 0.68048227 0.8554917 -0.03465317 0.010581957 0.27162603 0.114902
-0.031972066 0.79865724 0.28164023 0.51559526 0.2927399 0.081439346 0.007145217 0.005430952
-0.12506896 0.3688052 0.86954314 0.6723392 0.5667286 0.07763132 -0.5280471 -0.02115266
-0.0038499462 -0.39585185 -0.7854661 0.31444207 -0.39085972 -0.031496067 -0.7107369 -0.09465278

net.0.bias f4 [3]
00000000: 2a91 b53b e656 f53a f83d e7b9
0.0055409865 0.0018717914 -0.00044105924

onnx::LSTM_91 f4 [1, 128, 9]
00000000: 58dc 86bf e030 283f 8160 24bf 90b2 fabf
00000010: 7101 a23f be38 c8be 0417 333e c862 613e
00000020: 87ed 033d c171 9ebf 73e3 7cbf 4549 15c0
00000030: 3ce3 223f 4437 9c3f 603c ebbf 58be 873f
00000040: eaf0 d23d d3d3 53bf d78e 2c3f 9def 1fbf
00000050: 93d0 6cbf ce21 6d3f fbf6 73bf dfeb 35bf
00000060: 7726 683f b26e 5f3c f8ec 01bf d17c 12be
00000070: 98e2 aa3e 7f0c 01c0 61de 0dbf 14f2 19be
00000080: 3b74 13c0 1dc2 be3d 1755 1fbe 07b3 dabf
00000090: cf6c 8d3f 726f cfbf e3c2 75bf a3ef 013f
000000a0: c272 eabd 8ef8 61bf 94fe 0abe a0d9 f53e
000000b0: 5b8d a33d 50b3 11be 8cbc 8c3f 0c8c c7be
000000c0: d64f 70c0 b546 16bf 9ea8 e0be 7e8b 993f
000000d0: 2077 ef3e 6494 063f a60c a93e ab24 983e
000000e0: d52b 87bf eaa2 103e d160 793e 93f5 3ebf
000000f0: 3d66 1dbf 79ce a63e ba68 cebf 30cb b2be
00000100: a845 f9be 595a a3bf 1bc2 81be ef4d c9be
00000110: 6371 67bf cad8 29bf acb9 de3c b4fc 59bf
00000120: 4ac2 ac3e 9774 dbbc 8ee9 8ebf 87d1 0bbf
00000130: a86b a3be 7998 a2bf ecd8 3dbe 5bd1 86bd
00000140: ceb7 20bf bf52 85bf c7ff 75be c8fa c5bf
00000150: ef90 29bf 6a68 4b3e db1b a5bf e4b6 9fbe
00000160: fb1d 88bf 10a5 45bf 95f4 a2bf 2e68 ac3e
00000170: 3c30 33bf 5be4 03c0 399a 8f3f 9797 19bf
00000180: 453d 833f ccb3 053f 97b4 acbe 730f 833e
00000190: 2dab b93e 2bac 35c0 c37c 14bf 7be2 dcbc
000001a0: fa41 3dc0 8b5c 2f3e 1296 27be 0b8e 04c0
000001b0: a840 833e 6745 fa3d 34bc 94bf 250f adbd
000001c0: 8cbc 3cbe a864 83bf 68a5 babe 8786 353e
000001d0: c6d4 9cbf 16c7 923f 8bc7 bb3e 45b4 6dbf
000001e0: e89c 873f 0b43 f73e 6b08 4ebf 1e3f 823e
000001f0: 91d7 823e 85d2 42be 37ff 2ebf ccaf 00bd
00000200: 1aab 9abf c5f4 13bf d3a5 0dbc d164 a8bf
00000210: 8f81 8cbe 722e 89be 33a7 5bbf 5c8e e8bc
00000220: 32a3 00bd be91 9bbf 1c4e 95be 356d 9dbe
00000230: 978e 77bf c0e0 8fbe 565e 8abe 08d4 3abf
00000240: c80d b2be 5c0c 793e b133 8fbf 1c57 58be
00000250: 54ad a03e 6223 89bf 1ef7 d1be 9be7 8e3e
00000260: fd93 a0bf 0785 f8bf 2ee3 acbe 4676 2fbf
00000270: 6bd5 2bc0 daf6 1ebe 3dc2 4ebf 160f 46be
00000280: d327 9bbe c5e6 ccbd eb96 973e d87a 47be
00000290: 686e 35c0 8bb4 aabe 587b 12bf d075 34c0
000002a0: 21a7 75bd 6baa 75bd b26d 0ac0 ab2f c8bf
000002b0: 5c0b 06bf 0fa4 41bf 34c7 0ac0 a1af 1dbf
000002c0: 9a88 2dbf a991 dd3e 135f f03d d141 2cbe
000002d0: 68a5 b53e 8ebb 8d3d 955f 58bf d6f1 403e
000002e0: 7b1b 0d3d 72e7 2ebf de40 c7be 3cef 573e
000002f0: 3063 e2bf 957f be40 6653 a63f 291f 02bf
00000300: 5211 9740 047c 0b40 26ee c2be 9a95 66bf
00000310: bfc8 0dbf ec66 943e 35d4 e9be 6a3c 2cbe
00000320: 31c3 2cc0 ffee 7a3d 2216 873e bd79 23c0
00000330: 11b7 243e c36a 07be c6b2 0dc0 ad4b 983c
00000340: e120 07bd 8b31 6bbf 4857 aabd 79a9 0ebe
00000350: d5e1 78bf 3fd6 083d 25a5 1dbe f0a8 71bf
00000360: d82b 663f db08 e83e f0ea 67bf 5644 98bf
00000370: f729 24c0 2743 78bf 9f17 4d3e 6aca a53f
00000380: 8e61 e4bd cbf7 723c 705d 18bf d1a6 17c0
00000390: 32c6 a53e 528b efbc 648a 13c0 a1c5 bf3d
000003a0: d057 dd3e 9ade b7bf 3103 5ebe adf5 283e
000003b0: c71e 1cc0 f464 a6be fc59 aa3e 94ce 29c0
000003c0: 3a37 3bbd be69 98be a57d 0ec0 9202 443e
000003d0: 84f8 92bf 59ab 92bf ab2a 71be 0dad 71bf
000003e0: 6ba0 85bf c4cd 80bf d733 9a3d 5ac1 df3e
000003f0: b769 a93f 9fef 9cbf 4967 5fbf e2c3 3c3f
-1.0535994 0.6569958 -0.64209753 -1.9585743 1.265669 -0.3910579 0.17489249 0.22010338
0.032208946 -1.2378465 -0.9878456 -2.332597 0.6362798 1.2204366 -1.83778 1.0604963
0.10299857 -0.82745093 0.67405456 -0.62474996 -0.9250576 0.92629707 -0.9529874 -0.71063036
0.9068369 0.013637232 -0.5075221 -0.14305426 0.33376002 -2.0163877 -0.5541745 -0.15033752
-2.3039691 0.09314368 -0.15559803 -1.7085885 1.1048831 -1.6205885 -0.960005 0.5075628
-0.114476696 -0.8826989 -0.13573676 0.48017597 0.07985946 -0.14228559 1.099504 -0.38974035
-3.7548728 -0.5870164 -0.43878645 1.1995695 0.46770573 0.52570176 0.33017462 0.29715475
-1.0560251 0.14124647 0.24353339 -0.74593467 -0.6148413 0.325794 -1.612571 -0.34920645
-0.48685956 -1.2761947 -0.25343403 -0.3931727 -0.9040739 -0.6634642 0.027188145 -0.8515122
0.3374198 -0.026788993 -1.1165025 -0.5461659 -0.31918073 -1.2702781 -0.1853978 -0.065829
-0.62780464 -1.0415877 -0.24023353 -1.5467157 -0.66236776 0.1986405 -1.2899126 -0.31194222
-1.0634149 -0.7720499 -1.273089 0.33673233 -0.69995475 -2.0608127 1.121894 -0.5999693
1.0253073 0.52227473 -0.3373153 0.25597724 0.3626341 -2.8386333 -0.5800287 -0.026963463
-2.957152 0.17125146 -0.16365841 -2.0711696 0.25635266 0.12220269 -1.1619935 -0.08450154
-0.184313 -1.0265093 -0.3645432 0.177271 -1.2252433 1.1467006 0.36675677 -0.92853194
1.0594759 0.48293337 -0.80481595 0.2543878 0.2555509 -0.1902562 -0.68358177 -0.031417653
-1.2083466 -0.57795364 -0.008645493 -1.3155767 -0.27442595 -0.26793247 -0.85802 -0.028388195
-0.031405635 -1.2153852 -0.29161155 -0.3074738 -0.9670195 -0.28101158 -0.27025098 -0.72979784
-0.3477614 0.24321121 -1.118765 -0.2112698 0.3138224 -1.0713923 -0.41008848 0.27911076
-1.2545162 -1.9415597 -0.33767074 -0.68539846 -2.684901 -0.15523854 -0.80765134 -0.19341692
-0.3030382 -0.10004953 0.2960733 -0.19480455 -2.8348637 -0.33340868 -0.5721946 -2.8196907
-0.05997384 -0.059976976 -2.1629453 -1.5639547 -0.52361083 -0.7564096 -2.1684084 -0.61596113
-0.6778656 0.43275192 0.11736884 -0.16821982 0.35477757 0.06920539 -0.84520847 0.18842253
0.034450036 -0.6832191 -0.38916677 0.21087354 -1.768652 5.953074 1.2994201 -0.50828797
4.7208643 2.1794443 -0.38072318 -0.90072024 -0.5538444 0.28984773 -0.45669714 -0.16819921
-2.6994135 0.06126308 0.26384073 -2.5543053 0.1608546 -0.1322432 -2.2140365 0.018590773
-0.03299034 -0.9187247 -0.08317429 -0.13931836 -0.9721959 0.033407446 -0.15395029 -0.94398403
0.8991065 0.45319256 -0.9059286 -1.1895854 -2.5650613 -0.96977466 0.20028542 1.2952397
-0.111514196 0.014829586 -0.59517574 -2.3695567 0.32377774 -0.029241238 -2.3053217 0.093638666
0.43231058 -1.4364808 -0.21680905 0.16499968 -2.4393785 -0.32498896 0.33271778 -2.6532335
-0.045706965 -0.29768175 -2.2264187 0.19141605 -1.1482091 -1.1458541 -0.23551433 -0.9440468
-1.0439581 -1.0062795 0.07529419 0.43702203 1.3235387 -1.2260627 -0.87266976 0.73736393

onnx::LSTM_92 f4 [1, 128, 32]
00000000: f9c2 4cbe e88b 343f 9bed de3e 567b c0be
00000010: a6bd 263f 9e1a 30be 9dc8 8d3e ec77 4abe
00000020: ca73 1b3f 5e82 033f 0b05 983f 20d3 443f
00000030: 7c5b 933c 54c8 64bf 373d 443e b727 b83e
00000040: 8402 4dbe 41ff a63f dcc2 12be a3ea 07bf
00000050: baa3 ef3e ddf7 2bc0 71ce 213f 6625 05be
00000060: 6e78 3b3f 1510 2d40 e63f 363f 9cf0 c83e
00000070: 6e39 9f3f e0b1 ebbd 193c 76be 7632 373f
00000080: 6024 703f 8ad9 813e e7ad d03e 92d7 83be
00000090: d34b c9be e924 183f 8da4 a03e ed07 803e
000000a0: 024b cc3e eb1a 0f3d c321 7bbe f693 0bbf
000000b0: 35b2 a93d 5aeb b23e 3f22 9e3e 0c0e cf3e
000000c0: feb2 8abe 34f2 1b3f 0022 2f3e f9fe 403e
000000d0: edb0 493e 7661 bdbf d42e 333f 1c9a 35bb
000000e0: ac17 24bf 3756 e83f 4585 a9be d83c d53d
000000f0: 422e 86be 1aff e63e 5566 6bbf 697a c33e
00000100: 1172 883f 2905 353e c371 cf3e acee 70be
00000110: 03a6 b5be ddd6 6ebf 2f7d 6abe f069 be3e
00000120: c98a 853e 68d0 02bf 60b8 f1bc ebdf 2f3d
00000130: 6349 4d3e 894c 6cbe 6ddd 0abe c857 713e
00000140: 14a6 a8be 8e6e cfbe 6352 9dbd e160 46bf
00000150: 10ad 813d 0cac fdbf 1f53 3d3e 35cf 3bbe
00000160: b376 a23e 83e9 173f 7f91 ed3e 766f 67be
00000170: 4091 4cbf d066 4f3e f070 3ebf 8ff0 b53e
00000180: 0af6 31be 6bb9 3d3d 770c 1f3f e4e6 48bd
00000190: 91c1 db3d 4678 d53d 3cad bf3e 7b44 633f
000001a0: ba5f e13e e805 6d3e 6c16 aa3d 8973 e03d
000001b0: 9174 20be 5d24 913e ea93 933e 5a5e f23d
000001c0: 2a98 e6be 532d 823e 1cf1 7d3e 0a4f 12bd
000001d0: 4959 203f 7708 693f 8217 333e c3eb 0abd
000001e0: 1fda ae3d c5de 24bf 4a64 9ebe 74c6 813e
000001f0: ea41 8a3e f3da cabb bb6f 11bf d69c 3b3f
00000200: 444f 563e 0dcc e63e cd80 2c3f 2725 86be
00000210: 5afe 353f e240 99be 3c0f 693e 7b70 2a3e
00000220: 468e b8bc 80d2 723e 58e8 d6bc f585 c53d
00000230: 0db2 66bd 7168 073e e1ee ba3d f00f d8bd
00000240: b536 7f3d d218 5ebd 6ecd 8dbd 82f5 3c3e
00000250: 2b11 7b3e e889 493f 9c18 0d3e 8537 68bd
00000260: 792a bc3e 8d19 0dbf 76f6 4fbe 3967 1ebe
00000270: 8e15 8c3f 83c8 e2bd 117d e0be e5d3 453d
00000280: d1bb c33f 5937 283f 5784 4d3f 890b 5f3e
00000290: 1772 7ebf c4e4 58bf f103 e03e 0a35 25be
000002a0: 54be 0f3f 8774 72be 293c ca3d 8949 f73e
000002b0: 9ffe 083d f9a4 3d3f 75e6 943e a84c 703e
000002c0: 1eae c4be 4394 263f a2b7 973e adf7 15bf
000002d0: 72d2 4b3f 811a 6ec0 0329 f23e fbd8 1dbe
000002e0: 786a 3f3f 61b5 0640 cb7d 7bbe c5bd c0bf
000002f0: 65ef 9cbf b23b d83e e5fb 94bf de19 3c3f
00000300: 344f c63e 0c89 9a3e b797 e23d 86f4 81be
00000310: 1e70 1bbd 034a 863e 7a22 cb3d c7bc ff3d
00000320: 2298 983e e298 be3c 1886 23be 2b9f b0be
00000330: 807c 393e e936 19bc fc5b a8bd e463 7bbd
00000340: 8029 48be ca8f d13d d4a4 aa3e d737 d7bc
00000350: af7c 233e dbfb 383e 0059 8d3e 3825 f5bd
00000360: 8bb4 42bd 9fc8 c73d 8b41 57be ca43 013e
00000370: a816 f43d 1a71 4bbe 6b22 b2be 673e 073d
00000380: dce0 353f 614c 123e cc16 ea3e e2f2 a0be
00000390: a093 74be d864 1b3d ab54 e7bd c8f3 56bc
000003a0: 9243 123d 2b99 f6be 7ba3 acbe fd44 013b
000003b0: 8542 ae3e ed4d 4bbe 10ec 9ebe 88e7 803e
000003c0: 8ccf 87be 21ec 7b3c 41c0 90be b618 a33e
000003d0: fb7e 27be ba42 d9be 6297 903e d5c0 d73d
000003e0: ec09 77be e2fb db3e 745b 8e3e d089 c0bb
000003f0: a74a a9bd ee0a 473e 35cd babe 6228 0e3e
-0.19996251 0.7052598 0.43540654 -0.37594098 0.6513313 -0.17197654 0.27692118 -0.19772309
0.60723555 0.513708 1.1876539 0.7688465 0.01798796 -0.89368176 0.19163977 0.359678
-0.20020491 1.3046647 -0.14332145 -0.530924 0.468046 -2.6870034 0.6320563 -0.13002548
0.73230636 2.7041066 0.7119125 0.3924607 1.2439401 -0.11508536 -0.24046363 0.7156137
0.93805504 0.25361282 0.40757677 -0.25750405 -0.39315662 0.5943132 0.31375542 0.25006047
0.39900976 0.03493778 -0.24524598 -0.54522645 0.082859434 0.34945184 0.30885503 0.40440404
-0.27089685 0.6091645 0.17102814 0.18847264 0.19696398 -1.4795368 0.6999333 -0.0027710265
-0.6409862 1.8151311 -0.3310949 0.10411996 -0.26207167 0.45116502 -0.9195302 0.3817933
1.065981 0.1767775 0.4051648 -0.23528546 -0.3547822 -0.93296605 -0.22899316 0.371902
0.26082447 -0.5109925 -0.029506862 0.042938154 0.20047526 -0.23076071 -0.1356103 0.23568642
-0.32939208 -0.40514034 -0.0768173 -0.77491575 0.06331837 -1.981813 0.1848874 -0.18340762
0.31731185 0.59340686 0.46400067 -0.22601113 -0.79909134 0.20254064 -0.7439108 0.35535094
-0.17379013 0.046319406 0.62128395 -0.04904832 0.10730279 0.10423331 0.37436855 0.8877637
0.44018346 0.23146784 0.08305058 0.109595366 -0.15669467 0.28348055 0.28823787 0.118344024
-0.45037967 0.25425205 0.24799007 -0.03571991 0.6263624 0.9102854 0.17489436 -0.033916246
0.08537697 -0.6440242 -0.3093589 0.2534672 0.27003413 -0.0061906516 -0.5681111 0.7328619
0.20928675 0.45077553 0.67384034 -0.2620022 0.71091235 -0.29932314 0.22759718 0.1664447
-0.022528779 0.23713112 -0.026233837 0.09644691 -0.056322146 0.13223435 0.09127594 -0.10549915
0.062308032 -0.05422289 -0.06923948 0.18453029 0.24518268 0.78726053 0.13778919 -0.056693573
0.36751154 -0.5511711 -0.20308861 -0.15469064 1.0944078 -0.11073401 -0.43845418 0.04829778
1.5291692 0.65709454 0.8028006 0.21781744 -0.9939284 -0.8472407 0.43753007 -0.16133514
0.5614979 -0.23677264 0.09874756 0.4829829 0.03344595 0.74079853 0.29082075 0.23466742
-0.3841409 0.6506998 0.29632288 -0.5858105 0.7961799 -3.7203677 0.47296914 -0.15414803
0.74771833 2.1048205 -0.24559705 -1.5057913 -1.2260557 0.42233044 -1.1639372 0.7347697
0.38732302 0.30182683 0.110640936 -0.2538187 -0.03794872 0.2622834 0.09918685 0.12487178
0.29803568 0.02326626 -0.15969121 -0.34496436 0.18113899 -0.0093514705 -0.082206696 -0.06137456
-0.19547081 0.10232504 0.3332888 -0.026271744 0.15965532 0.18064825 0.27606964 -0.119699895
-0.04753546 0.09755062 -0.21021096 0.12623516 0.11918384 -0.19867364 -0.34791884 0.033018496
0.71046233 0.14286949 0.45720518 -0.31435305 -0.2388444 0.03793797 -0.11295446 -0.013119645
0.03570897 -0.48163733 -0.33718476 0.0019724958 0.34035125 -0.19853945 -0.31039476 0.25176644
-0.26525533 0.015376122 -0.28271678 0.3185479 -0.16357033 -0.4243372 0.28240496 0.10534827
-0.24124879 0.4296561 0.27804148 -0.0058758035 -0.08266192 0.19437763 -0.36484686 0.13882592

onnx::LSTM_93 f4 [1, 256]
00000000: 00c4 00be a5c3 c9bf dea3 1abf ea1e 02c0
00000010: d350 26bf 02bd b2bd 9877 50bf 5bd2 36bf
00000020: d55d 66bf 396f 84bf 6ac8 1abf 2edc 2fc0
00000030: 5da5 80bf 5491 1dbf 2903 8abf c20f 91bf
00000040: 8362 88bf aec2 27bf 7d98 1ac0 49fb cfbe
00000050: 0522 23bf cb5d d1be d939 31c0 116d 67bf
00000060: f7cf debe 00a6 f7bf 96f9 1dc0 7e5c 24bf
00000070: 2961 03bf b24b 95bf e4d3 21bf bda4 75bf
00000080: ad0a ddbe a138 a7bd 2536 41bf 3708 da3e
00000090: 41bd 4abf 56e4 21bf cf36 6ebf 612d 60bf
000000a0: 839a 8abf 3af0 f9be bcb9 05bf 85f9 a63f
000000b0: 8c63 56bf 5f55 57bf 7f39 96bf 62e3 88bf
000000c0: 67d1 75bf 6198 00bf 8eb8 43bf 0091 57bf
000000d0: 5e68 1cbf 4cc3 2abf e805 6f3f ffc9 91bf
000000e0: c1a2 1dbf d7ad 803e 0832 5a3f 355d 09bf
000000f0: 53d9 67bf 9f21 a2bf 658c 4dbf d526 65bf
00000100: 7550 d0bf 2ba5 393e d653 96bf 0324 1a3f
00000110: 9694 01bf 7c34 b3be afa9 ebbe 5345 63bf
00000120: dbd6 3abf 5baa f83d 3757 83bf df7d c43f
00000130: 12d9 b3be 9d5b 08bf 6dc6 e0be cf13 65bf
00000140: 57a9 16bf dcea d2bf e7d8 863f 051d c8bf
00000150: ed96 98be c3da 11bf 0cc7 943f 29bc 1bbf
00000160: b479 cabf 6f0a 813f ae80 863f 1100 afbf
00000170: f03f c4bf 8150 64bf f55d 68be e007 08bf
00000180: df02 f33d 75eb 073e a3b2 bf3d bbc4 8dbd
00000190: 2dde 833e 102b 33be 5154 953d 3124 d93c
000001a0: db3f 383d 0a14 0fbd a02c 043e 49c3 ebbd
000001b0: 69b2 b03d 0238 a0be ff9b 1a3d 4b87 9fbc
000001c0: 341b e9bc 6219 303d 2d19 10be f75d 1dbe
000001d0: 97a6 e03e 1850 053e 7878 eebd a09c 25be
000001e0: 3417 0c3e a814 3c3d c6ca c8bd 5a45 b03d
000001f0: ef5e a03e a8f2 c0bd ee71 65bb 4781 973c
00000200: 261e 2cbe dd74 cdbf adab 13bf 8e59 06c0
00000210: 4699 59bf 57a1 39be 7e62 83bf b6f7 4cbf
00000220: f73f 94bf 097b 86bf fdc6 fbbe 3a1e 36c0
00000230: c558 82bf f2c7 22bf 445a 8bbf 2aa2 7fbf
00000240: 1dc4 3dbf 2f2c 20bf b029 11c0 9d95 05bf
00000250: 97a8 12bf c717 2ebe 9cff 27c0 a122 94bf
00000260: a60b 04bf 2e2d f7bf 4e01 24c0 66b9 1cbf
00000270: 17bc 3dbf 76f4 83bf b814 29bf 0c19 79bf
00000280: 3e73 b7be 3e5e 8c3a 7c13 4cbf 2dc1 293e
00000290: 5735 28bf c5bd ebbe 6cfc 46bf 91bb 80bf
000002a0: 4af6 88bf 105e 86be 2c47 27bf cdf4 af3f
000002b0: 9f61 6dbf 4273 3ebf d89f 6abf ae8e a0bf
000002c0: ca9b 50bf 333f 12bf ed30 4bbf 7855 2fbf
000002d0: 0230 35bf 9bcb dabe b0f0 513f 591d 73bf
000002e0: 016c 1bbf 9c65 d63e fc76 493f 9259 0cbf
000002f0: 59ee 1bbf 8f9b 9ebf c0a0 80bf 05ba 6dbf
00000300: 676d d9bf 3620 a63e dc9b a4bf 186a 213f
00000310: 5829 82be 5714 18be 549f 10bf 2741 37bf
00000320: 47d3 13bf 1545 1d3e 4eb5 97bf 32f8 ba3f
00000330: 86f9 0ebf 873e 0cbf d42c a4be a504 22bf
00000340: 0a1b 56bf a66d c5bf e4c2 8c3f 733b c4bf
00000350: 7e7e c5be b437 3ebf 6ec8 a03f 0618 0fbf
00000360: 6bed c9bf 248a 883f 682c 923f 2b4e bbbf
00000370: 1860 bebf b312 3ebf 7a30 9abe dd1b ddbe
00000380: 3805 1abe 6db0 923c a032 4c3d 9dc5 a63d
00000390: db16 ed3d 44ea 26be 2c58 9f3e e8f5 d03d
000003a0: 85d3 5ebd 4239 91bd 0b92 4a3e 9f92 90bd
000003b0: 6551 093e c74a e2be 71e7 0d3c febe 2bbd
000003c0: ec92 b3bd b7f3 95bd fcd2 3c3e f066 3ebb
000003d0: 0136 533e 4277 f1bd bb61 cd3d 4b93 abbd
000003e0: 4455 e3bd c447 dabc c42b 92bd 1e2d febd
000003f0: 17ff 08bd 7ae9 7dbd c474 393e aae9 b23b
-0.12574768 -1.5762831 -0.6040629 -2.0331368 -0.6496708 -0.08727457 -0.81432486 -0.71414727
-0.89986926 -1.0346442 -0.6046206 -2.7478137 -1.0050465 -0.6154988 -1.0782214 -1.1332934
-1.0655063 -0.6553143 -2.4155571 -0.40621403 -0.63723785 -0.4089187 -2.7691557 -0.904008
-0.4351804 -1.9347534 -2.4683585 -0.6420363 -0.5132013 -1.1663725 -0.63213944 -0.95954496
-0.43172207 -0.08165098 -0.75473243 0.42584392 -0.7919503 -0.6323904 -0.9305238 -0.8756924
-1.0828403 -0.4881609 -0.52236533 1.3044897 -0.83745646 -0.8411464 -1.1736296 -1.0694392
-0.9602265 -0.5023251 -0.76453483 -0.8420563 -0.6109675 -0.6670425 0.9336839 -1.1389769
-0.6157647 0.2513263 0.8523259 -0.5365785 -0.90565985 -1.266651 -0.8029235 -0.8951238
-1.6274554 0.18129413 -1.1744335 0.602112 -0.5061735 -0.3500098 -0.46027896 -0.88777655
-0.72984093 0.12141868 -1.0260991 1.5350913 -0.3512655 -0.5326479 -0.43901387 -0.8948335
-0.5885214 -1.6477923 1.0534943 -1.5633856 -0.29802647 -0.5697443 1.1623244 -0.60833985
-1.5818391 1.0081309 1.050802 -1.3671895 -1.5332012 -0.8918534 -0.22692092 -0.53137016
0.11865782 0.13273413 0.09360244 -0.06922289 0.25755444 -0.17496896 0.07291473 0.026506515
0.044982772 -0.03493122 0.12907648 -0.11511857 0.08627779 -0.3129273 0.037746426 -0.019473692
-0.028455354 0.042992957 -0.14072104 -0.15367876 0.43877098 0.13018835 -0.11644071 -0.16173029
0.13680726 0.045918137 -0.09804301 0.08606978 0.3132243 -0.09421283 -0.0035010534 0.018494261
-0.16808376 -1.6051289 -0.5768383 -2.099216 -0.849995 -0.18127953 -1.0264432 -0.80065477
-1.158202 -1.0506297 -0.49175254 -2.845595 -1.018334 -0.6358634 -1.0886922 -0.9985682
-0.7412737 -0.6256742 -2.2681694 -0.52181417 -0.572885 -0.17001258 -2.6249762 -1.1573068
-0.51580274 -1.9310663 -2.5625796 -0.61220396 -0.7411513 -1.0308979 -0.6604724 -0.97303843
-0.3583011 0.0010709239 -0.7971723 0.16577597 -0.6570639 -0.4604322 -0.77728915 -1.0057241
-1.0700161 -0.2624364 -0.65342975 1.3746582 -0.9272708 -0.7439462 -0.9165015 -1.2543542
-0.81487715 -0.57127684 -0.7937153 -0.6848979 -0.7077638 -0.42733464 0.82007885 -0.94966656
-0.60711676 0.41874397 0.7869718 -0.54824173 -0.60910565 -1.2391223 -1.0049057 -0.9286197
-1.6986512 0.3244645 -1.2860065 0.6305251 -0.25422168 -0.14851509 -0.56493115 -0.7158379
-0.5774426 0.15358384 -1.1852205 1.4606993 -0.5584949 -0.5478291 -0.3206545 -0.63288337
-0.8363501 -1.5424087 1.0996976 -1.5330642 -0.38573068 -0.74303746 1.2561166 -0.5589603
-1.5775579 1.0667157 1.1419802 -1.463323 -1.4873075 -0.7424728 -0.3011511 -0.4318532
-0.15041053 0.017906392 0.049852967 0.081431605 0.11576625 -0.16300303 0.31121957 0.10203153
-0.05440094 -0.07090999 0.19782273 -0.07059216 0.13409956 -0.44197676 0.008661137 -0.04193019
-0.087682575 -0.073218755 0.18439859 -0.0029053055 0.2062607 -0.11790325 0.10028406 -0.08377703
-0.111002475 -0.026645549 -0.07137254 -0.12410949 -0.033446398 -0.06199024 0.18110949 0.005459984
