Assets/Models/MLP-90Hz-Delta-WithZ-v1.onnx (onnx, 4007 bytes, 6 tensors)

net.0.bias f4 [16]
0	0xbe7e46ea	-0.24831739
1	0xbdc1d41d	-0.094642855
2	0xbe5876c7	-0.2113906
3	0xbe77e06f	-0.24206708
4	0x3e5237a8	0.20529044
5	0x3c83e928	0.016102389
6	0x3e2c456c	0.16823357
7	0xbe971011	-0.29504445
8	0x3c67d608	0.01415015
9	0x3dfb5541	0.1227212
10	0x3da1699e	0.07881473
11	0x3e2bad7e	0.16765401
12	0xbe7c95da	-0.24666539
13	0x3ca0b8a8	0.019619301
14	0xbe3a8375	-0.1821421
15	0x3e45f1d0	0.19330525

net.2.bias f4 [16]
0	0x3e5c8e52	0.21538666
1	0xbe0b6c14	-0.13615447
2	0x3d7ae32b	0.0612518
3	0x3e185114	0.14874679
4	0xbe43c3de	-0.19117686
5	0x3d5fa655	0.054601986
6	0xbdbf241b	-0.093330584
7	0xbe561000	-0.20904541
8	0x3d885e99	0.06658668
9	0xbd7d7866	-0.0618824
10	0x3d9c2884	0.07624915
11	0xbe1c6b7e	-0.1527538
12	0x3dd72c20	0.10506463
13	0x3daf6ad6	0.08565299
14	0x3d2b6fd6	0.041854702
15	0xbe5ad522	-0.21370366

net.4.bias f4 [3]
0	0x3d64a75a	0.05582366
1	0x3d86859c	0.06568453
2	0x3d0218af	0.03176182

onnx::MatMul_18 f4 [27, 16]
0	0xbe078e0b	-0.13237779
1	0x3ccbd9bf	0.024884103
2	0xbe3674dc	-0.17818016
3	0xbcf6405e	-0.03005999
4	0xbc7f2e7c	-0.015575048
5	0xbd6ce495	-0.05783518
6	0xbb921234	-0.0044577364
7	0xbc8fe2f6	-0.017564278
8	0x3d8ebe2f	0.069698684
9	0xba0982fa	-0.0005245652
10	0xbcf2df34	-0.029647447
11	0x3c364ac4	0.011126224
12	0xbdd67975	-0.10472385
13	0x3a0e2ea8	0.00054238224
14	0x3c99aa49	0.018757956
15	0xbc3fbcb8	-0.011702709
16	0xbd8c8e03	-0.06863024
17	0xbcb6f8d9	-0.022335457
18	0x3ce7ed67	0.028311444
19	0x3d80de42	0.06292392
20	0xbb00418f	-0.0019570326
21	0x3af4f2f6	0.0018688131
22	0x3c5865ba	0.013207847
23	0x3dd3aaab	0.10335287
24	0x39a25fc4	0.000309704
25	0xbc0c0bbb	-0.008547719
26	0x3bd337cd	0.006445861
27	0xbbd6e258	-0.006557744
28	0xbd1cb949	-0.03826264
29	0x3ce2c81b	0.027683308
30	0x3d468c2f	0.048473533
31	0x3b082de5	0.0020779308
32	0x3c480233	0.012207556
33	0xbd2415f3	-0.040059995
34	0xbc84d085	-0.016212711
35	0x3b788454	0.003792067
36	0xbccb7c01	-0.024839403
37	0xbd140b30	-0.03614348
38	0xbd205fbd	-0.039153803
39	0x3d794a0a	0.060861625
40	0xbd43859c	-0.04773484
41	0xbc1144cc	-0.0088665
42	0xbbfc7823	-0.007704751
43	0xbd04963d	-0.03236984
44	0xbc97b71f	-0.018519936
45	0xbc4a93bf	-0.012364327
46	0xbcca8277	-0.024720414
47	0xbbbc69be	-0.00574991
48	0x3d38895c	0.04505287
49	0xbd4924bf	-0.04910731
50	0x3e020e97	0.12700878
51	0xbdd1492d	-0.10219035
52	0x3c8a0854	0.016849674
53	0xbdd4f4b1	-0.10398234
54	0x3c74883e	0.014925061
55	0xbe192826	-0.14956722
56	0x3c9cbf42	0.019134168
57	0xbc9b0228	-0.018921927
58	0xbb730483	-0.0037081547
59	0x3c3b9e3e	0.011451302
60	0x3e1a9ceb	0.15098922
61	0xb9e6e832	-0.00044042018
62	0x3c6c379c	0.014417555
63	0x39a9bb68	0.0003237382
64	0xbd2ca407	-0.042148616
65	0x3d0730e4	0.03300561
66	0xbd29e956	-0.041482292
67	0x3d0c1e32	0.034208484
68	0x3c0ed419	0.00871756
69	0x3cf8ec0d	0.030385995
70	0x3c8aa34f	0.016923575
71	0xbd891bf3	-0.06694784
72	0xbc9df421	-0.019281449
73	0x3c30c3f9	0.010788911
74	0x3c355961	0.011068673
75	0x3d1df2e8	0.03856173
76	0x3d478ba1	0.048717145
77	0xbceb7a93	-0.028744971
78	0xbce3ec3d	-0.027822608
79	0x3c2cf33c	0.0105560385
80	0x3cefa8c9	0.029255288
81	0xbcbb2fba	-0.022849906
82	0x3d1e03ad	0.038577724
83	0x3cf686f8	0.030093655
84	0x3c301180	0.01074636
85	0xbc966932	-0.018360708
86	0x3beb3597	0.0071780193
87	0x3ccb8774	0.024844863
88	0xba23af61	-0.000624409
89	0xbc39d444	-0.011342112
90	0xbb6ff285	-0.0036613059
91	0x3bb0af6f	0.005392007
92	0xbdadd674	-0.08488169
93	0xbc841f84	-0.01612831
94	0x3d894e1a	0.0670435
95	0xba921eb4	-0.0011148066
96	0x3e12f07f	0.14349554
97	0xbd8d8ad6	-0.069112465
98	0x3d95f31d	0.07321761
99	0x3bab2678	0.0052230917
100	0x3ea96f97	0.3309295
101	0x3f19fa1d	0.6014727
102	0xbf7cb795	-0.98717624
103	0xbe0444e0	-0.12916899
104	0xbf12da65	-0.57364494
105	0x3e296826	0.16543636
106	0xbfdc5d95	-1.7216059
107	0x3f86ec80	1.0540924
108	0xbcf35cd6	-0.029707354
109	0x4031880f	2.7739294
110	0xbe359bbe	-0.17735192
111	0xbe176fbc	-0.14788717
112	0xbdb26df4	-0.08712378
113	0x3fa021f5	1.2510363
114	0x3dc6a60f	0.09699642
115	0xbe157a7c	-0.14597505
116	0x3f73c9df	0.95229906
117	0xbf0741f2	-0.52835
118	0x3fa94dbb	1.3226846
119	0xbc019df6	-0.007911196
120	0x3fb12c4d	1.3841645
121	0x3fc6d1d5	1.5532786
122	0xbef7093d	-0.48249236
123	0x3e83a365	0.25710598
124	0xbe0ca301	-0.13734056
125	0x3f1947cd	0.59875184
126	0x3d976870	0.07392967
127	0xbf9cb0f2	-1.22415
128	0xbd513d9c	-0.051084146
129	0x3fda49a8	1.7053728
130	0x3e62f689	0.22164358
131	0xbe266ee5	-0.1625324
132	0x3f8b8c37	1.0902165
133	0x3ebd3f6c	0.3696245
134	0x3fe400b3	1.7812713
135	0x3c8f77b5	0.017513135
136	0x3e7b9573	0.24568729
137	0x3f8b4fb7	1.0883702
138	0xbfd7ba67	-1.685376
139	0x3f0bd981	0.5462876
140	0x3d8dcf89	0.0692435
141	0xbf55c888	-0.8350911
142	0xbd9c4a0e	-0.07631312
143	0x3fddd55b	1.7330736
144	0x3cb709a8	0.022343472
145	0xbcf4de08	-0.029891029
146	0x3d78506e	0.06062358
147	0xbe058224	-0.13037926
148	0xbca9c7fb	-0.02072524
149	0xbd082b74	-0.033244565
150	0x3beda2ca	0.007252072
151	0x3dfa3841	0.12217761
152	0x3de978e8	0.11400014
153	0x3d2d24d8	0.042271465
154	0xbd16d2b4	-0.036822036
155	0x3d2c20eb	0.04202358
156	0x3d740301	0.059573177
157	0x3b9bc867	0.0047541144
158	0xbd09b350	-0.03361827
159	0xbb427fa7	-0.0029678138
160	0xbd22fe87	-0.039793517
161	0xbbfcf525	-0.007719653
162	0x3d5ad2a2	0.05342353
163	0xbd198e91	-0.037489478
164	0x3c876c2b	0.01653107
165	0xbc55d594	-0.013051409
166	0x3d133723	0.035941254
167	0x3d2af65b	0.04173885
168	0x3cbee2d4	0.02330152
169	0x3d945f0d	0.07244692
170	0x3c8417ba	0.016124595
171	0x3d719d71	0.05898804
172	0xbe2bb347	-0.16767608
173	0x3b4a802c	0.003089915
174	0xbcf37385	-0.02971817
175	0x3c579857	0.013158879
176	0x3d8aca90	0.06776917
177	0xbd1b0c86	-0.03785374
178	0xbce93c41	-0.028471114
179	0xbac1df8d	-0.0014791355
180	0xbb23fc17	-0.0025022083
181	0xbd1124ca	-0.035435475
182	0xbc171780	-0.009221911
183	0xbc8d0448	-0.017213956
184	0xbcf0e2d8	-0.029405043
185	0xbc18fd7e	-0.009337781
186	0xbc013875	-0.007886996
187	0xbc8970fa	-0.016777504
188	0xbd0a13e7	-0.033710387
189	0xbc2347fc	-0.009965893
190	0xbd6debbe	-0.05808615
191	0xbbbccf40	-0.005762011
192	0xbdc9847b	-0.09839722
193	0x3a8aa062	0.0010576362
194	0x3d143678	0.036184758
195	0xbdb6b13b	-0.08920523
196	0x3d104cac	0.03522937
197	0xbd9a8f2c	-0.07546839
198	0x3d2109ee	0.03931611
199	0xbde508cb	-0.11183318
200	0x3cfc7831	0.03081903
201	0x3c1bc287	0.009506828
202	0x3c0faceb	0.008769254
203	0x3d071ba4	0.032985345
204	0x3cff20fa	0.031143654
205	0xbba8e645	-0.0051544034
206	0xbd005c20	-0.031337857
207	0x3b9be893	0.0047579496
208	0x3e301ed2	0.17199257
209	0x3dffeee1	0.124967344
210	0x3d333f8b	0.04376177
211	0xbd9bfd32	-0.076166525
212	0xbc14ff69	-0.009094098
213	0x3d456cc5	0.048199434
214	0x3ca208a7	0.019779516
215	0xbd996359	-0.07489652
216	0x3d34982f	0.044090446
217	0x3bb196a6	0.00541957
218	0xbccbc326	-0.024873327
219	0x3d1b87a6	0.03797116
220	0x3e229375	0.15876563
221	0x3ca98e53	0.020697748
222	0x3ceb675f	0.028735815
223	0xbb1c2add	-0.002382926
224	0x3d84f7e8	0.06492597
225	0x3caf4339	0.021394359
226	0x3d830638	0.063976705
227	0xbc21da02	-0.009878637
228	0x3bc2bf03	0.0059431805
229	0x3ac89f28	0.0015306221
230	0x3aca0f75	0.0015415984
231	0x3d9a6a2b	0.07539781
232	0xbc1e3159	-0.00965532
233	0xbcd9a39f	-0.026567278
234	0xbb875241	-0.0041296785
235	0xbc539df1	-0.012916074
236	0x3b2f7012	0.002676968
237	0xbc11bbff	-0.008894919
238	0x3d96d8be	0.07365559
239	0x3ae1d7fe	0.0017230508
240	0xbe3ed650	-0.18636441
241	0x3f387aa3	0.7206213
242	0x3e211310	0.15729928
243	0xbd095775	-0.03353067
244	0xbf96a390	-1.1768665
245	0xbf95b585	-1.169602
246	0x3f90be34	1.1308045
247	0x3ced64d3	0.02897874
248	0x3f34f5ee	0.7068776
249	0xbe1254e1	-0.14290191
250	0x3d3e5078	0.04646346
251	0xbf32837b	-0.69731873
252	0x3d9829e3	0.07429864
253	0x3cca92b5	0.024728158
254	0xbe38f813	-0.18063383
255	0xbe9bc96c	-0.3042711

onnx::MatMul_19 f4 [16, 16]
0	0xbd9ec057	-0.0775153
1	0xbe46e5ec	-0.19423646
2	0x3e280661	0.16408683
3	0xbd601a47	-0.05471256
4	0x3df06300	0.11737633
5	0xbd5e520b	-0.05427746
6	0x3e2e9948	0.1705066
7	0x3e01f48a	0.1269094
8	0x3e2363a4	0.15955979
9	0xbd974bec	-0.07387528
10	0xbdb37780	-0.08763027
11	0x3e692cbc	0.22770971
12	0xbc866ca6	-0.01640923
13	0xbe386382	-0.18006709
14	0x3d35bafd	0.04436778
15	0xbe634948	-0.22195923
16	0xbdc43af5	-0.09581558
17	0x3d79b4a9	0.060963307
18	0xbe5f6b31	-0.21818234
19	0xbd91a459	-0.07111425
20	0x3e0e1ffe	0.13879392
21	0xbe8b5c17	-0.27218696
22	0xbe8f91ce	-0.28040928
23	0x3df4b810	0.1194917
24	0xbd96fd04	-0.07372478
25	0xbdda1c04	-0.10649875
26	0xbd2688d7	-0.040657844
27	0xbd38c7f8	-0.04511258
28	0x3dfcd3c0	0.123450756
29	0xbf5fe223	-0.8745443
30	0x3ef73ed3	0.4829012
31	0xbe70d92a	-0.23520342
32	0x3dd8f4cd	0.10593567
33	0xbdeaf1b5	-0.11471883
34	0x3e91349a	0.28360444
35	0x3e2f9f3a	0.17150584
36	0xbd03beb8	-0.032164305
37	0x3de5b083	0.112153076
38	0xbc7135dc	-0.014722314
39	0xbde18da8	-0.11013347
40	0xbd9b5925	-0.07585362
41	0x3d405d8e	0.04696422
42	0x3e26575a	0.1624426
43	0x3e429748	0.19003022
44	0xbe0993b9	-0.13435258
45	0xbdad68f5	-0.084672846
46	0x3d4bf2ec	0.049792215
47	0xbe281454	-0.16414005
48	0x3de947e1	0.11390663
49	0xbddf03bc	-0.10889384
50	0x3df83960	0.121203184
51	0x3e339091	0.17535616
52	0xbdbc8684	-0.09205344
53	0xbe278119	-0.1635784
54	0xbe538e56	-0.20659766
55	0x3e0d8a5c	0.13822311
56	0xbd9c8adc	-0.07643673
57	0xbe56b5b3	-0.2096775
58	0xbdcf1f90	-0.10113442
59	0xbdbbe9bc	-0.09175441
60	0x3d01f4a3	0.031727444
61	0xbd8a455e	-0.06751512
62	0x3e3334d3	0.1750062
63	0x3d14fb98	0.03637275
64	0x3e6f274e	0.23354837
65	0x3e38962b	0.18026035
66	0xbddf48e6	-0.10902576
67	0xbe15fe74	-0.14647847
68	0x3d21ed80	0.03953314
69	0xbd59c3eb	-0.053165358
70	0xbd805820	-0.062668085
71	0xbe32f3f4	-0.17475873
72	0x3ee00728	0.4375546
73	0x3e8e58fb	0.27802262
74	0x3da230a0	0.07919431
75	0x3d01f038	0.03172323
76	0x3ebc9604	0.36833203
77	0xbf24b91d	-0.6434496
78	0x3dd65b37	0.104666166
79	0xbe2e7436	-0.17036518
80	0x3dfc0c52	0.123070374
81	0xbe4e061f	-0.20119523
82	0x3d07cf9d	0.03315698
83	0x3e239cf7	0.15977846
84	0xbe5077ce	-0.20358202
85	0xbced294e	-0.02895036
86	0x3e0de28b	0.1385595
87	0xbb8e1e00	-0.0043370724
88	0xbde7fe66	-0.113278195
89	0xbe01dd1a	-0.12682
90	0x3e48e3ba	0.19618121
91	0x3e7b61f4	0.24549085
92	0xbd7c15ae	-0.061544113
93	0xbebe4746	-0.37163752
94	0xbe7fa0da	-0.24963704
95	0x3d5e8e18	0.05433473
96	0xbe8c725e	-0.27431005
97	0xbe277cf4	-0.1635626
98	0xbe8dccf6	-0.27695435
99	0x3e9411ab	0.2891973
100	0xbe065724	-0.13119179
101	0xbe568453	-0.20948915
102	0x3dd82c07	0.105552725
103	0xbcefa760	-0.029254615
104	0xbce9284d	-0.0284616
105	0x3ae361b1	0.001734784
106	0xbe9c439b	-0.3052033
107	0xbe270080	-0.16308784
108	0xbe1ceb92	-0.15324238
109	0xbe9c3a59	-0.30513266
110	0x3d3e0576	0.046391927
111	0x3ce5a400	0.028032303
112	0xbc7bfde0	-0.015380353
113	0xbdfa5e44	-0.12225011
114	0x3bad62e8	0.0052913316
115	0xbe0a51ce	-0.13507769
116	0xbe31ed30	-0.17375636
117	0xbdbbd6e6	-0.09171848
118	0xbc5e2620	-0.013558894
119	0xbe5f8e48	-0.2183162
120	0x3d8210ba	0.063508466
121	0x3e1748d3	0.14773874
122	0xbd9e772b	-0.07737573
123	0x3db83a40	0.08995485
124	0x3de16e56	0.11007373
125	0x3de3d92b	0.11125406
126	0x3df37287	0.11887079
127	0x3dccf4d4	0.10007635
128	0xbdd894e1	-0.105752714
129	0x3cf59fba	0.02998339
130	0xbe01e52f	-0.12685083
131	0xbdc44678	-0.09583753
132	0x3e0482da	0.12940541
133	0xbe576d7c	-0.21037859
134	0xbe863528	-0.2621243
135	0x3e3dc81c	0.18533367
136	0x3d9747d4	0.07386747
137	0xbde89a9e	-0.11357616
138	0xbde5cb75	-0.11220447
139	0x3e413e4a	0.18871418
140	0x3d031e91	0.032011572
141	0xbf14c91e	-0.5811938
142	0x3ea84f69	0.32873085
143	0xbe6ff79e	-0.23434302
144	0x3d9f6acc	0.07784042
145	0x3e448727	0.19192182
146	0xbc997e7c	-0.01873707
147	0x3e4f1ac5	0.20225056
148	0x3d877994	0.06614986
149	0xbe24a93c	-0.16080183
150	0x3aa9b89c	0.0012948695
151	0x3d714e30	0.058912456
152	0x3da72393	0.08161082
153	0x3de84f83	0.11343291
154	0xbd116dd6	-0.03550514
155	0xbcf23280	-0.029565096
156	0x3e58de04	0.21178442
157	0xbf5fcaa7	-0.874186
158	0x3e1893cf	0.14900135
159	0x3d94f360	0.072729826
160	0x3ddb7c6d	0.10717092
161	0x3de35a83	0.11101248
162	0x3d7d5e77	0.061857667
163	0xbd9d605d	-0.076843955
164	0xbe6f464e	-0.23366663
165	0xbd50c3a9	-0.050967846
166	0xbe0883d4	-0.13331538
167	0x3dcc05cc	0.09962043
168	0xbdf6c532	-0.12049331
169	0xbf7bc70f	-0.98350614
170	0xbe746374	-0.23866063
171	0x3a8c0000	0.0010681152
172	0xbe7487a0	-0.23879862
173	0x3ebcdecf	0.3688874
174	0xbe719a07	-0.23593913
175	0xbc6320e0	-0.0138628185
176	0x3e356742	0.17715171
177	0xbe02225d	-0.12708421
178	0xbeb0abc2	-0.3450604
179	0xbe9050c2	-0.28186613
180	0xbe2c4ef0	-0.16826987
181	0xbe944b25	-0.2896358
182	0xbeaaa068	-0.33325505
183	0xbe53cf7c	-0.20684618
184	0xbe437149	-0.19086184
185	0xbb849d21	-0.0040470515
186	0x3e6edf83	0.2332745
187	0x3d93cedc	0.0721719
188	0xbe017317	-0.1264156
189	0x3de4de5d	0.11175225
190	0x3e64dd17	0.22349964
191	0xbe2b0b78	-0.16703594
192	0x3e14ec56	0.1454328
193	0xbe2e9298	-0.17048109
194	0xbd9ced49	-0.07662446
195	0x3e2b44b1	0.16725422
196	0x3c0c3440	0.008557379
197	0xbcd06c7a	-0.02544235
198	0x3c27b9e0	0.010237187
199	0x3e2c4c94	0.16826087
200	0xbe45d713	-0.19320326
201	0x3d07b028	0.03312698
202	0x3db29837	0.08720439
203	0x3d264ec0	0.040602446
204	0x3d2899cd	0.0411623
205	0x3df906d6	0.12159507
206	0xbd753fd6	-0.05987533
207	0x3d205ba0	0.03914988
208	0x3e1d77c7	0.15377723
209	0xbe55ba79	-0.20871915
210	0xbdac51c9	-0.08414037
211	0xbdccbad3	-0.099965714
212	0x3d6917e8	0.056907564
213	0x3df39489	0.11893565
214	0xbdb8ff9c	-0.090331286
215	0x3b40cc80	0.0029418766
216	0x3d953af7	0.07286637
217	0x3f796bc8	0.97430086
218	0x3dcff45b	0.10154029
219	0xbe7917d8	-0.24325502
220	0x3d51f57c	0.051259503
221	0xbe2357d4	-0.15951473
222	0xbd55011e	-0.05200302
223	0x3cc26800	0.023731232
224	0x3cb3f225	0.02196605
225	0x3df2e127	0.11859351
226	0x3c922ceb	0.017843684
227	0xbc83524d	-0.016030455
228	0xbe26fc5c	-0.16307205
229	0xbcb34348	-0.021882668
230	0x3dadfb97	0.084952526
231	0x3e64d082	0.22345164
232	0xbdc5d7c8	-0.09660298
233	0xbd9baf48	-0.076017916
234	0xbd8add65	-0.06780509
235	0xbe5c5f3e	-0.21520707
236	0x3e16e015	0.14733918
237	0xbde0967d	-0.10966203
238	0xbd1ad611	-0.037801806
239	0x3cbbe930	0.02293834
240	0xbef3b729	-0.47600678
241	0xbb798bae	-0.003807764
242	0xbe298b38	-0.16557014
243	0xbcf7bc1c	-0.030241065
244	0x3e3f6d3e	0.18694016
245	0xbe4b2be4	-0.19840962
246	0x3e2a818e	0.16650984
247	0xbe124f22	-0.14288
248	0x3c5ffd81	0.01367128
249	0xbe39c669	-0.18142094
250	0x3eefdeb6	0.46849602
251	0xbd7a2260	-0.06106794
252	0xbb0ad259	-0.0021182506
253	0xbe184fba	-0.14874163
254	0xbeea6884	-0.45782864
255	0xbe167cf4	-0.14696103

onnx::MatMul_20 f4 [16, 3]
0	0xbe090f1d	-0.13384672
1	0xbe1164f8	-0.14198673
2	0x3e3c5644	0.18392283
3	0x3e751cb9	0.23936738
4	0xbdc8297c	-0.097735375
5	0x3cd4405a	0.025909591
6	0x3c1c3028	0.009532966
7	0x3c4311ea	0.0119061265
8	0xbc5c355b	-0.013440455
9	0x3de42dad	0.111415245
10	0xbe470885	-0.19436844
11	0xbe0f1dbd	-0.13976188
12	0xbd634960	-0.055489898
13	0x3e66c034	0.22534257
14	0x3e2a050c	0.16603488
15	0x3e2ffc97	0.17186199
16	0x3e146069	0.14489903
17	0xbe7d221a	-0.2472004
18	0x3bac20b4	0.005252922
19	0x3e1640cb	0.14673154
20	0x3d2a9750	0.04164821
21	0x3d8962f4	0.06708327
22	0xbd9272e4	-0.0715082
23	0xbe4e97b8	-0.20175064
24	0xbd9d5b02	-0.07683374
25	0xbde7957d	-0.113078095
26	0xbdd60b94	-0.10451427
27	0x3e3d7d3e	0.18504807
28	0x3d1df04d	0.038559247
29	0x3c0843df	0.008316963
30	0xbe13ddb8	-0.14440048
31	0x3dd4be49	0.103878565
32	0xbde17bb6	-0.11009924
33	0x3d393e48	0.04522541
34	0xbe2925dc	-0.16518348
35	0xbe4a8dbc	-0.1978063
36	0xbde5651a	-0.11200924
37	0xbdec8dc9	-0.11550481
38	0xbdecd95a	-0.11564894
39	0xbbc382b5	-0.005966509
40	0xbe953b75	-0.29146925
41	0xbde481b7	-0.11157554
42	0x3c4967f8	0.0122928545
43	0xbccce6b7	-0.025012357
44	0x3a9af845	0.0011823258
45	0x3c89a2e0	0.016801298
46	0xbe0d7b7a	-0.13816634
47	0x3e712190	0.2354796
