Assets/Models/MLP-v3.onnx (onnx, 4509 bytes, 4 tensors)

net.0.weight f4 [32, 27]
000000 7f 0b 13 bd 0b d0 a1 3c c6 8b fc bd 28 b9 fc 3d
       -0.035899635 0.019752523 -0.12331347 0.12340003
000010 19 7d c9 bd 82 d1 8a 3d 5c f9 1c 3e 1b a1 9f ba
       -0.098383136 0.06778242 0.15329498 -0.001217875
000020 ac 16 3b be dd 3c cf 3d b5 3d 05 bd 83 1d f1 3b
       -0.18270367 0.101190306 -0.03252955 0.0073582544
000030 41 ca f8 bd 07 a1 f4 3c 38 3e ee bd bd ba 26 be
       -0.12147952 0.02986194 -0.11632961 -0.16282173
000040 77 42 db 3d 54 7f 21 be 4c 7e 42 bb 03 7e 45 bd
       0.107060365 -0.15771228 -0.002967733 -0.048215877
000050 46 8a 5d 3d 3d 71 de 3d 75 0e 14 3e ae 97 6f 3d
       0.054086946 0.10861442 0.1445864 0.058494262
000060 4e f1 21 bd fb ed d7 bd 51 df ac 3e 26 91 5c 3d
       -0.039536767 -0.10543438 0.33764127 0.05384936
000070 17 d2 93 3d d9 0c 63 3e 97 93 fd 3d a7 53 5a bc
       0.07217806 0.2217287 0.12381666 -0.013325608
000080 b5 d5 24 3e ea 78 a5 bd e6 1e 35 be f4 9a ed bd
       0.16097148 -0.08079703 -0.17687568 -0.116018206
000090 8e 64 8d bd 89 d4 dc bc 64 fe 9a 3b 67 7c 8a ba
       -0.06903945 -0.026956813 0.0047300328 -0.0010565639
0000a0 fc 9d 8d bd 20 57 f0 3d 0b 3f da 3d 23 65 20 3d
       -0.06914899 0.11735368 0.10656556 0.03915895
0000b0 6a 05 83 3c 23 9b 1d 3d ac df 00 be 96 17 12 be
       0.015993793 0.038478028 -0.12585324 -0.1426681
0000c0 28 6c 3e bd fd 9a 5c 3c de 15 a9 3d cd 82 07 3f
       -0.046489865 0.013464686 0.08256124 0.5293396
0000d0 b0 c7 92 3e 1e 87 a1 3e 4a eb 19 3f af bb 24 bd
       0.28667974 0.315484 0.6012465 -0.04021805
0000e0 5d 7d ee 3d 9e ca 99 3e d1 c8 43 bb 22 e6 1d be
       0.11645005 0.30037397 -0.0029874335 -0.1541982
0000f0 5e 84 85 3e 8f 63 e0 3c dd 57 a2 be 78 87 37 3e
       0.2607755 0.027391223 -0.3170766 0.17922771
000100 5b 09 03 3e d8 83 08 bc 17 fc 1e be da f4 60 3d
       0.12796538 -0.008332215 -0.15525852 0.05492101
000110 55 1a d1 3c 5b 73 f3 bd 17 ad 68 bd 53 8b aa 3d
       0.025525251 -0.11887237 -0.056805696 0.08327355
000120 ff ac 80 be 69 0a e5 3b 9f ef d0 bd 51 12 6b bf
       -0.25131986 0.0069897664 -0.10201954 -0.91824824
000130 9b 56 1c 3e f2 f1 27 be c3 4c 72 bb f4 03 23 3d
       0.15267412 -0.16400889 -0.0036972023 0.039798692
000140 51 4d a3 3e 29 96 14 3c da ac 06 3e b7 77 f0 bc
       0.31894925 0.009069004 0.13151875 -0.02935396
000150 72 73 15 3d 36 75 c1 3d 6c c2 1b 3e 57 17 56 3e
       0.03648705 0.09446184 0.15210885 0.20907341
000160 33 02 9e bb 79 6a ef 3d ee b2 9c 3c ca 10 bb bd
       -0.0048220395 0.1169023 0.01912829 -0.09134062
000170 21 46 d3 3d 74 82 0c 3c d2 13 3a bd 66 9b 1c 3d
       0.103161104 0.008576024 -0.04542906 0.038234137
000180 09 ad b3 3c 3d 72 00 3d 15 6f 45 3c 2c b7 d7 39
       0.021933096 0.031358946 0.01205041 0.0004114447
000190 a9 67 82 bd ce 6d 56 3e ea 4a a8 bd 18 b8 b7 bc
       -0.06367428 0.20940325 -0.08217414 -0.02242665
0001a0 9d ed 6a bd 3b e0 08 bf f1 58 4d be 5e a0 0c be
       -0.057355512 -0.5346715 -0.2005346 -0.1373305
0001b0 0a 73 4a 3e 8a d2 f3 3c eb f8 9b 3d 49 49 24 be
       0.19770446 0.029763479 0.07615837 -0.16043581
0001c0 67 1f e7 3d 47 0f 85 3b e9 1f 02 3e c5 87 67 be
       0.112852864 0.004060659 0.12707485 -0.22610386
0001d0 a7 21 83 bc 86 65 af bd 99 b9 0a be 18 d7 86 bd
       -0.016007258 -0.08564286 -0.13547362 -0.065839946
0001e0 16 ee 9d bd 5b 62 fb 3d d1 27 37 3e 37 d4 69 bd
       -0.07711427 0.12274619 0.17886283 -0.05708715
0001f0 13 63 80 bd e7 f5 a3 3d 98 80 9d 3d 1d aa 06 be
       -0.06268897 0.080058865 0.07690543 -0.1315083
000200 79 f3 57 3d 8e f3 5b 3d f7 6b d3 bb b3 8e 00 3e
       0.052722428 0.05369907 -0.0064520794 0.12554435
000210 6d 23 be be cb db f9 3e 95 63 ee 3e f3 53 02 be
       -0.37136403 0.488005 0.4656035 -0.12727337
000220 58 ba 89 3d ec 51 db 3b 57 d7 c3 3c eb 32 4f bd
       0.067249954 0.0066931155 0.023906393 -0.05058567
000230 dc 05 cd 3d f7 87 13 3e e6 39 ae bc 28 7f b3 3e
       0.10010883 0.14407335 -0.021267843 0.3505795
000240 06 08 cc ba 98 05 86 3b 14 18 0e bd 3f c4 9e bb
       -0.0015566356 0.0040900223 -0.03469093 -0.0048451717
000250 ab 5e 6b bd 1f db c0 3b 97 f1 46 be c8 75 a3 bd
       -0.05746333 0.0058854963 -0.19428097 -0.07981449
000260 d6 18 75 3c 3c 41 39 3d 33 e8 db bc 93 34 34 3c
       0.014959535 0.045228228 -0.02684412 0.010998863
000270 9b b6 aa 3c 0a 54 3f 3d 7c e7 5a 3d e6 de 03 3c
       0.020839026 0.046711005 0.053443417 0.008048749
000280 36 44 d8 3d ea 01 d4 be 63 7a 9d bd 3e 8c 82 bd
       0.10559885 -0.4140771 -0.07689359 -0.06374405
000290 44 ee a8 bd 00 29 cb 3c 28 4f c3 3c 90 c2 fa bc
       -0.082485706 0.024799824 0.023841456 -0.030610353
0002a0 57 e0 f0 bd 05 72 11 3e d0 f5 7f bc 4d ea 3d be
       -0.117615394 0.14203651 -0.015622571 -0.1854641
0002b0 48 9c 7b bd 87 40 94 bd 18 9e 4e 3d fe 3f e4 3d
       -0.06142834 -0.0723887 0.05044374 0.11145018
0002c0 5e a6 43 be 0e f7 d3 3d 0c 25 6c 3d b5 1c fb bd
       -0.19106433 0.10349856 0.05765252 -0.12261335
0002d0 00 88 5f 39 80 e1 c8 3a 14 68 0e 3d 8c 18 2a bd
       0.00021317601 0.0015325993 0.034767225 -0.041527316
0002e0 0f 36 9c bd 1c a9 26 be 60 21 70 bd 12 9c c9 3d
       -0.07627498 -0.16275448 -0.05862558 0.09844221
0002f0 60 5b 50 3c 18 c7 37 3d 6a d1 fa 3d 29 ed 30 3e
       0.012717098 0.044867605 0.12246974 0.1727797
000300 4a 13 fd 3d 1b 6e 97 bd 1a 12 68 3d 6d 18 a5 3c
       0.12357195 -0.07394048 0.056657888 0.020153249
000310 9a 3d ed bd 8f 61 5c be 13 68 82 bd d6 72 2c 3d
       -0.11584015 -0.2152159 -0.06367507 0.042101704
000320 d1 d6 83 bc 92 46 8a 3d 2c b9 dd 3c 81 dd 1a be
       -0.016093643 0.067517415 0.027065836 -0.1512356
000330 0e 0d fb 3d 8c 20 13 3e 88 3a 03 bd 4f 0e 03 bc
       0.12258349 0.14367884 -0.03203824 -0.007999017
000340 40 cc e6 bd b7 21 03 3e ee e4 ea bd b2 f9 88 bc
       -0.11269426 0.1280583 -0.11469446 -0.016720627
000350 8f 93 c2 3d cb 11 0a bf 00 ea 99 3d 8c b3 a7 3e
       0.09500801 -0.539334 0.07515335 0.3275417
000360 52 39 f2 3c bd 20 29 bd f2 eb 8b 3a de da 7a 3e
       0.029568348 -0.041290987 0.0010675176 0.24497554
000370 04 74 62 3e 3c 31 92 bc cc 2e 3e bd 0e 69 90 3d
       0.22114569 -0.017845742 -0.046431348 0.070512876
000380 5f 31 0e be 28 24 1d 3d f1 7f 12 3e 42 82 4c be
       -0.13886021 0.03836456 0.14306618 -0.19971564
000390 8a 26 c9 3d ca 18 a5 3d 01 00 dd bd 96 c1 5d 3c
       0.09821804 0.08061369 -0.10791016 0.013534924
0003a0 aa 41 ba 3d 20 d6 5b be c9 45 6f bd 23 d3 81 3e
       0.09094556 -0.21468401 -0.05841616 0.25356397
0003b0 35 65 60 3d 40 28 82 3e d7 b2 82 3d 1d c5 81 be
       0.05478402 0.25421333 0.06381767 -0.25345698
0003c0 9d 7e 82 3d f2 4b eb bc 13 91 0f be 4e b8 cf bb
       0.06371806 -0.028722737 -0.14020185 -0.0063391095
0003d0 33 30 6e 3d b3 c9 d2 3d ab 5d 95 bd de b5 7f bd
       0.058151435 0.10292377 -0.07293256 -0.0624293
0003e0 49 c3 90 bd b7 52 3e 3e 4f 35 45 bd 11 b2 f7 bd
       -0.07068498 0.1858624 -0.048146542 -0.1209451
0003f0 35 2b 1a 3e 3e 0a a3 bc 40 10 4d 3e bc 80 14 bd
       0.15055545 -0.019902345 0.2002573 -0.036255583

net.0.bias f4 [32]
000000 57 df ac 3d 41 0f 0d 3e a9 51 77 bb d6 9f 8b bd
       0.08441036 0.1377535 -0.0037737882 -0.06817596
000010 af 70 a0 bd df 46 82 bd 28 c5 a4 bc 01 89 f5 3d
       -0.07833993 -0.06361174 -0.020113543 0.11989022
000020 45 61 05 be b2 3b 40 3c 10 3b 4c 3c fd 5d 1a bd
       -0.13025387 0.0117329825 0.0124652535 -0.03768729
000030 3b c1 35 3d bc 0c d8 3d 1a 27 32 3e 6f 8d d5 3b
       0.044373732 0.10549304 0.17397729 0.0065171043
000040 f0 5a 09 3d 19 02 14 3e c7 d3 9c 3e 83 ef 2b 3d
       0.03353399 0.14453925 0.30630323 0.041976463
000050 55 81 07 be 7f 6d ee bd 47 05 47 be 44 0b 90 bc
       -0.1323293 -0.116419785 -0.19435607 -0.017583497
000060 a6 51 be 3d 03 b5 0b bd f2 b2 66 bd 33 fe 97 bd
       0.09292917 -0.034108173 -0.056323 -0.074215315
000070 29 9f 19 be f3 76 0c bd d7 02 36 bd e6 2e 27 3d
       -0.15002121 -0.034293126 -0.044436302 0.04081621

net.2.weight f4 [3, 32]
000000 b7 70 21 bc ee a6 42 3e 74 39 2b 3b e8 b6 9d bd
       -0.0098535335 0.19008991 0.0026126774 -0.07700902
000010 cd 41 27 be 39 0e 9f 3c d4 19 8e 3d ba 80 2d be
       -0.16333695 0.019415962 0.0693852 -0.16943637
000020 5d 89 c2 3d ab 69 79 be 62 74 41 bb aa a5 cc 3d
       0.09498856 -0.24356715 -0.0029518832 0.099925354
000030 4a 5e 88 3e 0a 3a 95 3d 6d 4f 5c be 17 6b fc bd
       0.26634437 0.07286461 -0.21514674 -0.12325113
000040 f8 3d 27 bc 7b 1d f2 bd c9 d9 7a be 97 9f 95 bc
       -0.010207646 -0.11822029 -0.24497141 -0.018264575
000050 77 65 20 be e2 44 b7 3d 4a 57 1b be 11 ae 98 3d
       -0.15663706 0.08948685 -0.15170017 0.074550755
000060 72 a4 a4 3d 45 f4 fd 3d 4a 8f d9 bd 50 fe 10 be
       0.08039178 0.12400106 -0.10623033 -0.14159513
000070 a6 36 5d 3d 02 97 e4 3c 53 70 a2 3c c6 3a 79 3e
       0.054007195 0.027904037 0.019828951 0.24338827
000080 fb 55 ef bb 46 ef cd 3d 8a f4 83 3b 6e cb cc bc
       -0.007303951 0.100554034 0.004026954 -0.024999347
000090 70 31 1d 3e bd 32 0c 3d 6b a8 f5 bd dc e6 85 3d
       0.1535089 0.034228075 -0.11995014 0.065381736
0000a0 b5 90 5c bc 78 8a 0f 3e 69 42 32 3b e0 d8 fe bd
       -0.013462235 0.14017665 0.0027200228 -0.124437094
0000b0 0c 90 8e 3e 08 aa 4d 3e 55 74 07 be c9 5d 35 3e
       0.27844274 0.20084393 -0.13227971 0.17711557
0000c0 32 ff 81 bc b4 a8 35 3e 27 85 6e bd eb c5 57 bc
       -0.015868757 0.17740136 -0.058232453 -0.013169746
0000d0 a8 30 04 bd 60 13 c4 bb 6f 25 46 3a da 42 8d bd
       -0.032272965 -0.005983755 0.00075586786 -0.068975165
0000e0 d3 d4 04 be 14 cd 38 3e 8f 28 9c be bb 7e ab bd
       -0.12971811 0.18046981 -0.30499694 -0.08373781
0000f0 6c 5c 7e 3d a7 e7 b8 3c 9c 35 ec bc 8b 5c 9b be
       0.06209986 0.022571398 -0.028834157 -0.30344042
000100 00 46 66 3d a4 c7 5c 3e ad 1c 83 3c 88 94 cb bc
       0.0562191 0.21560532 0.016004885 -0.024851099
000110 ea 2c 8a 3e f1 81 bf be c0 56 50 bd 67 91 6d 3e
       0.26987392 -0.37403825 -0.05086398 0.23199998
000120 43 f2 12 3c a9 e2 1d 3d 7f d4 b3 bc 1c d2 c6 3e
       0.0089688925 0.038546238 -0.021951912 0.38832176
000130 ea 17 00 be 71 22 9f bd 72 65 54 bd fe db d9 bd
       -0.12509122 -0.07770241 -0.05185456 -0.10637663
000140 07 c7 cc bc a4 c0 ee 3d 45 e3 09 bd dd 0c c9 3d
       -0.024997247 0.11657837 -0.033664007 0.098169066
000150 d2 e9 d3 3d 6e 45 eb 3d 5d 7b 82 3d 69 28 f9 bd
       0.10347332 0.11487852 0.06371186 -0.12165911
000160 08 8d 90 3d 8b 77 8f be 71 37 33 be 9d bb c3 bd
       0.070581496 -0.28020892 -0.17501618 -0.09557269
000170 4f 3f 5d 3e e4 d2 9d 3e 1c 8b 95 bd 68 1e 93 3c
       0.21606182 0.3082496 -0.07301924 0.017958835

net.2.bias f4 [3]
000000 44 a6 b8 3d e8 4a 39 bc b2 b3 dc bc
       0.09016088 -0.011309363 -0.026941154
