Assets/Models/MLP-WithZ-v1.onnx (onnx, 25518 bytes, 6 tensors)

net.0.bias f4 [64]
000000 a2 88 47 3d ae 5d 6f be 9a c2 c0 3c 4e 57 07 be
       0.048714288 -0.2337558 0.023530293 -0.13216898
000010 ff 0b f1 bd 98 6f 4c 3d fe 17 75 3d 9e 2a 85 3d
       -0.11769866 0.04991111 0.059837334 0.06502269
000020 91 e1 74 bd b2 94 0c be 29 09 5b 3d 92 10 02 be
       -0.05978543 -0.13728598 0.053475533 -0.12701634
000030 61 fc 38 be 61 ac 44 3e d3 5a 13 3f 3e 2b 91 3e
       -0.18065025 0.19206382 0.5756046 0.28353304
000040 b5 ef 97 bd 41 14 a8 bd 1f b4 45 3e 97 53 c8 bd
       -0.07418767 -0.08206988 0.19306992 -0.097815685
000050 4f bd 81 3c 82 10 10 be cf 7b 84 3d bd 1a 26 3d
       0.01583734 -0.14068797 0.06468927 0.040552843
000060 16 43 4d be 40 6a 2b 3d 7b 1e 97 bd fd ee a0 bd
       -0.20045123 0.041849375 -0.073788606 -0.078580834
000070 b3 2f 9b be 60 93 96 3d 48 b5 03 3e ca f7 b8 bd
       -0.3030983 0.07352328 0.12862122 -0.09031637
000080 41 48 10 be 77 5e 4b 3d 4b fe d8 bd 65 0b a9 bd
       -0.14090063 0.049650636 -0.105953775 -0.082541265
000090 20 52 39 3e ef 0a 20 be 65 29 e7 3c d4 d5 34 be
       0.18097734 -0.15629171 0.02821798 -0.17659694
0000a0 04 65 65 3e 75 12 05 3e 34 15 5a 3e c7 58 21 be
       0.22401816 0.12995322 0.21297151 -0.15756522
0000b0 41 be 91 3d 1e 2a 50 bd 4b 52 a9 3d aa 35 8c 3e
       0.07116366 -0.050821416 0.08267649 0.27384692
0000c0 84 52 34 3e 2a 19 2a be 84 e2 83 be b8 17 97 be
       0.17609602 -0.16611162 -0.25758755 -0.29510283
0000d0 60 6f 95 3d 43 59 4b 3e 68 57 88 be 01 80 9b bd
       0.07296634 0.1985827 -0.26629186 -0.07592774
0000e0 6e 75 53 3d 58 87 0e be e1 a0 f7 bd 4a 2f 9b 3d
       0.05162566 -0.13918817 -0.12091232 0.07577379
0000f0 24 ec 08 bc ba 28 1d be b1 7b c6 bd 13 05 2a be
       -0.008357082 -0.15347567 -0.09691561 -0.16603498

net.2.bias f4 [64]
000000 e1 2b a9 be 72 59 1b bd ec 83 8d 3c 36 78 9f 3d
       -0.3304129 -0.0379271 0.01727482 0.077866
000010 77 49 73 3d d3 0f 70 bc 27 2b e1 bd c6 51 93 bd
       0.059396233 -0.01465221 -0.10994559 -0.071933314
000020 b5 bd 0c be 15 bd cc 3d 34 3b 97 3d b0 84 df bd
       -0.13744242 0.09997002 0.07384339 -0.1091398
000030 28 90 c0 3c d9 f0 7a 3d 2e 3f 64 bc 03 cb d4 bb
       0.023506239 0.061264846 -0.013931079 -0.0064939274
000040 32 30 0c 3d 60 c2 d5 bb 99 66 40 3e 13 7c ae bd
       0.03422565 -0.0065234154 0.18789138 -0.08519759
000050 bf 50 aa b9 30 97 01 bd 8f 6a 4e be 64 6d e7 bd
       -0.00032485087 -0.031638324 -0.20157836 -0.113001615
000060 cd b8 a1 3d c0 67 a6 bd e6 88 84 3c 0b ea 9f bd
       0.07896576 -0.081252575 0.01617856 -0.07808312
000070 c0 ba c9 bc 28 6a 76 ba 7d ea 3a 3c a1 13 db 3c
       -0.024625182 -0.0009399974 0.011408445 0.026742758
000080 fe fe 84 3c ee b5 9d bd 6a 16 c3 3d 27 36 f7 3c
       0.016234871 -0.07700716 0.095257595 0.030177189
000090 0f 1b 09 3e e9 a0 b3 bd d8 41 0c 3e 0f 25 41 3d
       0.13389228 -0.087709256 0.13696992 0.047154482
0000a0 af 39 89 bc 8c 9b a0 bc c6 21 ee bd 14 46 1a be
       -0.016751138 -0.01960542 -0.116275355 -0.15065795
0000b0 c2 e1 ec 3d ce 52 e8 3d b5 f0 e2 bd ad c0 a1 bc
       0.115664974 0.11343919 -0.110810675 -0.019745195
0000c0 6e ab bb 3d 0a 9b 3f bd 3b 23 fc bc b0 39 0f bd
       0.09163557 -0.046778716 -0.030778518 -0.034967124
0000d0 a5 b2 37 bd b4 da 58 3d c6 30 17 3d 9c a7 f3 3d
       -0.044848103 0.052942947 0.03691175 0.11897203
0000e0 74 a2 a8 bd c8 ef 3a bd e5 e3 07 be df e5 4c bd
       -0.082341105 -0.04563883 -0.13270529 -0.05002391
0000f0 3e 8d 1e be 38 6b 41 3e f5 85 1b be db 13 a8 3d
       -0.15483567 0.18888557 -0.1518782 0.08206912

net.4.bias f4 [3]
000000 7e c8 f4 bc 69 d5 91 bb 52 49 68 3c
       -0.029880758 -0.0044504893 0.014177637

onnx::MatMul_18 f4 [27, 64]
000000 29 ec 57 3d df 6e ab 3d b6 18 5d 3d bb 3d c5 bd
       0.052715454 0.08370756 0.053978644 -0.09630915
000010 c1 51 0b 3e 7d c8 fc bc 28 53 00 bc bd 61 b4 bd
       0.13605405 -0.030857319 -0.007832326 -0.088077046
000020 80 93 b5 3d 21 f8 8b bd 75 4d a7 3d 8d 5a bc bd
       0.08866024 -0.06834436 0.08169071 -0.09196959
000030 61 82 11 3e 9c 2e bc bd 82 d8 8a 3d 92 e0 cb bc
       0.14209892 -0.091885775 0.06779577 -0.024887357
000040 1d 41 dd 3d de 38 c1 bd 9e c2 3a be 2a e3 64 bc
       0.10803435 -0.09434675 -0.18238303 -0.013970176
000050 19 28 ad 3d cb 24 06 3e 9b 79 8f 3d b0 f0 02 3e
       0.08454914 0.13099973 0.07005616 0.12787127
000060 cc c0 3f 3d cb db 13 3d 03 38 0e be 27 a5 3d bd
       0.046814725 0.036098283 -0.13888554 -0.04630008
000070 b7 bc 0f 3e 69 68 c1 3c b0 73 5d bd 00 f3 b8 3c
       0.14036833 0.023609357 -0.054065406 0.022576809
000080 15 0c 40 3e 7e 7f 88 3d 97 b2 b8 3d af 6e b6 bc
       0.18754609 0.06664942 0.09018438 -0.022269575
000090 fd a2 11 bd 80 bc 11 3e 37 de 65 3d 54 fe a6 3d
       -0.03555583 0.14232063 0.056120124 0.08153978
0000a0 10 11 62 3d c5 99 e3 bd 4b 1e b6 3d 51 58 e3 3b
       0.055192053 -0.111133136 0.08892497 0.0069380184
0000b0 81 9f 95 3b bf fd e4 bd 8a 67 a0 bd 41 08 95 3c
       0.0045661335 -0.11181211 -0.078322485 0.018192412
0000c0 06 be 70 bc 0d 8d ee bd 5c 20 88 be c3 e4 9d 3b
       -0.014693743 -0.11647997 -0.26587188 0.0048185303
0000d0 ce c7 13 3d 65 31 85 bc dc 17 1f 3e cd 99 18 bd
       0.03607922 -0.016258905 0.15536445 -0.03725605
0000e0 28 c5 4c 3d ab b9 ed bd 3b 9f 55 3d fd 41 57 bd
       0.04999271 -0.11607679 0.052153807 -0.052553166
0000f0 e8 df 9c 3c 80 ac 5f 3e 0c 19 82 bc 0d 54 8f bd
       0.019149736 0.21843147 -0.015881084 -0.06998453
000100 ad 5e b9 bd 20 41 d8 bd d3 aa aa 3d 0d 41 a4 bd
       -0.09051261 -0.105592966 0.083333634 -0.0802022
000110 60 df 10 3e fe 18 5a 3e 94 fc 35 bd 69 74 3a bc
       0.14147711 0.21298596 -0.04443033 -0.011380293
000120 c3 c9 33 3c d9 a2 03 bd e6 68 65 bd e8 0d 88 bd
       0.010973397 -0.032137726 -0.056008242 -0.066432774
000130 5a 3b 2b 3e 91 36 50 3d 8a d8 56 bc 4d 2f 01 3d
       0.1672186 0.05083329 -0.01311315 0.03153925
000140 48 f7 f9 3b 6f 6e ee bc e7 18 f9 3c b9 e7 3c 3d
       0.007628355 -0.029105393 0.030407382 0.046119425
000150 03 ac 12 3d 3c 94 80 3e 2d 9b 7d bb a5 d1 ae 3c
       0.035808574 0.25113094 -0.0038697228 0.0213402
000160 d4 14 1f bd 91 8e 93 3c c9 8c a2 3d 76 9e 1b 3e
       -0.038838223 0.018012317 0.07937009 0.15197167
000170 1f 9a f8 3c d9 68 6f bc e0 ea 3e bd 82 d3 be 3c
       0.030346928 -0.0146124 -0.046610713 0.023294214
000180 73 a9 8f bd 55 01 38 bc a5 45 cf bc c2 73 f5 3d
       -0.07014742 -0.011230786 -0.025301764 0.1198497
000190 58 e9 82 3c 17 53 f6 bc 41 a7 61 bd 3e 54 d2 3d
       0.015980408 -0.030068917 -0.055091146 0.10269974
0001a0 22 48 c6 3c c2 4e b0 3d f4 e2 12 3d d5 de f6 bd
       0.024204317 0.08608772 0.03586097 -0.120542206
0001b0 13 e2 17 bb cb 2f f0 3c ac 02 53 bd 1c 8e 91 3c
       -0.0023175522 0.029319664 -0.05151622 0.017767958
0001c0 73 eb 97 3b 99 17 4d 3e 0d 30 4e bc 7e e4 0b 3e
       0.004636222 0.20028533 -0.012584698 0.13661382
0001d0 7f 24 e3 bc 6e b5 2e 3c 4f 5e 6c 3e 1b f7 94 bd
       -0.027727364 0.010663373 0.23082851 -0.07273694
0001e0 94 30 4d bd 45 29 f0 3d c8 5a 33 bd 70 4a 9d 3c
       -0.050095156 0.117266215 -0.043787748 0.019200534
0001f0 1a 2e d4 3c 84 f2 05 3e f4 e2 e9 3d 31 5a de bc
       0.02590089 0.13080794 0.11420241 -0.027142616
000200 8c 20 8e bd fd de df 3d 35 05 2c 3c 40 45 10 be
       -0.069398016 0.109312035 0.010499288 -0.14088917
000210 27 66 32 be b2 5f bf bd 32 83 93 3d 80 47 22 bd
       -0.1742178 -0.09344424 0.07202758 -0.03961897
000220 00 a3 3d bd 20 b1 a2 bd 53 f6 18 3e 1f 5e 8d bd
       -0.046298027 -0.0794394 0.14937715 -0.06902718
000230 b2 7f da bd a6 2f d0 3b 28 43 d4 b9 93 f9 ef bc
       -0.10668887 0.0063533364 -0.00040485826 -0.029293811
000240 e6 81 30 3d 23 ef 6e 3e ab c9 cd 3c 71 98 25 be
       0.04309263 0.23333411 0.025120577 -0.16171433
000250 e9 94 88 3d f9 1f 14 bf 65 9f 2b bd cb 02 90 bd
       0.06669027 -0.57861286 -0.041900057 -0.07031783
000260 0c 5d b4 bd 08 db 84 bd 1e da 84 be 6c 3a 17 3d
       -0.0880681 -0.064870894 -0.2594766 0.03692095
000270 e9 98 86 be ae be ae bd dc 54 79 be 9f b0 72 bd
       -0.26288536 -0.08532463 -0.24348778 -0.05925047
000280 13 08 75 bd a2 af 00 3e 7c 99 ad bc ae dd 6d bd
       -0.059822153 0.12566999 -0.021191351 -0.05807274
000290 af 1c 86 3d 27 d8 17 3c 30 ee 73 bd de d6 15 be
       0.0654844 0.009267843 -0.059553325 -0.14632747
0002a0 05 05 84 3d c2 d6 d3 bc a6 df d0 3b 39 ba fc bd
       0.0644627 -0.02585924 0.006374317 -0.12340207
0002b0 f5 9d 17 3c 17 ba 3d be e5 1c a0 bd 85 a9 cd 3d
       0.0092539685 -0.18528019 -0.07818011 0.10042099
0002c0 99 4e 01 3d 91 c7 d3 bd 2b fb 59 3e ed 0f ef be
       0.031569097 -0.10340799 0.21287219 -0.46691838
0002d0 0f a6 fa 3d b8 4a 8d 3c cd d9 74 3e fb 64 00 3c
       0.122387044 0.017247543 0.2391121 0.007836576
0002e0 56 71 d9 bd 8e 50 9a be 27 a6 53 bd d3 0e b2 3c
       -0.1061732 -0.30139583 -0.051672127 0.021735584
0002f0 c4 d3 c6 3d 7a 75 9a be f5 9a 62 be 88 e7 14 bd
       0.0970836 -0.30167753 -0.22129424 -0.036353618
000300 19 1a 40 3d c2 e3 58 3d 8a 34 b7 3c 5c 76 a7 3b
       0.04689989 0.05295158 0.02236392 0.005110545
000310 49 b8 e1 bb 1c ca 61 3e 4d 3a eb 3c f0 cc ea 3c
       -0.0068884236 0.22049755 0.028714323 0.028662175
000320 55 3e 45 bd 68 2e d4 3c 57 32 bf bc fe 6f 05 be
       -0.048155148 0.025901034 -0.023339434 -0.13031003
000330 47 72 9f 3d 21 a0 41 3d 90 c7 03 3d 06 95 e0 bc
       0.077854685 0.04727185 0.03217274 -0.02741481
000340 15 de 04 bd 77 ec bd bd 3a 9d 20 be 02 5a ba bc
       -0.032438356 -0.09273618 -0.15684977 -0.022747997
000350 7b 36 f8 3a aa 0c ef 3d dd ca 84 3d 8b 88 f4 bc
       0.0018937135 0.11672337 0.064840056 -0.029850265
000360 70 dd a8 bc 0d 1a a9 bb 20 aa b4 3d 0a 5b d7 3d
       -0.020613402 -0.005160576 0.08821511 0.10515411
000370 e4 9b 9e 3d 85 d3 26 3b 3a 53 32 3e 8a 35 ae bb
       0.077445775 0.0025455665 0.17414561 -0.005316441
000380 32 73 87 bc 37 ac 05 bd 1e 2a 9d 3d 0b f3 2f 3d
       -0.016534422 -0.03263494 0.07674049 0.042956393
000390 ed 00 78 bb 79 41 94 bc e2 4b af bb 1a 9c b1 3d
       -0.0037842349 -0.018097626 -0.005349622 0.08672352
0003a0 ce fd 3a bd 2f 19 f1 bb b0 a4 96 bd 57 bf 0c bd
       -0.045652203 -0.0073577384 -0.073556304 -0.034362163
0003b0 8a c4 0b bc ff 90 81 3d bc 52 fe bc b2 cd 3a 3b
       -0.008530745 0.06326484 -0.03104531 0.0028503952
0003c0 f2 88 53 3c 9a b4 73 3d 96 60 b7 3d bb f7 14 3c
       0.012911068 0.059498407 0.08953969 0.009092267
0003d0 5b 6b 63 3c 19 6d b8 3c 9a d2 80 3e dc ea 23 be
       0.013880576 0.02251296 0.25160676 -0.1600756
0003e0 ad 7b 18 bc 8d 81 a8 bd 2e 66 0a 3d 7f d6 2f bd
       -0.00930683 -0.08227835 0.033788852 -0.04292917
0003f0 a5 29 97 bd e8 31 7b be 59 50 65 bd c2 27 0e bd
       -0.0738099 -0.24530756 -0.05598483 -0.034705885

onnx::MatMul_19 f4 [64, 64]
000000 41 ce a9 3d 6e 85 31 3d e9 3a a8 3d 9f b6 45 bd
       0.08291293 0.04334014 0.08214361 -0.048269864
000010 fb d6 7a 3d 27 36 9d 3d 7b a7 84 be 29 36 16 3d
       0.061240178 0.07676344 -0.25909027 0.036672745
000020 b0 30 bd 3d 9d 3a a1 3d 0f 52 2a 3e 98 c3 a7 bc
       0.09237802 0.07872508 0.16632865 -0.020479009
000030 45 66 93 3d 72 2c 2a bc 92 cf ed bd ec 9f ed bd
       0.07197241 -0.010386573 -0.116118565 -0.11602768
000040 32 40 0d be bf 27 15 3e 5a d2 af bd d2 fd 54 bc
       -0.1379402 0.14565943 -0.08585043 -0.012999969
000050 f9 a9 5f 3c 90 ad 6c 3d f8 99 dd 3c 5e 4a 5f be
       0.0136513645 0.05778271 0.027050957 -0.21805713
000060 4e ad a3 be 8c 55 fc 3d dc d3 0c bc a4 f3 a4 bb
       -0.31968158 0.12321004 -0.008595433 -0.005033927
000070 0e 79 97 3d 07 ff 2f 3d 32 5a 3d 3e 17 24 24 be
       0.07396136 0.042967822 0.18491438 -0.16029392
000080 91 c1 15 3d 9c 4a 09 be aa 56 56 3d 0f 6b 27 be
       0.036561552 -0.13407367 0.052328743 -0.16349433
000090 f3 04 15 be 46 49 31 3c 52 53 6a bd 59 c8 07 bd
       -0.14552669 0.010820692 -0.057208367 -0.03315005
0000a0 e7 8f 96 3d 28 73 97 bd 75 54 85 bc 98 90 0f 3d
       0.07351666 -0.07395011 -0.016275624 0.035050005
0000b0 4f ef 62 3c 61 83 b4 3e d8 db 3b bd 1f 59 28 3e
       0.013851001 0.35256484 -0.045863956 0.16440247
0000c0 fa cb 1c bd 54 c1 c4 3c d2 3a 29 bd 46 9d 80 bd
       -0.038280465 0.024017967 -0.04131586 -0.062799975
0000d0 ab 2d 1b be 12 00 0a bd 34 57 2b 3d 99 ed 97 3e
       -0.1515414 -0.033691473 0.04183121 0.2967346
0000e0 aa ff 3d bd 17 85 c1 3b c3 3c ab bd 73 91 05 3d
       -0.0463864 0.005905758 -0.08361199 0.032609414
0000f0 54 e0 78 bf bd 64 0f be a7 c7 5c 3c 48 f8 8d bc
       -0.972173 -0.14003272 0.013475335 -0.017330304
000100 64 55 d6 3e b8 3e f3 bd 99 e9 dc bb 0d 0b 2c bd
       0.41862023 -0.11877197 -0.006741714 -0.042002726
000110 0b 7a 0b 3e 85 6b c7 3c 6e 99 82 bd ae 02 d0 bd
       0.13620774 0.024343261 -0.06376921 -0.10156761
000120 24 52 e3 bd b4 4f 38 3d 10 f0 4a 3d e0 b0 84 3d
       -0.110996515 0.044997886 0.049545348 0.06479049
000130 fb cb d4 bd 86 f1 ca 3c 12 ed 3b bd 61 76 28 be
       -0.10390469 0.02477337 -0.045880385 -0.16451408
000140 eb 79 de bd c8 cb 5b bd 07 98 79 3d fe fe 1f 3d
       -0.10863098 -0.053661138 0.060936 0.03906154
000150 70 36 18 3e 88 83 1f 3c 18 80 1b be 49 7c bc 3d
       0.14864516 0.009735949 -0.15185583 0.09203393
000160 1b 92 83 be 72 8a 1f 3d 61 6f 76 3d a9 f6 b4 3d
       -0.25697407 0.03895039 0.060164813 0.08836109
000170 d8 9a 5b bc 16 8a a9 bd f5 ff 4e 3d 95 92 57 3d
       -0.013403617 -0.08278291 0.05053707 0.052630026
000180 c0 b9 53 3d b0 e7 dc bd af ec 36 bd 60 0e 00 be
       0.051690817 -0.107863784 -0.044659313 -0.12505484
000190 5c 22 93 bc 3b 89 1c be e7 84 f1 bb 49 de 0a 3e
       -0.01796072 -0.15286724 -0.0073705795 0.13561358
0001a0 62 11 91 3a 2b 6c d0 3d 14 9f f6 bd b7 6d f6 bd
       0.0011067803 0.101768814 -0.120420605 -0.12032645
0001b0 e9 dd 0f bb e1 3d b0 bd 01 25 56 bd 09 b7 f7 bd
       -0.0021952337 -0.086055525 -0.052281383 -0.12095458
0001c0 a9 aa 83 3d e6 2a 9e 3d 45 12 4c 3e 0d 2f 10 3e
       0.06429035 0.07723026 0.19928844 0.14080448
0001d0 a1 6a 4a bb 1c 9a f9 bd 79 c6 06 3d db 00 75 3d
       -0.003088631 -0.12187597 0.032904122 0.05981527
0001e0 da 7a d1 bd ec ec 43 3b ad fe 52 3d 68 58 b4 3d
       -0.1022851 0.0029895855 0.05151241 0.08805925
0001f0 4d 03 12 3e 0f 57 b8 3e 85 b6 ab bd 55 12 a5 bd
       0.14259072 0.3600392 -0.08384422 -0.08060137
000200 1c 60 3d 3e 1c df 44 bd 59 b3 98 3c 38 da 18 3e
       0.18493694 -0.048064336 0.018640207 0.14926994
000210 a2 f2 a1 bd 7c 0c 00 be 18 dd b2 bd 13 75 17 be
       -0.07907607 -0.12504762 -0.087335765 -0.14790754
000220 ba 39 ad bd 3c 2c 52 3e 08 60 e9 3d c0 93 2c 3d
       -0.08458276 0.20524687 0.1139527 0.042133093
000230 74 94 3a be ac 57 d5 3d 37 bd dc 3d 02 69 8c 3b
       -0.18220693 0.10417113 0.10778277 0.004284979
000240 1c a5 02 be 63 cb dc 3d 8a 36 22 3e 14 a3 9a bc
       -0.12758297 0.107809804 0.15841118 -0.01887659
000250 55 1d ba bd 75 fd c6 bd 47 41 12 be a6 6a 00 bf
       -0.09087626 -0.09716312 -0.14282714 -0.5016273
000260 d9 e1 cd 3e c1 4c 21 3e f0 ed 25 be 24 a9 e3 bb
       0.4021137 0.15751936 -0.16204047 -0.0069476534
000270 4b d9 50 3e 82 dd 6a be 01 90 03 3d 51 a5 be 3c
       0.2039539 -0.22936061 0.032119755 0.023272188
000280 56 43 ff 3c 9b 94 45 3d b9 dc 5a 3e 03 74 4c 3e
       0.031160038 0.048237424 0.21373262 0.1996613
000290 94 d4 e7 3d a5 38 f1 bd e2 f8 fa 3d 1a 98 33 3e
       0.11319843 -0.11778382 0.12254502 0.17538491
0002a0 bb 5b 63 3c 54 cd 12 be ac 11 91 3c 1c d9 d7 bd
       0.013876851 -0.14336139 0.017708622 -0.10539457
0002b0 64 2e 3e 3e 07 4c 31 3c 5c d2 24 3d ed 79 a8 bd
       0.18572384 0.010821349 0.040239677 -0.082263805
0002c0 b9 5a ab 3e 01 33 0d be fa 09 b0 3b bb cd 24 3e
       0.33467653 -0.13788988 0.005372283 0.16094105
0002d0 4a 8e c9 bd 80 c1 2b 3d c7 17 9b 3d 5e 08 9a 3c
       -0.098415926 0.041932583 0.075728945 0.018802818
0002e0 9f d4 e5 bd f3 41 fb 3c e7 b9 3d bd aa 0f e3 3c
       -0.11222195 0.030671095 -0.04631987 0.02771743
0002f0 7e 40 d7 be 2d 7f a9 be 5f 89 bd bd dc 4b c2 bc
       -0.4204139 -0.3310484 -0.09254717 -0.023717813
000300 28 20 a6 be de be 5b be 00 ba 73 3d d9 d3 47 3e
       -0.32446408 -0.21459529 0.059503555 0.19514407
000310 86 50 9c 3d af 16 d2 bb a3 06 04 bd 9b 5f 78 bd
       0.07632546 -0.0064113955 -0.03223289 -0.06063805
000320 50 14 12 3d 3a 1e 06 bc 4a bf bd 3d fe b6 c4 3d
       0.035663903 -0.0081859175 0.09265001 0.096052155
000330 98 51 ca 3d 5c 00 bd 3d d9 53 0a bd bc 16 17 bd
       0.09878844 0.09228584 -0.03377137 -0.036886916
000340 7c 46 a1 bd 5f ae b9 bc ab b6 cd 3d 9e 06 93 bd
       -0.07874772 -0.022666154 0.10044607 -0.071789965
000350 fc 81 1e bd 5b f4 0c 3d 9d 14 53 3d dd 79 dc 3d
       -0.03869818 0.034412723 0.05153333 0.10765431
000360 62 0c c8 3d 6c fd af 3d 0e 8d b0 bd 2c c5 9b 3d
       0.09767987 0.08593258 -0.08620654 0.07605967
000370 90 5b 01 be 8e e3 6d bd cb e2 df 3d 7c 69 a5 bd
       -0.12632585 -0.05807834 0.10931929 -0.0807676
000380 1c 15 c7 3c 09 1e a0 3d bb 69 23 3e b8 c6 1e be
       0.024302058 0.07818229 0.15958302 -0.15505493
000390 99 a6 a1 3d 8f 1b 13 be da 0b 2f bd 91 55 2d 3e
       0.07893104 -0.14365982 -0.042735912 0.16927172
0003a0 07 c5 c7 3d 3a f5 62 3d 26 82 96 3d 76 42 79 bd
       0.09754377 0.055409648 0.073490426 -0.060854398
0003b0 dd b9 38 3b 71 16 f6 3c e3 9c b3 bc c2 ba 0e be
       0.0028186955 0.030039998 -0.021925395 -0.1393843
0003c0 c5 60 14 3d 8d 78 db bd 79 2e ca bc 0b 65 71 3d
       0.0362251 -0.107163526 -0.024680363 0.058934253
0003d0 65 01 1c 3d d3 1d cc bd 8b f3 1c 3e 71 ca 2e 3c
       0.038087267 -0.09966626 0.1532728 0.010668383
0003e0 70 e6 a4 3c 3f bc af bd e1 38 bc bc 9b c7 ad 3d
       0.020129412 -0.08580827 -0.02297634 0.08485337
0003f0 63 7c 56 be 6a 73 0f be 9e fd 7e 3d 47 07 8f 3d
       -0.20945887 -0.1400887 0.062253587 0.0698381

onnx::MatMul_20 f4 [64, 3]
000000 b9 7b 05 3b 96 ae bb 3c af 77 3e 3d 95 f8 a0 3c
       0.0020367934 0.022910397 0.046500858 0.019649783
000010 e6 27 f3 3a 07 69 83 bd 23 e6 b7 3d 6e bc 33 be
       0.0018551319 -0.06416517 0.08979442 -0.17552349
000020 4c 09 35 3e 80 c2 34 be 56 5d 07 3d 69 e2 16 bd
       0.17679328 -0.17652321 0.033047996 -0.036837015
000030 3a b2 38 3d b0 6e 27 be 51 ac f6 3d a1 03 06 bc
       0.045091845 -0.16350818 0.120445855 -0.008179576
000040 70 d0 70 3c 91 ec 3d bb 26 fb b6 bb d3 08 14 bc
       0.014698133 -0.0028980116 -0.0055841384 -0.009035307
000050 64 e4 fb ba 80 c7 cd 3d 0e b7 ca 3d ca 65 72 bc
       -0.0019217846 0.10047817 0.09898196 -0.014794776
000060 b9 49 55 bd f0 aa 1f 3d 60 b7 65 bb 5f 75 1c 3e
       -0.05207226 0.038981378 -0.0035051927 0.15279149
000070 eb 76 19 bd e9 43 78 3c d7 ab 96 3b 4b 15 3d 3e
       -0.037466925 0.01515291 0.0045981216 0.18465154
000080 af 38 9d 3d d4 f5 90 3d 0c 18 b1 3d 8c 7a 34 bd
       0.07676827 0.07078138 0.08647165 -0.044062182
000090 91 41 21 ba 28 21 0d 3d ca c6 65 3c 13 e3 06 be
       -0.0006151433 0.03445545 0.014024446 -0.1317256
0000a0 a1 b6 26 be 80 c3 ac 3d 69 17 3c bb d0 d2 8c 3b
       -0.16280605 0.08435726 -0.0028700477 0.0042975917
0000b0 b6 4e d6 bb ee 7c 46 bc de 48 90 3c 17 e1 86 bc
       -0.006540145 -0.0121147465 0.01761287 -0.016464753
0000c0 06 a0 05 bd 91 bc a3 bd 03 70 c4 3c 02 45 d6 3d
       -0.032623313 -0.079949506 0.023979193 0.10462381
0000d0 f1 f1 21 3e 6e c8 0e 3e db 19 bf bd 13 25 90 3d
       0.1581495 0.13943645 -0.093311034 0.07038321
0000e0 7c 95 a3 bd ae 70 a1 3c 8e ab 6e 3d c2 48 97 bd
       -0.07987496 0.01970705 0.058269076 -0.07386924
0000f0 9b 99 56 bc 95 bf 2d 3c 7d fe 08 3c 04 fb 7b 3c
       -0.013098146 0.010604759 0.008361456 0.015379671
000100 1f bf d2 bb 5d 52 95 bc ef 2a 89 bd 65 24 c1 3d
       -0.006431475 -0.01822775 -0.06697642 0.0943077
000110 a5 4d 12 3d 61 29 38 3d 16 f9 1d 3d ee 8e 32 bd
       0.03571858 0.044961337 0.038567625 -0.04359334
000120 f4 a3 11 3d 6a 4c 1f 3d 40 dd 98 bd 9b 85 1d bd
       0.03555675 0.038891234 -0.07464075 -0.038457494
000130 d7 4f 5c 3d d3 0c 6d 3d fa 49 aa bd 24 81 e3 bc
       0.05378708 0.05787356 -0.08314891 -0.02777154
000140 c0 92 72 bd 2e fb 58 3d d2 fa bd 3c c3 27 62 bd
       -0.059221983 0.05297392 0.02319089 -0.0552137
000150 13 37 ec bb b1 97 62 bd e4 88 6f 3c d2 ff 8e 3a
       -0.007208714 -0.055320445 0.01462004 0.0010909981
000160 d0 b4 3d 3c bb e6 ac bc 84 a2 bb bc 62 92 81 3c
       0.011578754 -0.021106115 -0.022904642 0.015816871
000170 8c d6 17 3e 01 47 30 be fb c2 9a 3c b8 5f 95 3d
       0.14827937 -0.17214586 0.018891802 0.072936475
000180 1b b3 25 b9 af a7 e0 3a 90 54 15 3c 7c 6c 30 3c
       -0.00015802348 0.0017139817 0.0091144 0.010768052
000190 c0 46 76 3b b5 5a 2e 3b 30 1f ff 3c ae 14 a3 3c
       0.0037578791 0.0026604359 0.031142801 0.019907322
0001a0 c3 e7 53 bd 87 cb d4 3b b9 5f ce bb ce fc 34 bd
       -0.051734697 0.006493989 -0.006298032 -0.044186406
0001b0 65 e2 39 be b3 87 a2 bd d7 3d e4 3d a7 f3 fd 3a
       -0.18152769 -0.07936039 0.111446075 0.0019374982
0001c0 f0 d4 6f 3b 25 9f ab 3b 4b 99 95 3d 15 db 08 be
       0.0036595426 0.0052374774 0.07304629 -0.13364823
0001d0 90 40 fd 3d 42 0b 99 3a 46 cb 4e bc 19 95 40 bd
       0.1236583 0.0011676329 -0.012621706 -0.04701719
0001e0 6a ef dc bc 4b 8a 41 3c 33 b8 ca bb 6b fe d0 bc
       -0.02696963 0.011812757 -0.006186509 -0.025511941
0001f0 a7 5f d8 bc db ba eb bc 73 66 05 bc c4 23 37 3d
       -0.026412798 -0.028775623 -0.008142102 0.044711843
000200 5b fd 92 bd 67 b9 86 bd 95 6a d2 bc dd 97 2e bd
       -0.0717723 -0.065783314 -0.025685588 -0.042625297
000210 19 b0 5b 3e 6d 72 fe 3c 69 4c c3 b9 19 53 00 3d
       0.21453895 0.031060422 -0.00037250228 0.031329248
000220 17 2d 3f 3e 5e 4d 04 3e 10 87 b3 bc 1e f1 27 3c
       0.18669544 0.12920138 -0.021914989 0.010250358
000230 8a 84 59 3c b7 a2 bc bc 86 57 00 3d 50 0b 8d 3c
       0.013276229 -0.023026807 0.03133347 0.017217308
000240 99 24 2d bc 3f a1 19 bd c5 61 3f be a7 63 ad bc
       -0.010567808 -0.037507292 -0.1868964 -0.021165682
000250 d2 6d c3 bc 02 a2 8b bc 8e 6f 32 3c c6 9d 5a 3d
       -0.023856077 -0.017045025 0.0108908545 0.05337312
000260 d9 a3 24 bd 76 6d 3b 3b 47 10 df 3a 29 7d 05 3c
       -0.04019532 0.002859918 0.0017018401 0.008147516
000270 5e f7 c5 3b 42 68 7e bb 85 ff 3b bc ae 4c 7f bd
       0.0060414514 -0.0038819467 -0.011474495 -0.062328987
000280 e7 95 a1 39 14 df ab 3d bb f8 8e bd a1 0a 11 3e
       0.0003082 0.08392158 -0.06981035 0.14164211
000290 34 12 2f bd ed da 10 3e 1c 94 e1 3d dd cd c6 3d
       -0.04274197 0.14146014 0.11014578 0.09707234
0002a0 be 12 b5 3d 87 bf f6 bc 19 b4 af bd da aa 5a bc
       0.088414654 -0.030120624 -0.08579273 -0.013346398
0002b0 d6 78 47 bd d9 41 9a bd 1f 58 b4 3d 2d 08 3f bd
       -0.048699223 -0.07532091 0.0880587 -0.046638656
0002c0 33 84 c6 bd d0 01 6c 3c c9 fd 65 3c 94 af 13 3c
       -0.09693184 0.014404729 0.014037558 0.009014029
0002d0 08 ab 9d 3c bf e3 70 bd 91 25 7f bd c2 7b 8c 3d
       0.019246593 -0.058810946 -0.062291685 0.068595424
0002e0 a6 26 82 3d 1d 74 37 bd ff 91 05 3c e3 1a 37 bd
       0.06355028 -0.04478847 0.008152484 -0.044703376
0002f0 98 4d c5 bc 8c e0 d0 3c e2 be 7e bd f2 7d 4e bd
       -0.024084851 0.025497697 -0.06219376 -0.05041308
