Assets/Models/MLP-Delta-DS2-WithZ-v1.onnx (onnx, 9131 bytes, 6 tensors)

net.0.bias f4 [32]
000000 bb d4 fb be 11 5d 87 3b c5 d7 6e be e1 1d 73 39
       -0.49185738 0.0041309674 -0.23324497 0.00023185417
000010 ff 84 8b bb ba 82 14 3e 13 2d 94 be 70 13 a0 bb
       -0.0042577977 0.14502993 -0.2894064 -0.0048851296
000020 34 ff 23 be eb d2 5f bb c7 d0 0a bf a8 2e 09 3b
       -0.16015321 -0.0034152817 -0.5422482 0.002093235
000030 aa 7d ab 3a 2d d0 93 be fc c1 7e bd 2d a3 3d bb
       0.0013083715 -0.28869763 -0.062196717 -0.0028936372
000040 19 30 b7 3d 01 c6 74 bb a7 03 e4 3a 69 ee 22 bf
       0.08944721 -0.0037349465 0.0017396108 -0.63645035
000050 c6 98 2a 3d 2d 8b a4 bd 2f 14 33 3a fb c5 a8 3d
       0.041649602 -0.08034358 0.00068313157 0.08240887
000060 92 06 9e be 61 91 8c be 37 b6 cc bb 26 83 22 bb
       -0.30864388 -0.27454665 -0.0062473076 -0.002479741
000070 1e 37 f5 bd 61 c0 45 bb c5 1f c6 3a bf 2c 8d 39
       -0.119734034 -0.0030174481 0.0015115669 0.00026926954

net.2.bias f4 [32]
000000 c0 43 d3 ba bd 5e a5 bd ae a4 9b 3c 43 98 cd bd
       -0.0016118214 -0.080747105 0.018999424 -0.10038807
000010 12 c7 1e be d1 ca 5c bd 32 1a 0c be c6 e6 0b bd
       -0.15505627 -0.05390436 -0.13681868 -0.03415563
000020 07 cb c9 bd 64 a3 7b 3c 40 24 a2 3c cd a6 30 be
       -0.098531775 0.01535878 0.019792676 -0.1725113
000030 3e df 8c 3c 87 6a 65 be a9 b5 6c bd 85 77 40 be
       0.017196294 -0.22403918 -0.057790432 -0.18795593
000040 38 e4 32 be c3 40 62 be 76 32 a4 3d f1 46 75 3d
       -0.17469871 -0.22095017 0.08017437 0.059882108
000050 af d0 27 be c4 7e 65 be 5f e4 79 be e6 e1 3f be
       -0.163882 -0.22411638 -0.24403523 -0.18738517
000060 f7 f5 95 bd d4 46 d2 bd 34 54 1f be 46 43 fb 3c
       -0.07322305 -0.10267416 -0.15559465 0.030671727
000070 49 59 80 be ed ce 22 be a6 69 ab 3e 2d 0e 8b 3d
       -0.2506812 -0.15899248 0.3347904 0.06789813

net.4.bias f4 [3]
000000 da 36 5a bb 60 37 3e 39 3c 36 af 3a
       -0.0033296854 0.00018140441 0.0013367604

onnx::MatMul_18 f4 [27, 32]
000000 ca 4a 21 3e 85 47 07 bc c5 fe 44 3d ad 94 9b bc
       0.15751186 -0.008256798 0.04809453 -0.018991793
000010 87 f2 e9 3d 1c 61 9b bc ac e8 b9 3c f1 36 46 bd
       0.114232115 -0.018967204 0.022693954 -0.04839224
000020 e1 7e 83 bb 96 20 bb bc c5 12 20 be a8 73 d4 3d
       -0.004012928 -0.022842687 -0.1563216 0.10373622
000030 62 d7 84 3d f3 b0 43 3e 25 ff 95 3d 74 da f0 3b
       0.064863935 0.1911047 0.073240556 0.0073502604
000040 5e fe 19 bd 1a e8 4b 3d a8 ae 59 bd 15 4a 88 3d
       -0.0375961 0.049781896 -0.05314508 0.06654755
000050 cf 5a 1a 3d 9f 93 6b 3c 02 18 69 bd 46 07 3c bd
       0.037684258 0.014378457 -0.05690766 -0.045905374
000060 d8 2a 7c bb 92 1f 43 bc b0 de 58 3d 18 51 e2 bc
       -0.0038477685 -0.011909382 0.052946746 -0.02762656
000070 ae 5d 27 bd c4 42 07 bd 83 32 4d bd 4c 5d 8b ba
       -0.040860824 -0.033022657 -0.050097 -0.0010632663
000080 ba d1 80 3e a0 f9 6f bb 81 dd 27 be dd 50 25 bd
       0.2516001 -0.0036617294 -0.16393091 -0.04036032
000090 fe 5a 22 b9 b9 cc 73 bc 1c 69 ac 3d 5b 36 29 bd
       -0.00015483421 -0.014880353 0.084184855 -0.041311603
0000a0 64 31 46 3b de a4 a3 3a f9 47 9e 3e 56 21 b4 3b
       0.0030241841 0.0012485047 0.30914286 0.005497138
0000b0 b8 cc b4 3c 47 81 a9 3c b0 80 31 3c 19 76 15 bb
       0.022070274 0.020691527 0.010833904 -0.0022805987
0000c0 06 13 af bc e7 f5 56 3c 6a 86 4c 3c e1 db 53 3e
       -0.021371376 0.013120151 0.012483219 0.20689346
0000d0 df 48 0c 3d 73 7e b1 3b ae 96 ca bc 5b 5d 90 bc
       0.034249183 0.0054166852 -0.024730053 -0.01762264
0000e0 04 f0 31 be e3 57 92 3d 2a 1b 81 3d 78 20 6d bd
       -0.17376715 0.07145669 0.06304009 -0.057892293
0000f0 f7 c2 29 3d e3 04 82 3a bc 56 a3 bc e3 0a 23 3c
       0.0414457 0.0009919669 -0.01993882 0.009951326
000100 af 2b 00 3e 6c 88 81 3c a8 64 98 bd f3 6f 0c 3d
       0.12516664 0.015812121 -0.07441074 0.03428645
000110 61 83 8b 3c 9e 1c a2 bb f6 18 fc bd 92 21 2e 3c
       0.01703042 -0.004947259 -0.123094484 0.010628121
000120 96 04 c4 bc 9e 01 3e 3b 2a 13 b8 3d 22 2f 0d bc
       -0.023927968 0.0028992663 0.0898803 -0.008617194
000130 eb 37 92 bc ac 53 32 3d f8 03 90 3c 96 58 f2 3a
       -0.01784893 0.043536827 0.017580017 0.0018489535
000140 30 fe 62 3b 91 cf bb bb bd 9d 0f 3d a0 9f 0c 3d
       0.003463637 -0.005731531 0.03506254 0.034331918
000150 7d 80 7a bc d4 b8 c5 3b 73 49 18 bd 1b fb 90 3b
       -0.015289423 0.006033996 -0.03717942 0.0044244654
000160 6c e9 09 3d bc 1a c4 3d aa 2c 28 3c 69 e7 fd 3a
       0.033669874 0.09575412 0.010264555 0.0019371334
000170 38 9a 9c bc 43 44 0a bc 89 0c a2 3c 20 96 81 3c
       -0.019116506 -0.008439126 0.019781368 0.015818655
000180 bb 16 32 3d 1b 10 27 3c c9 e0 0f 3e 69 3c a6 bb
       0.04347871 0.010196711 0.14050592 -0.0050731194
000190 b8 72 db 3c 52 8d ce b9 1f 55 51 3d 1f 7d 48 bb
       0.0267881 -0.00039396674 0.05110657 -0.0030592156
0001a0 5b 66 29 3c d7 db 2e 3d 2f 66 22 be 21 f9 f9 ba
       0.010339345 0.042690124 -0.15859292 -0.0019071439
0001b0 8a 40 18 bd 17 c1 67 be c0 70 05 bc 45 3d b7 3c
       -0.037170924 -0.22632252 -0.0081445575 0.022368083
0001c0 40 5d a2 3c 9d 17 a3 bd 4c fc c1 3c 09 39 cc be
       0.019819856 -0.07963488 0.023679875 -0.39887264
0001d0 71 52 8d 3c f3 4a b4 38 e3 ef 31 bd 66 03 56 3c
       0.017251225 8.597029e-05 -0.043441664 0.013062334
0001e0 f1 94 86 3d fe 02 ec 3d be 67 eb 3c 69 46 e9 bc
       0.06571377 0.11524008 0.028735992 -0.028475957
0001f0 5e a5 92 bd a8 bf 89 3b d8 6d b0 3c 20 ab cc 3b
       -0.071604475 0.0042037554 0.021536753 0.0062459856
000200 7d 1e 56 be 05 3d 28 bb eb 64 bc 3d 65 57 d3 b9
       -0.20910068 -0.0025671136 0.09198936 -0.0004031017
000210 ee 8d 4e 3c 40 1c 6f 3b bb e8 87 3d ca 4a 62 bd
       0.012607081 0.0036485344 0.06636187 -0.055247106
000220 23 df 3e 3c a2 f2 c1 bc 89 88 83 3d 86 83 81 bc
       0.01164988 -0.023675267 0.064225264 -0.015809786
000230 ae f4 5c bb dd df 75 bd 40 cd 0c 3d 4c dd 01 bc
       -0.0033715176 -0.060027946 0.03437543 -0.007926296
000240 11 c7 8c bc 96 e8 19 3d f3 32 3c bc 71 61 0b bb
       -0.017184766 0.037575327 -0.011486757 -0.0021267796
000250 61 38 0a bd 39 1e b6 3c 4f e7 87 bb 2b f6 d3 bc
       -0.033745173 0.022231208 -0.004147447 -0.025874218
000260 17 28 75 3e b6 5e 71 3d 1e a5 76 3c 81 cc c7 3b
       0.23941074 0.058928214 0.015054015 0.006097377
000270 d0 27 45 bd 96 65 9f 3b 6b ac c0 bc cb a1 c2 bb
       -0.04813367 0.004864405 -0.023519715 -0.0059396974
000280 30 50 c7 bd 7e 55 65 bb 64 59 11 3d a5 b0 ab 3c
       -0.097320914 -0.0034993584 0.03548564 0.020958254
000290 22 30 b4 bc b4 48 4f bc 0f a8 e2 3d 56 fa 32 3c
       -0.021995608 -0.012651611 0.11067211 0.010923943
0002a0 3b 49 a3 bc 10 e7 f1 bc 60 6d e1 3c d0 60 11 3c
       -0.01993238 -0.029529124 0.027517974 0.00887318
0002b0 74 65 9d bc 64 fe ee 3d cf 02 45 bd 52 a1 ac 3c
       -0.019213416 0.11669615 -0.04809838 0.021073017
0002c0 79 a6 f5 ba 10 f2 0f bb f4 ff b0 bc 0b 86 8b bc
       -0.0018741629 -0.002196435 -0.021606423 -0.01703169
0002d0 53 12 2b bc 18 5d c0 3b ef c9 bf 3c 7e e1 5c bc
       -0.010441381 0.0058704726 0.02341172 -0.013481496
0002e0 b1 8f 01 3c ee d4 f6 bc c4 4a 0d 3c 7c ae ad 3b
       0.007907794 -0.03013083 0.008623783 0.005300341
0002f0 3d 8f 13 3c 21 a8 03 3b 21 01 a3 3c 6d d6 0d bb
       0.009006319 0.0020089226 0.019898 -0.00216427
000300 0c 9e 26 3e 3a 77 d8 bf 6b 65 1a 3e 47 bf 53 40
       0.16271228 -1.6911385 0.1507775 3.3085496
000310 93 f9 22 c0 f6 6b b3 3e e0 60 05 bc 2f 06 29 bf
       -2.5464828 0.35043305 -0.008140773 -0.6602506
000320 83 56 86 be 6d a8 ca 3f 60 c7 a0 3e d4 c3 93 bf
       -0.26237878 1.583265 0.3140211 -1.1544137
000330 e6 d7 89 3d c0 c8 de be 4b 85 8d 3f de ee 83 3f
       0.067306325 -0.43512535 1.1056303 1.0307271
000340 75 60 21 3e 34 59 06 c1 63 66 4b bf 6d 25 6b 3d
       0.15759452 -8.396778 -0.79453105 0.05740874
000350 29 5d 60 c0 80 d0 57 bf a4 66 6c c0 d8 01 6c bf
       -3.505686 -0.8430252 -3.6937647 -0.92190313
000360 ce 1d 7c c0 75 bb d7 3d d5 1b 1e 40 d2 14 49 bf
       -3.9393191 0.105338015 2.4704487 -0.78547394
000370 ee d4 4f 40 7a 1b 7f 3e 6d 1d 32 c0 e7 9f ce bd
       3.2473712 0.24912825 -2.783046 -0.10089093
000380 d0 2f 54 bf c4 8f b0 3e 93 e7 fe bc a7 29 05 c0
       -0.82885456 0.34484684 -0.031116283 -2.0806673
000390 e2 a3 95 3f a4 d4 94 3f c3 32 4c bd 11 7e d3 bf
       1.1690638 1.1627393 -0.049853098 -1.6522847
0003a0 ac 5e c2 be 4e 3e 37 3d 08 77 d3 be cd 32 21 3f
       -0.37962854 0.044737153 -0.4130175 0.6296814
0003b0 60 c7 0e bf 05 40 f4 bc eb 14 88 40 a0 77 4e bd
       -0.5577297 -0.029815683 4.2525535 -0.050407052
0003c0 1f 30 4f c0 ba ed 43 40 d0 f0 38 be 2f 9f a9 be
       -3.237312 3.0613847 -0.18060613 -0.3312926
0003d0 aa dd 53 c0 84 30 40 40 fc 51 a2 3f 92 ca ac c0
       -3.3104043 3.0029612 1.268127 -5.399728
0003e0 0b a7 95 c0 19 d7 da 3a 6b 1e 62 40 bb f0 b4 bf
       -4.676641 0.0016696184 3.5331066 -1.4135965
0003f0 cc 26 cf bf ca bb a7 be 51 a4 44 3f c5 98 67 3e
       -1.6183715 -0.3276046 0.76813227 0.2261687

onnx::MatMul_19 f4 [32, 32]
000000 c2 47 8b be 84 cd 49 be a1 ed 84 3e 49 39 d7 3b
       -0.27203184 -0.19707304 0.25962546 0.006568108
000010 fb e9 c1 bc 95 d9 51 be 3a 90 24 be 99 4c b3 be
       -0.02367114 -0.20493157 -0.16070643 -0.35019377
000020 1f 45 7a 3d bc aa f2 3d ac 0b 14 be e7 a1 1c bc
       0.061101075 0.11848971 -0.14457577 -0.009560085
000030 f2 fd 6c 3e 94 fb 9f be 9d 30 09 be f6 76 1f 3d
       0.23143747 -0.31246626 -0.13397451 0.03893181
000040 66 11 9c 3d 80 ca 25 3d d9 49 ac bc 68 9c 2e 3e
       0.07620506 0.040476322 -0.021031307 0.17051852
000050 90 54 2c 3d 0c f5 c9 bd b8 08 29 bd 6b d2 90 3c
       0.042072833 -0.09861192 -0.04126808 0.01767846
000060 21 0b bb bd 88 a0 10 be 6b 41 05 3e 71 4e d7 bd
       -0.09132982 -0.14123738 0.13013236 -0.105130084
000070 db da 0b 3e ad 56 c9 3e 43 1c dd bd 0c b1 cd 3d
       0.13657705 0.3932394 -0.10796406 0.10043535
000080 f6 0e 94 3f b3 55 17 c0 e6 08 74 3e 9e dd fa bc
       1.1567066 -2.3646057 0.2383152 -0.030623253
000090 02 28 68 3d c4 40 c0 bc 7c 04 8d 3d 0e 79 48 3e
       0.05667878 -0.023468383 0.06885621 0.19577429
0000a0 8b ca 57 bd c4 86 05 be e9 fe 78 c0 eb 10 63 be
       -0.052683394 -0.1303969 -3.8905585 -0.22174422
0000b0 da 9a 9b bf 99 4c 80 3c 6d 1d e6 3e 7d 3a 5b 3c
       -1.2156632 0.015661525 0.44944325 0.013380644
0000c0 43 6f 8a 3d d0 63 db 3d 38 3d 41 bd e0 54 6a 3e
       0.06759503 0.10712397 -0.047177523 0.2288394
0000d0 f4 fd 7a 3d 42 7a 8e 3c f8 a9 9c 3d a3 4e ea 3c
       0.061277345 0.017392281 0.076496065 0.02860195
0000e0 13 7e 1a 3d 3f cc a1 bd f5 c3 3c be 09 f9 c5 be
       0.03771789 -0.07900285 -0.18434127 -0.3866656
0000f0 3d d1 1a be 95 0c 15 be 83 a6 5a bf a6 6e 0f 3f
       -0.1511888 -0.14555581 -0.85410327 0.5602821
000100 28 8a a8 bc 79 ec fb 3d 41 e8 56 bc 45 82 ad ba
       -0.02057369 0.12300963 -0.013116897 -0.0013237676
000110 bc d5 14 3d 77 68 bf 3d 1a 64 fe 3d 9d ab 08 be
       0.036336645 0.09346097 0.124214366 -0.13346715
000120 2e 16 07 3c 63 8f 09 be 56 85 67 3d eb 9e 2f be
       0.008245034 -0.13433604 0.056523643 -0.17150466
000130 d4 bf 3d be c2 a5 ab 3b 0a f9 cb bd 5f ad 67 bc
       -0.18530208 0.0052382657 -0.0995961 -0.014140456
000140 3b e3 00 be 6c 9e 01 be db df b5 bd 93 42 1c 3d
       -0.12586682 -0.1265809 -0.08880588 0.038149428
000150 00 ff 93 3c 9d 23 98 3d 2e d4 b7 3d bb d8 02 be
       0.01806593 0.07428668 0.08976017 -0.12777989
000160 7c bb 30 be 06 7c 94 3d f9 af c8 bd 5a 08 e0 bd
       -0.1725902 0.07250218 -0.09799189 -0.10939093
000170 bb da f5 bd 0a 54 97 3c 5a 16 7b bc be c1 f7 3d
       -0.1200461 0.01847269 -0.015325153 0.120975
000180 8a 9b f4 be 9a 08 ee be 1b 47 a7 bd c7 6f 0b 3d
       -0.47774917 -0.46490937 -0.08167859 0.034042146
000190 2d e6 41 3d cd 27 2e bf 64 31 80 bc 77 b2 35 bf
       0.047338653 -0.6802948 -0.015648551 -0.7097544
0001a0 d1 5d 38 bd 8d c7 14 3d b3 32 f5 3e 5e a5 7a bd
       -0.045011345 0.03632312 0.47890243 -0.061192863
0001b0 29 ce fb bc ac 5b 5a be b9 2b a0 bf 3e 10 34 3e
       -0.030737953 -0.21324033 -1.2513343 0.17584321
0001c0 4e 1b 98 bd 02 50 f0 3d e7 29 fd 3c 08 db f7 bd
       -0.07427083 0.1173401 0.03090377 -0.12102324
0001d0 76 37 ab 3d 90 e9 e4 3d b9 0e 8a bd 3a cc 8e be
       0.08360188 0.11177361 -0.067410894 -0.27890188
0001e0 7a 50 05 bd 6f ad 81 be 1b aa 91 3c 70 16 62 bf
       -0.03254745 -0.25327632 0.017781308 -0.88315487
0001f0 cd 77 18 3c cd 70 99 be 85 27 c1 3e c5 c5 9f bf
       0.0093059065 -0.29968873 0.37725464 -1.248223
000200 a9 48 7b c0 20 4f 25 c1 95 e9 50 bf 3c 3c d5 be
       -3.9263098 -10.331818 -0.8160642 -0.41647518
000210 26 1e a4 bd d9 6b 9d bf 2c e9 8c 3b cf 27 a4 3e
       -0.08013563 -1.2298537 0.004300257 0.32061622
000220 cf 79 aa be 02 72 af be 41 3f e8 c0 46 5d 1d bd
       -0.33296058 -0.3426667 -7.2577214 -0.03841903
000230 cc c9 63 bf d4 c0 54 3b 7f 49 ef 3d fb 95 2e be
       -0.8897979 0.0032463567 0.1168394 -0.170494
000240 6a 08 00 be d9 25 3b bd 69 d1 b9 be a9 c5 25 bf
       -0.1250321 -0.04569039 -0.3629258 -0.6475473
000250 ac 24 0b be 16 96 f4 3c 07 ca 11 3e 5c af 9f 3d
       -0.13588208 0.029856723 0.14237224 0.07797119
000260 a1 cc dd bd 72 4c 81 bd be 5d 86 be 2a 2c e1 bd
       -0.108300455 -0.06313409 -0.26243395 -0.10994752
000270 20 56 01 be a3 27 09 3d 17 32 f2 bf e6 c3 2c 3e
       -0.1263051 0.033485066 -1.8921536 0.16871604
000280 eb 5c dd bd 11 45 9b 3d d8 5e e2 3b 2f a2 53 be
       -0.10808738 0.07581533 0.006908279 -0.20667337
000290 2d df 22 be fe 88 91 3e 6c 41 34 bd a5 48 71 3d
       -0.15905447 0.2842483 -0.044007704 0.05890717
0002a0 28 c4 26 be 4f c0 83 3d e4 fa 48 be e8 c0 2b be
       -0.16285765 0.06433164 -0.19626957 -0.16772807
0002b0 af 80 9b bd 20 19 a8 bd 38 4b 04 3e 1b b2 37 be
       -0.07592904 -0.08207917 0.12919319 -0.17939036
0002c0 5a 34 92 bc d4 36 39 bd ee f9 f7 be f6 ea 14 be
       -0.017847229 -0.045218304 -0.4843287 -0.14542755
0002d0 6a 0b 71 bd 4d 50 8e be cd 63 20 bd 2a 79 0a 3c
       -0.058848776 -0.2779564 -0.039157677 0.008451739
0002e0 62 d2 6e bc 3a 23 d8 be ce 36 67 bd 54 50 66 be
       -0.014576526 -0.42214376 -0.05644875 -0.2249158
0002f0 13 4f 44 3d 6c fa c2 3d c4 a0 be bd 46 11 23 bf
       0.047926974 0.095204204 -0.09308007 -0.6369823
000300 26 cf 3b bd bb d6 dc bd 01 53 60 bd 92 c6 72 3d
       -0.04585185 -0.10783144 -0.05476666 0.059271403
000310 02 c8 88 3d 20 e7 a5 bd 39 6b 15 bd 84 89 b0 bd
       0.066787735 -0.08100724 -0.03647921 -0.08619979
000320 d6 0b d1 3d bc 55 b5 bd 39 ec 2b be af 8d f8 bc
       0.10207336 -0.08854243 -0.1678933 -0.030340998
000330 2a 39 45 bc 7c ac e1 bc 3e c3 9d bd 33 af 11 3e
       -0.012037555 -0.027548067 -0.07703255 0.1422699
000340 c4 15 10 3d d5 37 1a be 1c 75 95 3d a9 c5 07 3d
       0.035177007 -0.1506036 0.072977275 0.033147488
000350 43 b5 0b be c9 93 0f be 14 d0 27 be 86 95 e6 3d
       -0.13643365 -0.1402122 -0.1638797 0.11258988
000360 0e 68 91 bd c8 ff 9f be c7 8a 70 3d b1 23 d2 bc
       -0.07099925 -0.31249833 0.0587261 -0.025651785
000370 42 76 8c bd 5f cb 7a bd 76 61 18 bd 80 14 3f bb
       -0.068584934 -0.061229106 -0.03720232 -0.0029156506
000380 91 26 9e 3e 20 3f 27 3e f9 55 ac 3e 6f 16 7f be
       0.308888 0.16332674 0.33659342 -0.24910901
000390 f1 a9 a9 3d fa 15 9e bf 21 99 1b bd 84 dd 24 3e
       0.08284367 -1.2350457 -0.037987832 0.16100127
0003a0 e7 67 a5 3d 8a a8 d7 3f 43 e3 96 3e 9c ba 80 bc
       0.080764584 1.6848309 0.29470262 -0.015713982
0003b0 03 8e 95 3e 7f d1 5b be 33 5d df 39 8c eb fe 3d
       0.2920991 -0.21466635 0.00042603313 0.12447271
0003c0 53 66 a5 3d be a3 e9 bd fb 8a 16 3f 39 1d 2a 3e
       0.080761574 -0.114081845 0.5880582 0.1661271
0003d0 f4 ae d9 bd d1 d6 79 bd a7 1a 9f 3d 66 bb 47 be
       -0.10629073 -0.06099588 0.077687554 -0.1950508
0003e0 a9 65 3d be 7d ed 6c 3d 11 88 c1 bd d8 60 14 3f
       -0.18495812 0.057843674 -0.09449781 0.5796027
0003f0 db 8e 97 3d f8 73 ee 3e 78 a7 6c bf 2d 03 2a 3f
       0.074002944 0.46572852 -0.9244304 0.66411096

onnx::MatMul_20 f4 [32, 3]
000000 f3 92 25 3e 9f ce 9f bd 71 b0 b7 bd fa 55 71 bd
       0.16169338 -0.07803082 -0.089692004 -0.058919884
000010 89 61 e2 3c 8e 1d e4 bd 9c c6 62 3d e8 8f 22 bd
       0.027634399 -0.111384496 0.05536519 -0.03968802
000020 e4 db fc bd cb c6 a5 3c fc d6 91 3d 9e 39 4f bd
       -0.12346628 0.020236393 0.07121083 -0.050592057
000030 26 84 c5 3d e3 07 d7 bd c0 b0 5e bd 63 20 60 bd
       0.09644346 -0.10499551 -0.05436778 -0.054718386
000040 ce b0 99 3c 69 9c a8 bd 11 c1 45 bc 7f a3 dc 3b
       0.018761065 -0.08232958 -0.012069956 0.0067333574
000050 d6 de 0d bd 69 d9 d6 bd f8 44 8f 3c fa 7e c3 bd
       -0.03463634 -0.104906864 0.017488942 -0.09545703
000060 1e 68 61 3c 20 08 00 bc af 78 1c 3d 64 ef 54 bd
       0.013757734 -0.007814437 0.03820103 -0.051986113
000070 97 95 f5 bd 6d a9 0d 3b be d2 b6 bd 4d 07 44 3d
       -0.119914226 0.0021615878 -0.08926915 0.047858525
000080 78 9a 43 3d 16 49 eb 3d 60 f0 3e bb 63 8d ad 3c
       0.047754735 0.114885494 -0.0029134974 0.021185583
000090 ab 66 df bd 8f ed 7c 3d d3 b4 c7 3c 75 cc 28 bd
       -0.10908254 0.06174999 0.024378216 -0.04121061
0000a0 79 f7 f1 3c e1 7a ff 3c 36 b9 9d bd cc ed 31 be
       0.02953695 0.031186523 -0.07701342 -0.17375869
0000b0 89 38 c6 3d fa fc 4e bd cc d9 9d bd b1 c6 10 3b
       0.09678752 -0.050534226 -0.07707557 0.0022091086
0000c0 5a 1e fd bd b3 c7 63 3d 90 19 1d bd 22 c6 d1 3c
       -0.12359305 0.05561037 -0.038354456 0.025607172
0000d0 8f 73 f0 bd 4a 2b a9 3d ea 53 33 3d 84 df f3 3d
       -0.11740791 0.0826021 0.0437812 0.119078666
0000e0 a3 99 e2 3b 35 db b0 3d 3d 71 2f bd d1 d9 e5 3d
       0.0069152876 0.086355604 -0.0428326 0.11223186
0000f0 45 45 37 3d cc bd 4a bb c8 95 86 3d 0c 69 1a bd
       0.044743795 -0.0030935882 0.06571537 -0.037697837
000100 52 f9 df 3c 27 9e 35 bd a3 9a c7 bd 60 c8 be 3b
       0.027340565 -0.04434028 -0.097462915 0.0058222264
000110 a2 96 74 bc 06 63 5e 3d 94 10 23 bd 86 9b 79 bd
       -0.014928492 0.054293655 -0.039810732 -0.060939334
000120 97 f2 a6 3c b9 b1 02 3e 2c a8 a9 3d 6d 89 03 bd
       0.020379348 0.12763108 0.08284029 -0.03211348
000130 bd 60 51 bd e7 c1 70 bd b7 c2 9d bd aa a9 ae bb
       -0.051117647 -0.05877867 -0.077031545 -0.005330284
000140 9d 42 af bd 7f 93 50 3a fb f8 9b 3c 1f e1 a5 bd
       -0.08557627 0.0007956549 0.019039622 -0.08099579
000150 55 fe 1b 3e 51 de 17 3e 93 e4 96 3d 78 34 1c 3d
       0.15233739 0.148309 0.07367816 0.038135976
000160 e6 ea f8 bc 66 0e e4 bc ef 92 25 bd 5c 93 b2 bd
       -0.030385446 -0.027838897 -0.04042333 -0.08719513
000170 6a 99 0a 3d ef 6d 9d 3d 67 3f 4e 3e b2 62 3c 3d
       0.033837713 0.07686984 0.20141374 0.04599256
