Assets/Models/MLP-90Hz-NoHead-Delta-WithZ-v1.onnx (onnx, 3431 bytes, 6 tensors)

net.0.bias f4 [16]
000000 76 ca 03 3c e7 e3 20 bd ba 2d d9 3d 27 d7 07 3e
       0.008043876 -0.039279845 0.10604425 0.13265668
000010 43 7d 23 be 58 3a 11 bd ff 36 ee bd 8d ca 64 3c
       -0.15965752 -0.03545603 -0.116315834 0.0139643075
000020 0e 33 2a bd 41 e0 10 be 3f a7 81 bc cf 60 10 bd
       -0.041552596 -0.14148046 -0.01582682 -0.035248574
000030 6b 25 00 be 96 12 8e 3d 75 07 14 bd 2e a6 d0 bc
       -0.12514274 0.06937139 -0.036139924 -0.025469866

net.2.bias f4 [16]
000000 03 0e d9 bd aa 7a 9a bd ae 63 b3 3d 9a 6d 0a 3e
       -0.10598376 -0.075429276 0.08759247 0.13518372
000010 c7 a3 1c 3d 7a 11 c5 3d c5 9b 09 be 20 a0 bc 3d
       0.038242128 0.09622474 -0.13438328 0.09210229
000020 8a 93 9c 3d 15 1c af be 36 e2 85 bd c5 7d a9 3d
       0.07645328 -0.34201112 -0.06537287 0.08275942
000030 c9 6e 97 3d ed 10 9f be d8 79 34 be 70 ef 75 3c
       0.073941775 -0.310676 -0.17624605 0.0150107

net.4.bias f4 [3]
000000 58 41 ec bb 86 a9 1d bc 88 d1 c5 3a
       -0.007209938 -0.009622937 0.0015092352

onnx::MatMul_18 f4 [18, 16]
000000 bd 44 82 3e 2d a4 f4 3e b8 fd 0c 3f f2 14 ea 3e
       0.25443068 0.47781506 0.55074644 0.45719105
000010 40 00 83 3f 9f 5b 34 3e 1e 9f 44 3e b4 45 80 3e
       1.0234451 0.17613076 0.19201323 0.2505318
000020 2a 8a e6 3e 52 6b 9c bd ab 89 09 3f e2 32 42 bf
       0.45027286 -0.07637657 0.5372569 -0.7585889
000030 48 16 1a 3f cd 1b 3a 3d 26 18 8f bd 16 49 17 bf
       0.6019025 0.04543667 -0.06987028 -0.59095895
000040 3b fc 06 bf d9 73 a5 be 83 be 4d bf ac af 08 3f
       -0.52728623 -0.32314947 -0.8036882 0.53393054
000050 87 f5 a5 3e f5 bc 13 bd 73 c7 f3 3e ae f5 70 be
       0.32413885 -0.036068875 0.47613105 -0.2353122
000060 a8 1a 76 3e c5 e1 bb be 39 50 3a 3f 9a 72 f1 be
       0.24033606 -0.36695686 0.7277866 -0.47157747
000070 2a c0 8c 3f 42 45 04 be 4c 2e 31 bd cc 11 57 3f
       1.0996144 -0.12917045 -0.043257043 0.8401153
000080 29 94 e5 bf 7d d7 33 3c b8 a0 b3 3e 7b 99 8c 3e
       -1.793584 0.010976669 0.35083556 0.27460846
000090 fb ad 69 3c 31 ba 3f 3d 09 0a ed 3e 59 f4 71 be
       0.014262672 0.046808425 0.4629672 -0.23628367
0000a0 a5 f0 03 bf 4a d5 0d 3f 1b cc 0a c0 ee f0 16 c0
       -0.5153907 0.5540358 -2.1687076 -2.3584552
0000b0 36 4a b5 be bd d6 b5 3e 34 01 a8 be ef b7 f4 bf
       -0.3540818 0.35515395 -0.32813418 -1.9118632
0000c0 fe eb e7 3e 4b 70 66 be 0c a2 6d 3f fc ff 13 3f
       0.45297235 -0.22503774 0.9282539 0.57812476
0000d0 30 9c b3 3e 43 21 1e bd 68 11 49 bf 04 11 e7 be
       0.350801 -0.03860594 -0.78542185 -0.4513017
0000e0 65 3a ea 3e 40 71 a3 3e 20 79 3a 3f 87 26 de be
       0.45747676 0.3192234 0.7284107 -0.4338877
0000f0 3a ad c8 3e a5 1c 29 3e 4b 21 33 bf 39 bb b6 be
       0.3919466 0.16514833 -0.69972676 -0.35689715
000100 9a e0 b9 be 38 63 a6 bd 24 a9 59 bf f5 1f 06 3f
       -0.3630417 -0.08124393 -0.85023713 0.5239251
000110 2a f1 bc be fa 0f 0f 3f e4 65 0c 3e bb 66 86 be
       -0.36902744 0.55883753 0.13710743 -0.26250252
000120 d6 9e 34 3d d7 4e fa be 2e cb 21 3f 50 9e b7 be
       0.04409679 -0.48888275 0.6320065 -0.3586297
000130 17 58 5f 3f 07 c3 34 be 2f ca 18 be 08 a6 55 3f
       0.8724379 -0.17652522 -0.14920877 0.8345647
000140 04 20 fe bf 6e 9c 6b be ae 74 5f 3f 78 37 ca 3e
       -1.985352 -0.23008892 0.87287414 0.39495444
000150 ff ff 37 bf 27 59 15 3f de 54 11 bf 7e e5 6e bf
       -0.71874994 0.5833916 -0.5677012 -0.9331893
000160 38 6b 67 3e 90 3a 52 3f 4c e4 e3 bf 14 19 db bf
       0.22599494 0.8212061 -1.7804046 -1.7117028
000170 62 6b 5a bf b3 f7 11 3f 10 75 b0 3e b1 22 ea bf
       -0.85320103 0.57018584 0.34464312 -1.8291837
000180 bb 3f c5 3e 46 e6 67 3e 2d b4 64 3e f5 dc 16 3f
       0.38525185 0.22646436 0.22334357 0.58930904
000190 59 ac a3 3f c3 37 b4 bc 76 f9 ce be e3 8b 1d be
       1.2786971 -0.021999246 -0.404247 -0.15385394
0001a0 28 c6 69 bd 7a 10 28 3b 68 2f a1 bd 9e 76 dc be
       -0.057073742 0.0025644586 -0.0787037 -0.43059248
0001b0 57 20 d3 3d f4 7e 16 bf 94 ae 3a 3f 48 33 c2 be
       0.10308903 -0.58787465 0.72922635 -0.3792975
0001c0 02 30 ef be 19 7b 02 3f 67 f9 14 bf ef 58 6e 3f
       -0.46716315 0.5096908 -0.5819306 0.9310445
0001d0 26 43 b6 3d 19 5d 46 bf 27 d3 2e 3f a6 e2 8b be
       0.08899526 -0.77485806 0.6829094 -0.27321357
0001e0 95 82 73 3e 65 4b e6 be 0c a0 a5 3e 17 29 b0 be
       0.23780282 -0.44979396 0.3234867 -0.3440635
0001f0 e3 9f 32 3f 56 05 bd 3e 34 e7 c0 3e 0b c5 9c 3e
       0.6977522 0.36918133 0.37676394 0.30619082
000200 1e bb b4 bf 3f 26 31 bf c4 27 0a 3f bb 33 b6 3e
       -1.4119604 -0.69198984 0.5396693 0.35586342
000210 85 59 b0 3e cf 31 98 bf 6a ab 05 3e fa 00 65 bf
       0.34443298 -1.18902 0.1305367 -0.89454615
000220 36 b0 a7 bf 9d 0a 0e 3f 12 80 86 bf 6a 1a 8a bf
       -1.310065 0.55484945 -1.0507834 -1.0789311
000230 bc cf bd 3d 24 d5 47 3f 45 a4 99 bf 1c 21 86 bf
       0.09268138 0.780596 -1.2003256 -1.0478854
000240 af 12 31 3f ed d0 21 bf 8f 7d 49 3f 06 1b 40 3f
       0.69169134 -0.6320942 0.7870721 0.75041234
000250 d3 0d eb 3e 6d d6 34 be 89 db 93 bf e9 34 64 bf
       0.45908985 -0.17659922 -1.1551372 -0.89143234
000260 63 8a 53 be c9 4f 77 3e e5 95 e2 3e da ef ea 3d
       -0.20658259 0.2415153 0.44254985 0.11471529
000270 7d c0 6e 3f 88 5f a5 be 61 7f 52 be 68 bf cc 3b
       0.93262464 -0.32299447 -0.20556404 0.0062484033
000280 da 8a 6c be e5 96 25 3f be 63 fc be 46 bd 60 3f
       -0.23099843 0.6468337 -0.49294847 0.8778881
000290 14 98 89 be 63 a6 6e 3d 09 97 00 3d 52 9d ad be
       -0.2687384 0.058264147 0.03139404 -0.33909088
0002a0 aa 09 08 bd 31 55 06 bf 4a b3 a6 3e 06 d4 7e be
       -0.03321234 -0.5247374 0.32558662 -0.24885568
0002b0 41 21 4a 3f 0d 30 c1 3e 02 62 3a 3e ef d5 db 3e
       0.7895699 0.37731972 0.1820145 0.42936656
0002c0 7a 5f d8 bf 21 3e 8c bf 32 5c 89 3f 00 6d 07 3f
       -1.6904137 -1.095646 1.0731261 0.52900696
0002d0 e9 f3 91 bf 78 b3 81 3e c4 84 88 bf 2b 16 c8 bf
       -1.140256 0.25332236 -1.0665517 -1.5631765
0002e0 41 af 95 be fd 5c 58 3f 73 59 52 bf e3 07 05 bf
       -0.2923527 0.8451689 -0.8216774 -0.5196516
0002f0 c5 21 72 bf e2 28 54 3f 5d 4f d1 be 9b c1 62 bf
       -0.9458278 0.8287488 -0.40880862 -0.8857667
000300 30 19 75 bd 7e ce c4 bc fb 96 44 be bd c2 fe 3e
       -0.059838474 -0.024024244 -0.1919822 0.4975795
000310 fc 61 87 3f bb ae a6 3b 01 2f 44 be ba 08 13 be
       1.0576777 0.0050867475 -0.19158556 -0.14358798
000320 2a 73 7a bf 71 96 88 bd a6 ac c4 be f9 76 34 be
       -0.97831976 -0.066693194 -0.3841297 -0.1762351
000330 c6 60 12 bf d3 e1 7d bf 6e f5 8d 3f ad 92 33 be
       -0.57178915 -0.99172705 1.1090524 -0.17536421
000340 24 7b 3d be 94 28 9b 3f 91 4a 13 3e 38 8c 54 3f
       -0.18504006 1.2121758 0.14383914 0.83026457
000350 30 0d ce bd c0 0b 8a bf 8d 1f 05 3f 3a 87 96 be
       -0.10061109 -1.0784836 0.5200127 -0.29400045
000360 39 c3 1d 3e f9 57 81 be a8 0f 1e be b7 26 2c bd
       0.15406503 -0.2526243 -0.1543566 -0.04202911
000370 eb b5 95 3d 16 aa 61 3f 2c 84 12 3f 1d ac 2d be
       0.07310089 0.88150156 0.5723293 -0.16960187
000380 1e 73 06 be 5b e8 6d bf ed f6 20 3f 55 e3 9e 3e
       -0.13129851 -0.9293267 0.6287678 0.31032816
000390 b2 34 7c 3e b9 b5 df bf 8c bb b1 3e cc 8a 68 bf
       0.24629477 -1.7477332 0.347134 -0.9083679
0003a0 a2 10 d4 bf 54 79 95 3e 28 62 0b 3e 42 17 45 3e
       -1.6567576 0.2919413 0.13611662 0.19247153
0003b0 d7 23 dc 3e 00 87 55 3f 10 a8 ba bf b6 c9 85 bd
       0.42996094 0.8340912 -1.4582539 -0.06532614
0003c0 9a 3a 66 3e c4 f4 36 bf b6 70 71 3d 2b 0d 13 3f
       0.22483292 -0.7146723 0.05894538 0.5744197
0003d0 0c 5b d5 3e 1c 08 e7 bd c3 58 38 bf 30 9b 1f bf
       0.41671026 -0.112808436 -0.7201044 -0.6234617
0003e0 56 aa 9a bf dd 10 96 be 30 c9 c6 3d 74 16 c4 3e
       -1.2083232 -0.2930974 0.09706342 0.3829838
0003f0 ea e4 9b 3e 42 34 71 bf d1 f2 1d 3f 9f fd 71 3e
       0.30448085 -0.94220364 0.61698633 0.23631905

onnx::MatMul_19 f4 [16, 16]
000000 70 16 46 be 2e d3 a0 be 97 ce f0 3d 40 a2 8a bf
       -0.19344497 -0.31411117 0.11758154 -1.0830765
000010 b8 cd 2a 3d cd 3c 8f be aa 44 1f 3e dc f3 0d bf
       0.041700095 -0.27976075 0.15553537 -0.55450225
000020 5c eb f4 3e 16 59 d0 3d 7f 1b cd be 82 99 e1 3e
       0.47835815 0.10173242 -0.4006004 0.4406243
000030 9b 4c 73 bf c8 51 0f bd bf 45 2c 3d 10 e8 28 bf
       -0.95038766 -0.034990102 0.042058703 -0.659791
000040 3e ea 11 3e be b3 d8 3e 28 1f cd 3d b6 3c 68 be
       0.14249513 0.42324632 0.10015708 -0.2267941
000050 24 e9 d8 3d ea bc a0 3e 39 ad 10 3e 89 bc db be
       0.10591343 0.3139413 0.14128579 -0.42917278
000060 d1 ea f4 be 52 1b 33 3e 7d 53 20 be ef d3 3f be
       -0.478354 0.1749089 -0.15656848 -0.1873319
000070 fa 5e 88 bf 9c b0 cd 3d 42 f4 c2 bc c6 9a fc be
       -1.0653985 0.10043451 -0.023798112 -0.49336833
000080 7e 74 da 3e e6 11 d8 3d b7 f1 52 be 00 5a b8 3e
       0.42667 0.10550289 -0.2060002 0.36006165
000090 d1 4d c6 3d 6e c1 84 be 60 9a 21 3e f2 c7 b7 be
       0.09682811 -0.25928825 0.15781546 -0.35894734
0000a0 6c bb d1 bd 6f b8 6a be f9 49 c4 be 38 1c 92 be
       -0.10240826 -0.22921918 -0.38337687 -0.28537154
0000b0 b1 3f 9c be f6 09 29 be 02 f4 81 be ce 52 14 3f
       -0.30517343 -0.16507706 -0.25381476 0.5793885
0000c0 d1 d9 12 3e ae 96 d0 bc 09 ae cb 3d 93 6a 28 bf
       0.14340903 -0.025462475 0.09945304 -0.6578762
0000d0 79 d1 50 3e 66 bd d2 3d 48 43 9a 3d a8 ee 36 be
       0.20392407 0.10290031 0.07532364 -0.17864478
0000e0 a1 6f 03 be 2d ba 10 bd 45 86 cf be b8 30 2e bf
       -0.12835552 -0.0353338 -0.40532127 -0.6804309
0000f0 c0 c7 47 3e 20 87 a4 be 52 4b 2d be f2 f1 61 3e
       0.19509792 -0.32134342 -0.16923264 0.22064951
000100 2c fb bc 3e 65 0f f5 bd 77 8d 4d be ae 0b 35 bf
       0.3691038 -0.11965827 -0.20073496 -0.70720947
000110 a0 86 c9 3e 01 06 bf be 90 1b 03 3d f2 b1 13 bf
       0.39360523 -0.37309268 0.032008708 -0.576934
000120 b4 ef 27 be af 56 8b be 1d 0c 04 bf 6d 7f 47 bf
       -0.16400033 -0.27214572 -0.51580983 -0.7792881
000130 e1 e8 70 bf ad 56 37 3d 9c db 51 be a3 79 d8 bf
       -0.94105345 0.044760395 -0.2049393 -1.691212
000140 9d 8e a4 bd e5 35 ab be 86 87 c7 be 72 d5 95 bf
       -0.08035014 -0.33439556 -0.38970584 -1.1705763
000150 31 ac ad 3e 81 12 10 bf 0b 29 ab be fc b9 6e be
       0.33920434 -0.56278235 -0.3342975 -0.23313135
000160 64 02 14 be 79 ad 50 bd 04 34 92 3e 69 a6 cb be
       -0.14454037 -0.050946686 0.2855531 -0.39775398
000170 0e 90 e8 bd bd fa 45 be bc a3 74 3d 6e 63 d7 be
       -0.11355601 -0.1933393 0.05972646 -0.42068046
000180 98 7a 6e 3e cc 47 bb 3e 17 9d e7 be f6 74 0c bf
       0.23288953 0.36578214 -0.45237038 -0.5486597
000190 ad 16 17 3f b6 d6 93 be 93 e6 e2 bd d7 14 35 bc
       0.59018975 -0.2887475 -0.11079135 -0.011052332
0001a0 e9 28 7a bf 74 46 e0 3d 6c b7 ca 3e 69 03 d3 bf
       -0.97718674 0.10950938 0.39593065 -1.6485416
0001b0 be 88 51 bf ac da 92 be 31 d3 10 3e 14 68 1d bf
       -0.81849277 -0.28682458 0.14143063 -0.61486936
0001c0 83 05 6c bf 5d 7a 00 be a8 a3 fc bd 9c 60 10 bf
       -0.9219591 -0.12546678 -0.123359025 -0.56397414
0001d0 fe 89 fb be 5d 61 61 3e 63 7c 07 bf 1d da 43 be
       -0.49128717 0.22009797 -0.52924174 -0.19126172
0001e0 9e 32 4b 3d 72 bd 50 be e6 e6 d2 be b4 09 0b bf
       0.04960882 -0.20384768 -0.41191787 -0.5431168
0001f0 5b 94 14 bf 1c 97 9c be 9a 8b be bd a7 2c 08 bf
       -0.5803887 -0.30584037 -0.09303971 -0.53193134
000200 e5 02 d0 3e 0c 6b 59 3e 06 2d 45 be 05 6e c0 be
       0.40627208 0.21232241 -0.19255456 -0.37583938
000210 fb 84 30 3e 76 af d7 3d a7 ed 00 be d6 ca 81 3e
       0.17238228 0.105315134 -0.12590657 0.25350064
000220 ee 89 ee be 89 4f 3e 3d f4 f0 ba be 5a bf 77 bf
       -0.46589607 0.04646257 -0.36511958 -0.96776354
000230 20 7b c6 bd f8 5d 75 bd 08 9d f5 3d 38 b5 32 3f
       -0.09691453 -0.05990407 0.11992842 0.6980777
000240 5a 80 cf bd 93 97 0f bf 2d c9 92 bd c5 78 39 bf
       -0.10131903 -0.5609066 -0.071672775 -0.72449905
000250 65 3e a0 be 0e c5 a5 3e 39 60 70 bf 48 e4 70 bf
       -0.31297603 0.32376903 -0.93896824 -0.9409833
000260 22 1c 53 be f3 21 85 bd 35 5d c4 3b 36 59 4b bf
       -0.206162 -0.06500616 0.0059925565 -0.79433
000270 92 cc e5 bf 94 7f 86 be 48 7a 32 3d d9 00 c8 bf
       -1.7953055 -0.2626921 0.043573648 -1.5625259
000280 1e 4f e7 bd 58 70 df be 83 49 19 3f e6 58 d2 bd
       -0.11294387 -0.436404 0.59877795 -0.10270862
000290 c9 c9 e1 bd 7c d9 0d bf 67 65 24 3f 05 dd 3d bf
       -0.110248156 -0.5540998 0.6421723 -0.74165374
0002a0 90 4d 89 3e 80 20 52 3d 1a bf ab 3e 55 a8 16 3f
       0.26816988 0.051300526 0.33544236 0.58850604
0002b0 61 bb 33 bf d8 70 21 3e ca 91 df bc 7c a6 ff be
       -0.7020779 0.15765703 -0.027291197 -0.49931705
0002c0 2b 4a a6 3d 73 3a 78 3e 79 37 60 bf 9e bd a6 be
       0.08119615 0.24241047 -0.87584645 -0.3256654
0002d0 34 9d 32 3d ce ab 9e be f0 cb 56 bf 16 31 19 bf
       0.04360695 -0.30990452 -0.83904934 -0.59840524
0002e0 4b fc 23 bf 95 16 bd 3c 83 55 3c 3d 15 e1 b6 be
       -0.64056844 0.023082057 0.045979988 -0.357186
0002f0 a7 98 6c 3e 4b 1a 61 be 27 11 74 3d 28 ab 73 3e
       0.23105107 -0.21982686 0.05958667 0.2379576
000300 e8 43 52 bd a0 b8 19 bd cc a8 8b be 45 90 4d be
       -0.05133429 -0.037529588 -0.2727722 -0.20074566
000310 75 3b 8d be 32 1d 31 be e5 e9 c0 be fa 8d 97 3e
       -0.27584425 -0.17296293 -0.37678447 0.29600507
000320 7e 39 7e be 1d 8c fe bd 7f a8 97 be 88 53 73 bf
       -0.24826619 -0.12429068 -0.2962074 -0.95049334
000330 98 b7 78 bf a9 cf 4f 3d 0a 97 99 bc 9e 03 94 bf
       -0.9715514 0.05073515 -0.018748779 -1.1563604
000340 eb 04 f0 be 3c d2 51 be 77 67 1e bd da 9c d6 bd
       -0.46878752 -0.20490354 -0.03867289 -0.10479136
000350 af 6f f2 3d 90 8a 3c be d1 d9 55 3e b0 c6 3c bf
       0.11837708 -0.18412232 0.20883872 -0.73740673
000360 c1 77 c8 3d af 84 11 bb 57 23 03 3f da 21 04 3f
       0.09788466 -0.002220433 0.512258 0.51614153
000370 14 5b 79 3e 71 3f 1d 3d 2d 11 2a be f7 90 da be
       0.2435115 0.03839058 -0.16608115 -0.42688724
000380 6b 1b 7a be 03 ad ee be e2 e9 39 3e 6b c0 16 3d
       -0.24424522 -0.46616372 0.18155625 0.036804598
000390 2f ba 36 be fc af f8 be be d7 a2 3e dd a5 a4 3d
       -0.17844461 -0.48571765 0.31805223 0.080394484
0003a0 06 a9 61 3e b6 ae 16 be 7b 80 c0 3e c6 53 29 3f
       0.22037134 -0.14715084 0.37598023 0.66143453
0003b0 e1 4f 28 bf c2 3d 63 be 0a 0f 8c be 7d 09 96 bf
       -0.65746886 -0.22191527 -0.27355224 -1.1721646
0003c0 0a 3c 0b 3e 31 f1 db 3e 72 c3 3b bd 71 83 7b bc
       0.13597122 0.42957452 -0.045840688 -0.015351162
0003d0 d2 44 93 3e 25 2d 24 3f 95 e7 d6 3d 18 bb d0 3e
       0.28763443 0.64131385 0.104933895 0.4076774
0003e0 b6 ae 52 bf 0d 8f d5 bd c6 3e 1b be f2 33 07 bf
       -0.8229784 -0.104276754 -0.15160665 -0.5281364
0003f0 7d 2d 44 bf 49 e7 77 3d 36 ec b8 be e7 bf 50 3d
       -0.7663191 0.060523305 -0.36117715 0.050964262

onnx::MatMul_20 f4 [16, 3]
000000 3c 7e 61 3d 21 28 fe bb 3a 12 2e bc 5d 3b 3f 3d
       0.055052027 -0.0077562486 -0.010624463 0.046687473
000010 6f 3b e0 bc 95 79 c8 bb dc e9 c6 3d dc 81 9d 3d
       -0.02737209 -0.0061180093 0.09712574 0.07690784
000020 03 28 eb bb 74 74 b9 3d 89 94 06 3e b2 b6 ad 38
       -0.0071764006 0.09055415 0.13142599 8.2833125e-05
000030 39 82 da 3c ca 7e 2c 3d fb 4f aa 3b 18 3b b5 bd
       0.026673423 0.042113103 0.0051975227 -0.08849162
000040 e6 2e 6a 3d e8 69 4b bb e7 b7 a6 bd f3 eb 2a bd
       0.057173632 -0.0031038467 -0.08140545 -0.041728925
000050 12 0d bf 3b d2 9b 9e 3d c7 e3 ad bd a2 f1 f0 bb
       0.0058304155 0.07744564 -0.08490711 -0.0073530236
000060 b6 f1 a7 3d e3 7d 3b bd b6 51 45 3c 96 80 11 3e
       0.082003996 -0.04577435 0.012043407 0.14209208
000070 be 76 9d 3b 0a 8f 23 bd 4c dd bc bd bd 62 6c 3c
       0.004805415 -0.039931335 -0.092218965 0.014427838
000080 61 5f e1 b9 d9 3d 73 3d 13 11 b0 bb e6 d0 7a bd
       -0.00042986407 0.059385154 -0.005373129 -0.061234377
000090 d8 72 42 3d 76 a0 0a be 1f 39 3a ba 41 f6 26 3d
       0.047472805 -0.13537773 -0.00071038486 0.04076219
0000a0 d5 03 4c 3c a9 a8 1e bd 73 47 95 bd 23 e4 fb 3d
       0.0124520855 -0.038735066 -0.072890185 0.12299373
0000b0 73 4d 4a bd 5d 68 20 be 36 c5 79 3a 05 aa d0 bc
       -0.049390268 -0.15664811 0.0009527983 -0.025471697
