Assets/Models/MLP-Context3.onnx (onnx, 25399 bytes, 6 tensors)

net.0.weight f4 [64, 27]
000000 19 66 b0 3b 5e a0 24 3e f4 e4 a4 b9 f2 dd 17 be
       0.0053832647 0.160768 -0.000314511 -0.14830759
000010 49 fb a9 3c bc 72 86 be 27 e3 04 bf f5 ae 33 bd
       0.020749705 -0.2625941 -0.51909107 -0.043868024
000020 19 a2 80 bf 93 92 c5 3c d2 c2 c4 3d cd 8c 81 be
       -1.0049468 0.024117744 0.096074715 -0.25302735
000030 6b 36 3c be 9d bd 9c 3d dc e3 52 bd e8 09 cd bc
       -0.18380134 0.07653353 -0.051486835 -0.025029138
000040 15 8e 65 be e0 a7 82 bd 24 43 9e 3e b9 10 86 3e
       -0.22417481 -0.06379676 0.309106 0.26184633
000050 a7 2f ae be 44 0b de bb 14 98 00 3e 03 00 29 be
       -0.3402073 -0.0067762453 0.12558013 -0.1650391
000060 d0 2d 38 3e 6f 46 c7 bd 24 7d 9f 3f 38 73 1b bc
       0.17986226 -0.09730231 1.2460065 -0.0094879195
000070 52 9a d0 3b cd d7 a8 bb 31 bb 35 bb 72 eb 2a 3b
       0.0063660527 -0.0051526786 -0.0027729983 0.0026080278
000080 99 74 8e 3c 8e e9 e0 3d 52 75 aa 3e 56 5c 89 bf
       0.017389582 0.10982047 0.33292633 -1.0731304
000090 48 d6 36 3c fe 54 d1 bb 2b d8 3b 3d ae 8c b1 bb
       0.011159487 -0.0063883057 0.04586045 -0.0054183817
0000a0 a5 df a8 3b 03 51 50 3c e5 0c d9 bc 1d b8 3d 3d
       0.0051536136 0.012714627 -0.026495406 0.046318162
0000b0 15 64 06 3f 57 41 19 3a f0 3e 5b 3a 45 39 f6 bc
       0.52496463 0.0005846223 0.00083635654 -0.030056605
0000c0 c4 d4 35 ba f7 4f 09 bc 5f cb ca bc 92 3f d0 be
       -0.00069363066 -0.0083808815 -0.024755178 -0.406735
0000d0 f1 19 a1 bf d9 e7 41 40 3c 83 45 3d 08 f1 85 bd
       -1.2586042 3.0297759 0.048220858 -0.06540114
0000e0 56 95 20 be d8 ce 8c 3d e9 0f 21 3d 16 c2 f7 bc
       -0.15681967 0.0687539 0.039321814 -0.030243915
0000f0 8d 76 94 3e 8e 55 c1 3c ec 2b 0e be 40 45 e1 bd
       0.28996697 0.023600366 -0.13883942 -0.109995365
000100 a2 41 e4 3d be 11 d0 bd c4 6e 0e bd 8b 18 8c 3e
       0.11145331 -0.10159634 -0.034773603 0.27362475
000110 6d 7a f0 3d 2c 4d b1 3c e0 8f 12 3a f6 7e d8 bd
       0.11742101 0.021643244 0.0005590897 -0.10571091
000120 c5 66 d4 3a e5 80 22 bd 2a bb 99 bd b4 2c f1 3d
       0.0016204944 -0.039673705 -0.07506402 0.117761046
000130 db 38 eb bc 8c 82 79 be d6 12 fb 3c 6b 81 08 be
       -0.028713634 -0.24366206 0.03064863 -0.13330619
000140 78 1c 92 3d e6 2d c8 3d 49 35 2a bb 6f f9 ba be
       0.07134336 0.097743794 -0.0025971702 -0.36518428
000150 de d5 4a 3d b7 eb 2e 3e f7 21 f0 be c3 8d b5 3e
       0.049520366 0.17082106 -0.46900913 0.35459718
000160 40 3f f8 bc 17 92 9a be c1 f6 9c 3e 15 f0 04 3e
       -0.030303597 -0.30189583 0.30657008 0.12982209
000170 ed 86 aa be 86 9c f7 3d 32 5d e9 3c c6 39 94 be
       -0.33306065 0.12090401 0.028486822 -0.28950328
000180 09 f4 6d be 43 0b 2e 3e 80 76 0f be a6 1b 5a 3e
       -0.23237623 0.16996484 -0.14010048 0.2129961
000190 1e 25 4d 3e e9 a1 c5 be 83 0a 51 3c 82 d2 8b 3e
       0.2003369 -0.3860009 0.012758854 0.27309042
0001a0 4b a9 99 be dc 3b 26 bf 22 99 a0 3d 00 e9 d0 3d
       -0.30011973 -0.6493509 0.07841708 0.10200691
0001b0 07 f9 68 bd 2c 94 78 3e a1 19 b5 bd 7d f5 63 3e
       -0.056878116 0.24275273 -0.08842779 0.22261615
0001c0 49 9b 7c 3d bc 82 91 bc 37 2c a0 3d 52 67 f7 bd
       0.06167153 -0.017762534 0.07820933 -0.12080254
0001d0 24 be fb 3d be ec a4 bd ae 05 1d 3e a6 7a 57 be
       0.12292126 -0.080529675 0.15334198 -0.2104288
0001e0 28 35 00 3e 01 f7 f0 3d 4d ec 1a be 19 ae 39 3d
       0.12520278 0.11765862 -0.15129204 0.045332048
0001f0 8c 1b a6 3c 0c 28 27 bc 10 c3 e1 3c 77 60 61 3e
       0.020276807 -0.010202419 0.027558833 0.22009455
000200 ac 41 da 3d e0 bc 37 3d a1 3f f9 bd 73 d2 74 be
       0.10657057 0.04485786 -0.121703394 -0.23908405
000210 b0 60 4e bd 7e 1b 05 be 93 21 33 be e1 e0 36 3e
       -0.050385177 -0.12998769 -0.17493276 0.17859222
000220 a8 45 de bd b1 8c a3 be 7d d9 77 3e d8 4a 84 bc
       -0.108531296 -0.31943277 0.24204059 -0.01614897
000230 65 1d be be 97 da 6b be 9e 4e b1 be 7f 6a a7 bd
       -0.371318 -0.23032604 -0.34630293 -0.081746094
000240 b5 64 53 3e fa 1a e9 bc be e0 93 be 36 2d eb 3d
       0.20643885 -0.028455246 -0.28882402 0.11483233
000250 40 b7 96 be e8 1c 97 be 28 30 3a bc 3f 81 60 be
       -0.29436684 -0.2951424 -0.01136402 -0.21924303
000260 3c 50 67 be 28 9d 65 3e 7e 3b a7 bd 96 42 a6 be
       -0.225892 0.22423232 -0.08165644 -0.32472676
000270 07 32 ab 3d 82 df 1c bd 80 dd 8c be 90 f4 1d bd
       0.08359151 -0.03829909 -0.2751274 -0.03856331
000280 58 c4 d2 bc d5 83 23 be c6 27 d3 3d ab 55 08 3e
       -0.02572839 -0.15968259 0.103103206 0.1331393
000290 ee 90 95 bd f2 c6 92 bc f7 09 3a 3e 35 fa ec 3c
       -0.07303034 -0.01791713 0.18167864 0.028927902
0002a0 1d 2a a4 3f 6f f9 0d 3f f3 08 ac be 88 2e cc 3b
       1.2825352 0.5545873 -0.33600578 0.006231133
0002b0 55 4d 15 3e db 51 bc bd 06 61 d8 bd 69 d2 a6 3d
       0.14580281 -0.091953 -0.10565381 0.08145601
0002c0 7f 58 69 be 90 0f a0 3e 70 3b 0c bd c1 d8 dd 3c
       -0.22787665 0.31261873 -0.03423637 0.027080895
0002d0 1e 71 e3 bd 03 87 c3 3c 51 e6 04 be 5c c7 f0 be
       -0.1110556 0.02386809 -0.12978484 -0.470271
0002e0 8e 6e 38 3e 1a 0f ab be 71 f4 ad bf 54 1d 2b bf
       0.18010923 -0.3340996 -1.3590223 -0.66841626
0002f0 72 85 5f 3e 27 4f 59 3e 0e 4a 5d 3e 90 6b 12 be
       0.21828249 0.212216 0.21610281 -0.14298844
000300 3d a1 8f 3d e8 86 5a 3e b7 38 bb bd 18 87 5d bd
       0.07013176 0.21340525 -0.09141677 -0.054083914
000310 33 1e 20 3d 4b 43 3a be 40 1c cb bd 77 15 87 3e
       0.0390913 -0.18189733 -0.09917498 0.26383564
000320 8f 9a b5 be d7 33 a4 bd 2d 89 7f 3d 57 42 3f be
       -0.3546948 -0.080177 0.06238668 -0.1867765
000330 93 d1 82 be cf 7f 70 3e 06 a6 88 be bc a1 c0 3d
       -0.25550517 0.23486255 -0.26689166 0.094058484
000340 02 72 2c 3e c4 1c 8d be 0d 52 c0 bc 0f ec 98 3d
       0.16840366 -0.2756101 -0.023476625 0.074668996
000350 f2 a2 47 be 14 c0 f4 be e1 ce 0e be 98 ff bf be
       -0.19495752 -0.47802794 -0.13946106 -0.3749969
000360 34 f6 18 be f1 1a 74 bd ee 87 c8 bd d7 d8 03 3e
       -0.14937669 -0.059596006 -0.097915515 0.12875687
000370 2f 43 08 be cc 44 38 be 15 1d 67 3e ff 85 3c 3d
       -0.13306879 -0.17994994 0.22569688 0.046026226
000380 63 93 1e be 8d c3 b0 bd 2d 2c d7 ba 69 b8 30 3c
       -0.15485911 -0.08631048 -0.0016416364 0.010786154
000390 9c ea 90 3c 44 4f e8 bc b2 30 72 3d 29 d7 5d bd
       0.017689995 -0.02835811 0.05912847 -0.05416027
0003a0 f6 23 28 3d 4b f0 48 be 4c bb 73 3e b1 d3 f1 3d
       0.04104992 -0.19622914 0.23801917 0.11807955
0003b0 96 99 10 be c9 b7 91 3a 3d 1d 90 3d 6c 44 c1 bc
       -0.14121088 0.0011117394 0.07036827 -0.023592196
0003c0 e7 18 48 bd 11 87 5c 3d f2 1a 7f bc 0f 4b ab 3c
       -0.048851874 0.053839747 -0.015570389 0.020909814
0003d0 a9 1a d7 bc 74 ac 85 bb ba ff 32 bd d9 8c 75 3e
       -0.02625783 -0.004079396 -0.04370091 0.2397951
0003e0 3a 43 6f be ba fa 29 bd b2 46 17 be 33 ee f6 3d
       -0.23365489 -0.041498877 -0.14773062 0.12057152
0003f0 e1 f2 52 3d b1 4a 12 3e db 58 3f be b4 7b 1e 3e
       0.05150116 0.14286305 -0.1868624 0.15476876

net.0.bias f4 [64]
000000 2a 79 b5 3d 95 f1 76 3e 32 a9 b8 bd 73 ab c9 be
       0.08861001 0.24115594 -0.090166464 -0.39388618
000010 6b f7 de bd 4a 5c 44 be 43 95 08 bd a4 88 75 3d
       -0.10887035 -0.1917583 -0.033345472 0.059944764
000020 68 c3 99 3c f8 88 6b be 55 2c dc bc d7 01 00 be
       0.018769935 -0.23001468 -0.026876608 -0.12500702
000030 4a ce 6b be 94 02 28 be 81 e3 19 be 6d 40 48 be
       -0.23027912 -0.16407233 -0.15028192 -0.19555826
000040 5b d0 0d be 0c 40 12 3c 6b cf 71 bd 84 03 3c be
       -0.13849013 0.008926403 -0.0590357 -0.18360716
000050 f4 38 2e be ae f8 29 be 50 4b b3 bb e7 e4 06 bf
       -0.17013913 -0.1659877 -0.0054716244 -0.5269303
000060 27 4f a0 be 5b e9 81 3d 72 b4 a7 bd 30 a2 90 3d
       -0.31310388 0.06343337 -0.08188714 0.07062185
000070 6c 80 1a 3b 7d 86 09 be 93 36 97 bd c6 a6 2c be
       0.002357508 -0.1343021 -0.07383456 -0.16860494
000080 0f ac 3f be 1b 2e 54 3d 7d 95 b4 3f 5f 20 97 bd
       -0.18717979 0.051801782 1.410812 -0.07379221
000090 2b 35 b2 be 11 3d a6 3c 83 1e 85 3d dd 30 36 be
       -0.3480619 0.02029279 0.0649996 -0.17792077
0000a0 2f 15 1b be dc 20 c7 be 5b 2e ad 3c d5 42 7d 3c
       -0.151448 -0.38892257 0.021140268 0.0154578285
0000b0 48 27 7e be 4f 50 b2 be 94 a6 a6 bc f5 6b 53 bd
       -0.24819672 -0.34826896 -0.020343103 -0.051616628
0000c0 88 17 6f 3d 0b 8f b8 3d 4b 14 63 bf 48 43 83 be
       0.05837205 0.09011658 -0.8870284 -0.2563727
0000d0 dc da af bd 44 53 3c be c3 a9 55 3d 72 29 9e be
       -0.08586666 -0.18391138 0.05216385 -0.30890995
0000e0 cf 50 3c 3d e6 8a 66 be e1 0a 78 be a3 75 ba 3c
       0.045975503 -0.22513923 -0.242229 0.022761172
0000f0 66 13 91 bd 36 29 86 bd 33 13 f2 3d 5d 95 e0 bb
       -0.07083778 -0.06550829 0.11820068 -0.006853743

net.2.weight f4 [64, 64]
000000 30 d5 02 3d ba 33 65 be ec be 1b be b6 dd a6 3d
       0.031941593 -0.22383013 -0.1520955 0.08147757
000010 92 a6 2c 3d 1f 8a 28 3e 78 9e a6 bc 18 3c 90 be
       0.04215104 0.16458939 -0.020339236 -0.28170848
000020 b0 ad ea 3d 9d 12 de bc 3a 26 c6 3a b0 69 29 3d
       0.114589095 -0.027108485 0.0015117594 0.041360557
000030 d9 cc 34 3e d2 c4 a0 3c 69 a7 99 bd 84 d0 89 be
       0.17656268 0.019625101 -0.07502634 -0.26916897
000040 80 0e 8e bb b7 21 93 bc fe 65 27 be 75 9d 92 3d
       -0.0043352246 -0.017960412 -0.163475 0.07158939
000050 60 f3 77 3e a4 1b 15 be 7d 75 04 be f2 b5 6e be
       0.24213934 -0.14561325 -0.12935443 -0.23311594
000060 b2 33 35 bd f0 51 1e 3e 42 d9 d6 3d f4 9a c3 3d
       -0.044238754 0.15460944 0.104906574 0.09551039
000070 22 5a c9 bc ff 7c 3b 3e 60 50 66 bc 48 0f cf 3d
       -0.024579111 0.18309401 -0.014057249 0.101103365
000080 bc f5 e2 3b 6b ba 6b 3c 20 e1 af bd cf 8b 19 be
       0.0069262665 0.014387707 -0.08587861 -0.14994739
000090 44 60 d7 bd eb dc bf 3d 40 5e 65 bb a8 6c c1 bc
       -0.10516408 0.09368309 -0.0034998804 -0.023611382
0000a0 1f 30 b6 be 2a 91 c0 3d 10 67 22 3e 89 0a 65 be
       -0.35583588 0.09402688 0.15859628 -0.223673
0000b0 26 6f 06 bd e5 94 9f 3e 6e 93 83 3d b3 9c 4a bd
       -0.032820843 0.31168285 0.06424604 -0.049465846
0000c0 10 ab 97 3d 05 de 06 bd c9 ac 8a be 84 05 c0 bb
       0.074056745 -0.032926578 -0.2708495 -0.0058600325
0000d0 e0 fc cd bc ea e2 2c 3e bf e8 3a bd d6 1f 47 3e
       -0.025144994 0.16883436 -0.04563212 0.19445738
0000e0 32 a9 6c 3e a9 31 07 3d c4 7b e2 bd 64 6b 75 bd
       0.23111418 0.033006344 -0.11058763 -0.05991687
0000f0 3b a8 56 be ce 7d d3 bd 04 ae ce bc 9d c2 c5 3e
       -0.20962612 -0.1032673 -0.025229461 0.3862504
000100 82 16 b7 bd cf fd b6 bd d1 4e 31 be 09 88 e0 bd
       -0.0893984 -0.08935129 -0.17315222 -0.10963447
000110 a8 01 14 be 32 64 df bd b0 e3 92 bd da 4c 2f be
       -0.14453757 -0.109077826 -0.07172334 -0.1711916
000120 0c 2c 18 3d 6c 0f 2c bd b8 f8 66 3c 94 06 2c be
       0.03715138 -0.042006895 0.014097385 -0.16799384
000130 8e 9a 72 3d 3b 99 9f bc a4 7a 3e be e0 a4 b4 bd
       0.059229426 -0.019482246 -0.18601471 -0.0882051
000140 5e 85 a0 3d 8f f4 14 3d e9 90 8c bd 14 b6 b7 3d
       0.07837938 0.03636604 -0.06863577 0.089702755
000150 e0 fc 94 bc 0d cf 50 be 34 0e 16 be 3e ba b6 bd
       -0.018186986 -0.20391484 -0.14653856 -0.08922242
000160 30 12 bb bd 19 0e 80 ba b8 3c 60 bd 6b 02 1e bd
       -0.09134328 -0.0009769826 -0.054745406 -0.038576525
000170 6e 8f 18 be 6b ea 06 bd 69 25 f7 bd 30 b5 27 bd
       -0.14898464 -0.032938402 -0.12067682 -0.04094428
000180 8a 47 37 3d 04 6d 04 be 1a c7 85 bc d0 69 31 be
       0.04474596 -0.12932211 -0.01633029 -0.1732552
000190 b0 ca 09 bd b8 af 86 bd 40 4d 5d bc 40 8a 1d 3d
       -0.033640563 -0.065764844 -0.013507187 0.038461924
0001a0 76 7f ee bc 08 75 8b bc 6b 55 49 3c 14 bc e4 3c
       -0.029113512 -0.017023578 0.012288432 0.027921714
0001b0 66 93 63 bd e5 1a 7b bd 12 23 bf 3d 19 72 5f 3d
       -0.055560492 -0.061304945 0.09332861 0.05455217
0001c0 43 20 eb bd 14 90 09 be 52 2a dd bd 3b 4c d7 bd
       -0.11480763 -0.13433868 -0.107990876 -0.10512587
0001d0 21 5a 69 3c 15 34 75 bd 34 47 9f ba 50 cf 94 bc
       0.01424268 -0.059864122 -0.0012151957 -0.01816526
0001e0 bb ac 98 bd fb 92 f5 bd 20 39 14 be d0 ab 0e bd
       -0.07454821 -0.11990925 -0.14474916 -0.034831822
0001f0 12 64 50 bd db ad 02 be 1b 9d 17 bd 1d 7f 09 3c
       -0.050876684 -0.12761633 -0.03701506 0.008392123
000200 90 28 d3 3c 0d dc 3f 3b 54 61 2f bd 25 ea 71 3c
       0.025776178 0.0029275448 -0.04281743 0.014765297
000210 c1 84 37 3e 5c 9f 2e 3d e0 f3 17 be 35 93 30 be
       0.17921735 0.042632446 -0.14839125 -0.17243655
000220 6f a0 27 3d a9 58 e3 bd 6f 6f 2d be 88 3e da 3d
       0.040924486 -0.11100895 -0.1693704 0.10656458
000230 14 9b 2a be ba 9e b5 bd b7 18 95 3c c1 07 1a 3d
       -0.1666072 -0.08868165 0.018200262 0.03760505
000240 d6 69 8e bd f4 cd fd bd a0 8b de bd bc f4 8c 3d
       -0.0695378 -0.12392798 -0.10866475 0.06882617
000250 a2 b3 2b be 16 1d 2b bd b0 c8 52 bd f1 e5 cb bd
       -0.16767743 -0.041775785 -0.05146092 -0.09955967
000260 37 e0 24 be 36 f0 80 3c 53 15 36 be a3 dc 91 bc
       -0.16101156 0.015739542 -0.17781572 -0.017805403
000270 e0 ee 83 bd 34 89 04 be 74 17 cf bd 94 58 79 bd
       -0.06442046 -0.12942964 -0.10111895 -0.06087549
000280 83 27 1e be ee 4c ac bc 05 ec 12 be e6 b5 cc bc
       -0.1544476 -0.021032777 -0.14347847 -0.02498908
000290 60 12 f4 bd 09 89 2a bd c0 81 b8 bc 00 08 7a bd
       -0.11917567 -0.041634593 -0.022522807 -0.061042786
0002a0 02 d2 ba 3c ee 7d fb bd 30 b3 dd 3c f8 98 8c bd
       0.022805218 -0.122798786 0.027062982 -0.06865114
0002b0 fb eb 45 be d4 00 11 3d 00 75 e2 3b fe 8d 56 bd
       -0.193283 0.03540118 0.00691092 -0.052381508
0002c0 6a 23 0b be 28 71 a2 3d e8 59 18 be 91 8f 7f bd
       -0.13587728 0.07931739 -0.14878047 -0.062392775
0002d0 05 da 28 3d 87 e2 35 3d 5c aa 58 bd a8 50 9d 3c
       0.041223545 0.044405486 -0.052896842 0.019203499
0002e0 a8 94 99 3c a5 9d 17 3d a7 6a 34 bc 26 34 c6 3d
       0.018747643 0.037015576 -0.011011756 0.09677915
0002f0 a0 33 af 3c dd 50 49 bb 48 4a 6f 3c 7e 33 a7 bd
       0.021386921 -0.0030718364 0.014605112 -0.08164118
000300 18 2f 8c be 5e 96 86 be 93 2c 41 be 8b 1f 17 bd
       -0.2737968 -0.26286596 -0.1886466 -0.036895316
000310 41 55 31 3d 9c 12 f3 bd 75 ca fd be e2 c8 b3 3c
       0.043294195 -0.11868784 -0.49568525 0.021946374
000320 1a b1 96 bd a6 24 04 be f6 19 43 3d 2e d6 d8 bd
       -0.07357998 -0.12904605 0.04763218 -0.105877265
000330 c9 92 0a be 2b af 13 be 9f 7d cd bd 39 ad f7 bd
       -0.13532557 -0.1442229 -0.10033726 -0.120935865
000340 e8 7f 95 bc 59 6c f1 3d 41 89 7c bd 00 d0 51 bb
       -0.018249467 0.11788244 -0.061654333 -0.0032014847
000350 5b 53 e5 bd 53 b8 52 3d 5d 2d a3 be 9d 8b 53 bc
       -0.111975394 0.051445317 -0.31870547 -0.012911704
000360 ba 7e 03 bd 40 1b 93 bc 1f 9f e6 bd 12 46 21 be
       -0.032103278 -0.01795733 -0.11260819 -0.15749386
000370 be c3 a8 bd 9d 01 3d be e6 c9 6e 3d 44 23 b1 3d
       -0.0824046 -0.18457647 0.058298014 0.086493045
000380 39 a0 55 3c f8 9d 29 3d 4f e0 01 be 57 45 53 bd
       0.013038688 0.041410416 -0.12683223 -0.0515798
000390 58 4c 30 3b 59 df e1 3c 5c e4 8d bd e4 de c7 3d
       0.0026900973 0.02757232 -0.06928322 0.0975931
0003a0 1b b0 c2 bd 40 e1 1f be 70 b5 48 bd 9a 6c 33 3d
       -0.09506246 -0.1561327 -0.049001157 0.043804742
0003b0 e3 03 3e be 94 79 b9 bc 42 ac a1 3d 04 58 cd 3c
       -0.1855617 -0.02264098 0.07894184 0.025066383
0003c0 68 b0 d5 3c 00 78 4c 3a 2d b4 a6 be 27 65 62 bd
       0.026085094 0.0007799864 -0.32559338 -0.055272248
0003d0 78 37 0a bc 66 f9 b8 ba f8 a3 ed bd 18 21 fb bc
       -0.008436076 -0.0014112412 -0.1160354 -0.030655429
0003e0 bc db b2 be db 54 c8 bd bf ac a9 3d e0 70 ea bd
       -0.3493327 -0.0978181 0.08284902 -0.114473104
0003f0 8e 0d c7 bd 91 c7 e7 bd 01 c7 60 3a de 9f ed bd
       -0.09719382 -0.11317361 0.0008574576 -0.11602758

net.2.bias f4 [64]
000000 46 1f d2 be f4 b8 27 bd 0d 1e dd bd 64 36 b6 be
       -0.41039485 -0.04094787 -0.10796747 -0.35588372
000010 28 66 5c bc f2 b9 a9 be 36 5a c7 be b2 2c a4 be
       -0.01345209 -0.33149678 -0.38936013 -0.3206535
000020 9b 03 d8 be 76 fd 61 3e 7a c3 6c be 9a 2c b9 be
       -0.4219025 0.22069344 -0.23121443 -0.3616684
000030 64 66 a7 be 23 f3 7c be 80 a9 9b be d5 32 31 be
       -0.32695305 -0.24702124 -0.30402756 -0.17304547
000040 26 18 f5 be 7e bc 5e be ce 55 21 bd f3 83 bf be
       -0.47869986 -0.21751592 -0.03938847 -0.37405357
000050 38 b3 8e be 3b f5 ce bc d2 ef 82 be e7 1a 34 be
       -0.27871108 -0.02526342 -0.25573593 -0.17588387
000060 a6 ed 83 3d f5 ad 9a be 62 97 0a be a0 1e 19 bf
       0.06441812 -0.30210844 -0.1353431 -0.59812355
000070 44 11 d1 be 2a a2 c3 be 5f af f7 bd 80 6d 6b be
       -0.40833485 -0.3820966 -0.12093996 -0.2299099
000080 78 8e 7d be cd 21 c1 be 87 29 35 bf 71 c5 9f be
       -0.24761379 -0.377211 -0.7076649 -0.31205323
000090 a9 7a 37 bd 95 e0 a5 be 14 d3 2a bf 09 e4 94 be
       -0.044794712 -0.32397905 -0.6672833 -0.29080227
0000a0 75 2b 45 be 5a c0 20 bf 9d 37 6f be a2 54 9e bd
       -0.19254859 -0.62793505 -0.23361059 -0.07730986
0000b0 76 33 10 bd 75 ff b2 be 38 4f b4 be 30 d1 ac bd
       -0.035205327 -0.34960523 -0.3521669 -0.08438337
0000c0 ad 56 3c bd 0f 44 1b 3d 44 13 e7 3c d5 b4 cc be
       -0.045981098 0.037906703 0.028207429 -0.39981714
0000d0 b3 e3 4e 3d d6 89 e4 be 68 f8 d5 be 62 61 87 be
       0.05051012 -0.4463641 -0.4179108 -0.26441485
0000e0 16 96 3d be d2 8a 82 3c 9e 7d cb bd 11 f3 c8 bc
       -0.18514284 0.015935335 -0.09936069 -0.024529966
0000f0 a4 ad 8f be 25 d2 30 bd ba 07 fc bd 64 39 e3 be
       -0.28062165 -0.04316916 -0.12306161 -0.44379723

net.4.weight f4 [3, 64]
000000 ed b4 72 be 90 6b ef bc 9b 9e 3d bd 6d 5d 8f 3e
       -0.2370183 -0.029226094 -0.046293836 0.28000966
000010 79 50 8e 3c 8d fe 86 3e 6d b4 90 be f6 c7 de 3d
       0.017372357 0.26366082 -0.28262654 0.10877983
000020 7b a3 95 be 80 72 d3 be 1d 43 80 be 4a 36 80 be
       -0.29226288 -0.41298294 -0.25051203 -0.2504142
000030 47 e9 0c bd 9c 09 9b 3e bd f0 06 3d 55 9b d7 3e
       -0.034402158 0.3028077 0.03294443 0.42110696
000040 1e 84 80 3e 5c d9 3d bd 25 7d 98 bc 4f ca cb 3d
       0.25100797 -0.04634987 -0.018614361 0.09950697
000050 25 6d 73 3e df 5e 64 bd fd f2 ce ba 81 02 9a 3e
       0.23772104 -0.05575454 -0.0015788969 0.30080035
000060 ca ce af 3d 9c c8 0a be 50 e0 06 3c 29 d3 d7 be
       0.08584364 -0.13553089 0.008232191 -0.4215329
000070 14 9f 80 3e 14 6b 23 3e 5b d7 39 be 72 3c 94 be
       0.25121367 0.15958816 -0.18148558 -0.28952366
000080 71 c3 3a 3e 8b c6 9d be 00 f9 35 3e 93 ff 75 3e
       0.18238617 -0.3081554 0.17770767 0.24023275
000090 6e d8 a9 bd 74 ba 8a bd a6 cf 1b 3d 74 16 ad be
       -0.08293234 -0.06773844 0.038039826 -0.33806193
0000a0 85 19 19 bc 3e 76 a1 3e 73 20 70 be 9e b9 80 bd
       -0.009344463 0.31535524 -0.23449878 -0.06285404
0000b0 04 b0 b5 3a d4 dc 8e be fa 81 0b be f3 86 74 be
       0.0013861661 -0.27902853 -0.13623801 -0.23879604
0000c0 c9 6e aa 3d 4f 46 f3 bc 73 b7 ea 3c ad 34 14 3e
       0.08321912 -0.029696612 0.028651929 0.14473219
0000d0 ac 8f 89 3c 49 ea 07 be 01 87 cc 3d 89 7f 8a bd
       0.01679214 -0.13272966 0.099866875 -0.06762607
0000e0 f5 05 d6 3d c3 71 4a be 3c 5f 07 3c 2d 5a 8b 3d
       0.10450355 -0.19769959 0.008262452 0.06804309
0000f0 cc b2 a4 3e ae 79 15 bc f8 ec 8f bd 24 1d 7f 3e
       0.3216766 -0.009123249 -0.0702762 0.2491346
000100 b1 35 36 3e 6d 7b b8 3c 52 d8 3f bd e3 3d 19 be
       0.17793919 0.022519791 -0.04683716 -0.14965014
000110 0d b3 09 3f 24 f4 98 be 6d 33 93 3e 91 70 87 bd
       0.53788835 -0.29873765 0.28750172 -0.06613267
000120 58 56 aa 3e 6b 9c 0b 3d 1f ef 90 3e b7 16 63 3e
       0.33269 0.03408472 0.28307435 0.22176634
000130 79 54 f4 3d 9a 86 76 3e d6 70 1f be 5a 8f c3 bc
       0.119301744 0.24074784 -0.15570387 -0.023872066
000140 34 4b 46 be 59 31 26 be 51 26 fe 3c 3e 45 3c be
       -0.19364625 -0.16229762 0.03102413 -0.18385789
000150 70 4d 5d 3e ed f8 24 be ce db 10 3d 4e c6 64 3e
       0.21611571 -0.16110583 0.035365872 0.22341272
000160 99 b8 af bd 17 64 11 3d 0b bb d4 3d b9 58 a5 3e
       -0.08580131 0.035495844 0.10387238 0.32294253
000170 61 9a 4e 3e 6a 2e 06 bd ca bf 58 3e 64 4e 9d 3e
       0.20176078 -0.032759108 0.21166912 0.3072387
000180 bb 0f 00 3d 9f 90 97 3e 52 ef 66 be 64 ca 72 3e
       0.031265 0.29602525 -0.22552231 0.23710018
000190 e4 e3 46 be 90 5e 21 3e ae 3e 1d bd 97 c1 55 bd
       -0.19422871 0.15758729 -0.038389854 -0.052186575
0001a0 f3 da 1b bc 5b 46 62 bd 8c 66 8c 3e 29 b9 87 3d
       -0.009512651 -0.055242877 0.27421987 0.06627113
0001b0 f5 ae 70 ba 69 d9 85 be 94 b9 2c 3e 5a e4 bc 3d
       -0.0009181344 -0.26142433 0.16867667 0.09223242
0001c0 48 32 80 3d 99 75 14 3d 1b 40 ba 3c 91 98 90 3d
       0.062595904 0.036244962 0.022735646 0.0706035
0001d0 34 a5 12 3d b2 50 94 3e 95 1f 61 3e 20 1f a3 3b
       0.03580208 0.28967816 0.21984704 0.0049780756
0001e0 79 e0 31 be 38 5c 92 3e e6 3d 7b bd 65 9a 7d bd
       -0.17370786 0.28585982 -0.061338328 -0.06191482
0001f0 ea 20 75 be c5 e4 97 3b a0 07 a5 bc fb f7 1d be
       -0.23938337 0.0046354258 -0.020145237 -0.15426628
000200 ab e6 6b 3e a0 54 3f bd 27 88 0a 3d 64 09 7c be
       0.23037212 -0.046711564 0.03382125 -0.24612957
000210 d9 f7 3e 3e 2e 9a 86 3e 46 91 7e 3e 48 92 4a be
       0.18649234 0.26289505 0.24860105 -0.19782364
000220 40 f8 80 3e 3d da 50 bd 6d 75 4b 3e dd 89 34 3e
       0.251894 -0.05098938 0.19869013 0.17630716
000230 77 05 01 3d 16 b1 5f be fe 8e 5e be 83 22 0b 3d
       0.031499352 -0.21844897 -0.21734235 0.03396846
000240 94 62 a0 3d 81 f6 95 bd 42 9d 41 3d 64 d3 0d be
       0.07831302 -0.073224075 0.047269113 -0.1385017
000250 85 a9 02 3e d8 b2 21 bc 41 eb 38 bd 90 5d 3d be
       0.12759979 -0.0098693 -0.04514623 -0.18492723
000260 c0 5b a3 be ad 5c 61 3c 25 ce 48 3d 04 ab cb 3c
       -0.31905937 0.013755006 0.04902472 0.02486182
000270 82 e3 1a 3e 49 21 24 bc 5d db 62 3e 7a 92 fc 3d
       0.1512585 -0.010017701 0.22153993 0.12332626
000280 2a 64 45 be 93 b6 97 be 70 e6 84 be 3b 23 73 be
       -0.19276491 -0.2963148 -0.2595706 -0.23743908
000290 a6 86 00 3f 74 48 08 3e 44 27 d2 3c 0e 1d 39 3c
       0.5020546 0.13308889 0.025653489 0.011298431
0002a0 2b 2e 00 bc da db 6a bd bc 9d 59 3e f8 e8 88 3d
       -0.007823507 -0.057338573 0.21251577 0.0668506
0002b0 bd 81 b0 3d c2 ae 89 3e cd 8d 5c 3d 53 e3 1a 3e
       0.086184956 0.26891142 0.05384617 0.1512578
0002c0 6f 7b 68 3d 8d 83 3d bc 78 18 5c 3c 53 57 cf bc
       0.05675834 -0.011567009 0.013433568 -0.025310194
0002d0 4f c1 1e 3e 1f 2b 94 be 18 b8 89 be 46 fb b6 bd
       0.15503429 -0.2893915 -0.26898265 -0.08934645
0002e0 3d df eb bd 9e a3 55 bc 77 bf f6 3d 88 7f 25 3e
       -0.11517189 -0.013039498 0.12048238 0.1616193
0002f0 b9 60 6d 3e dc fe 21 bc ea 24 51 bd 0e 7f 7d 3e
       0.23181428 -0.009887423 -0.051060595 0.24755499

net.4.bias f4 [3]
000000 9b 56 89 3d 31 0d e5 be 6b 2d 68 be
       0.06705972 -0.44736627 -0.22673576
