Assets/Models/MLP-v2.onnx (onnx, 25399 bytes, 6 tensors)

net.0.weight f4 [64, 27]
-0.02408888 -0.067347854 0.010635936 0.036124896 0.10914645 0.0602417 -0.45176983 -0.13771936
-0.2669429 -0.11017982 0.031042758 -0.12705775 -0.0474333 -0.0045384327 -0.17244281 -0.065084465
-0.09420709 0.10536507 0.12068522 0.04417725 -0.06466029 -0.037979875 0.07308027 0.03345721
0.52635664 0.2150239 -0.02356102 0.032990716 0.030338332 -0.16212864 -0.18848698 -0.15129058
0.0055095796 -0.14184195 -0.27639762 -0.02793904 -0.24177048 0.37806875 -0.12738302 -0.010038815
0.015388747 -0.11539849 0.0665628 -0.07372098 0.055135563 -0.07699299 0.37244505 -0.05166174
-0.008796113 0.2117937 -0.055217512 0.16490053 -0.0023482582 -0.04037888 0.12048248 0.04318076
0.09805882 -0.05686619 0.042636055 -0.12579927 0.3090981 0.15326975 0.1176321 0.019154545
-0.033144623 -0.07099231 -0.0797796 -0.029809821 -0.014338192 0.11257366 0.10457085 -0.06127532
-0.099397756 -0.012127858 0.123227194 0.07410321 -0.009232349 0.1345991 -0.5923872 -0.31463194
-0.4715484 -0.008390843 -0.119546555 -0.10987978 -0.011035843 -0.10391546 -0.17869082 0.007626082
-0.00017739715 0.13984624 -0.14594227 -0.026709953 -0.1369529 0.04554961 0.15089451 0.1271368
-0.045182228 -0.11493759 -0.10235414 0.14575823 0.111223914 -0.12476452 -0.09195479 0.02065411
0.12410365 -0.015652396 0.12928145 -0.12953772 -0.07678344 0.16348799 0.078269385 -0.08613782
-0.046785038 -0.10901294 0.020701867 -0.029778896 -0.1656239 -0.1669426 -0.18012583 -0.06122408
0.14548689 0.06269984 -0.17086324 -0.0638389 -0.013148542 -0.18956031 -0.06829643 -0.05545001
-0.057359323 -0.18005721 -0.17861328 -0.095160544 0.021543304 0.029623948 -0.06683806 0.06921823
0.035037935 -0.003445035 -0.1570199 0.0834087 -0.040734418 -0.038219508 -0.17083351 0.104857795
0.011900306 -0.24025789 0.049469892 0.013181747 0.19687782 -0.18487908 -0.18441057 -0.12394786
0.034996618 0.081855685 0.2077413 -0.060842767 -0.08988645 0.23309119 -0.043406717 0.28158715
0.21178451 -0.3028883 -0.033229064 -0.07965988 0.046893355 0.056493465 0.113333136 -0.0050945617
0.4221529 -0.025868867 -0.22691056 0.05475414 0.11177575 0.09825421 -0.01245048 -0.07718552
0.1416511 -0.14847916 -0.16180167 0.13534117 -0.094249815 0.026344229 0.08104125 0.02581316
-0.13217175 0.0114182215 -0.85584325 -0.06562456 0.4333397 -0.049551602 -0.0021937503 0.084421255
-0.028488992 -0.06515928 -0.16815633 0.24386106 -0.13636552 0.093480445 0.21032299 0.17302188
-0.119893916 -0.13828683 0.01628783 0.013994287 0.0048410883 -0.120415516 -0.06629271 0.08728107
-0.1337613 0.063137054 -0.022256572 0.092796355 -0.15062404 -0.2815372 0.18722463 -0.0028696395
-0.12636308 0.07358596 -0.12047768 -0.0020808016 0.030546846 0.021106927 -0.26895595 0.21280879
0.178417 -0.12743565 0.12556084 -0.19295539 -0.10460629 -0.008332904 -0.06670145 -0.104844704
-0.010363494 -0.103417 -0.10380053 -0.13059103 -0.24045718 -0.08841505 0.013132524 -0.050734494
0.47368762 -0.33717585 -0.31437412 0.16873316 -0.028727897 -0.08828581 0.024511555 -0.17539181
-0.084575415 0.037847217 -0.05178757 0.029885622 0.009936801 0.14416483 0.11346997 0.1205408
00000000: 0b56 c5bc aced 89bd 5942 2e3c b3f7 133d
00000010: 2d88 df3d 00c0 763d 604e e7be 4e06 0dbe
00000020: bdac 88be f5a5 e1bd 624d fe3c 6d1b 02be
00000030: 6c49 42bd 22b7 94bb d994 30be 014b 85bd
00000040: a6ef c0bd a4c9 d73d d029 f73d 34f3 343d
00000050: 9d6c 84bd c990 1bbd 1cab 953d 6d0a 093d
00000060: 4fbf 063f 3a2f 5c3e 0a03 c1bc 4621 073d
00000070: 1888 f83c 0d05 26be bb02 41be ebeb 1abe
00000080: b489 b43b 043f 11be fd83 8dbe 6ae0 e4bc
00000090: ae92 77be 3a92 c13e b270 02be d879 24bc
000000a0: 1521 7c3c 0b56 ecbd 1452 883d 06fb 96bd
000000b0: d4d5 613d 80ae 9dbd 1eb1 be3e 439b 53bd
000000c0: 921d 10bc 73e0 583e c22b 62bd afdb 283e
000000d0: 3ce5 19bb 5364 25bd 85bf f63d 4fde 303d
000000e0: 10d3 c83d 86ec 68bd 25a3 2e3d 86d1 00be
000000f0: 1b42 9e3e bff2 1c3e 19e9 f03d fee9 9c3c
00000100: a8c2 07bd 6b64 91bd 7d63 a3bd ba33 f4bc
00000110: bcea 6abc 058d e63d 3e29 d63d d4fb 7abd
00000120: 0d91 cbbd ecb3 46bc 8a5e fc3d 6cc3 973d
00000130: 4743 17bc 59d4 093e b0a6 17bf 7017 a1be
00000140: cb6e f1be bf79 09bc d3d4 f4bd a608 e1bd
00000150: aecf 34bc a1d1 d4bd bafa 36be 36e4 f93b
00000160: af03 3ab9 da33 0f3e e471 15be d5ce dabc
00000170: 623d 0cbe 3a92 3a3d 1784 1a3e 2630 023e
00000180: 0011 39bd 6664 ebbd 0c9f d1bd a541 153e
00000190: 5dc9 e33d 8a84 ffbd cb52 bcbd cf32 a93c
000001a0: 0e2a fe3d 7439 80bc 5b62 043e 89a5 04be
000001b0: a340 9dbd 6569 273e b34b a03d 0669 b0bd
000001c0: aba1 3fbd 2d42 dfbd f696 a93c dff2 f3bc
000001d0: 5099 29be 00f3 2abe e872 38be 1ac6 7abd
000001e0: 84fa 143e c668 803d c6f6 2ebe f8bd 82bd
000001f0: fb6c 57bc 191c 42be 00df 8bbd 8d1f 63bd
00000200: 9cf1 6abd eb60 38be 66e6 36be 88e3 c2bd
00000210: 957b b03c ecad f23c 65e2 88bd 4ac2 8d3d
00000220: f083 0f3d 19c6 61bb d3c9 20be 2ed2 aa3d
00000230: 22d9 26bd 0f8c 1cbd fbee 2ebe afbf d63d
00000240: 80f9 423c 2a06 76be f1a0 4a3d 41f8 573c
00000250: 579a 493e f150 3dbe 20d6 3cbe 60d8 fdbd
00000260: 9d58 0f3d f4a3 a73d 23ba 543e 4436 79bd
00000270: 6316 b8bd 75af 6e3e 3ecb 31bd 312c 903e
00000280: 0ade 583e 2d14 9bbe 331b 08bd b824 a3bd
00000290: 3f13 403d b165 673d 341b e83d 48f0 a6bb
000002a0: 6d24 d83e f2ea d3bc 3e5b 68be e145 603d
000002b0: afea e43d 8139 c93d 19fd 4bbc 7113 9ebd
000002c0: fc0c 113e ec0a 18be 56af 25be e096 0a3e
000002d0: 0c06 c1bd dacf d73c f4f8 a53d 1f76 d33c
000002e0: 0858 07be 7e13 3b3c 8b18 5bbf 2b66 86bd
000002f0: b3de dd3e 9ff6 4abd 06c5 0fbb 0de5 ac3d
00000300: bf61 e9bc 3b72 85bd 2c31 2cbe b7b6 793e
00000310: 67a3 0bbe ad72 bf3d e95e 573e a62c 313e
00000320: f18a f5bd 109b 0dbe 0e6e 853c 4b48 653c
00000330: fea1 9e3b 699c f6bd 79c4 87bd 6bc0 b23d
00000340: b9f8 08be 004e 813d 6a53 b6bc 040c be3d
00000350: 303d 1abe a525 90be d0b7 3f3e 9010 3cbb
00000360: 5365 01be 3cb4 963d 00bd f6bd 0f5e 08bb
00000370: 613d fa3c 6fe8 ac3c 98b4 89be 8cea 593e
00000380: f2b2 363e 7e7e 02be 0593 003e 1996 45be
00000390: d33b d6bd bc86 08bc c59a 88bd d2b8 d6bd
000003a0: a5cb 29bc 4bcc d3bd 5f95 d4bd a8b9 05be
000003b0: 683a 76be f312 b5bd cc29 573c f9ce 4fbd
000003c0: 2f87 f23e 50a2 acbe a5f5 a0be 63c8 2c3e
000003d0: c456 ebbc 31cf b4bd 75cc c83c e999 33be
000003e0: e035 adbd af05 1b3d 341f 54bd b1d2 f43c
000003f0: f7cd 223c f29f 133e f262 e83d 18de f63d

net.0.bias f4 [64]
0.1290817 -0.20575577 0.30501768 -0.13389653 -0.13278958 -0.12053126 0.11825501 -0.06518088
0.13552094 -0.14044228 -0.19460922 0.091239065 0.017643267 -0.10193135 0.081879705 -0.0295975
0.12406278 -0.17499553 -0.13199444 0.113137774 0.9038301 0.028008677 -0.05935758 0.3428915
-0.039631333 0.45798394 0.041053735 0.5736002 -0.14790604 -0.018991577 0.16799839 -0.1570658
0.61229765 -0.047059234 -0.018270273 -0.085456006 -0.17009735 -0.2229552 0.093062975 -0.01301499
-0.16773024 0.16173136 -0.17470616 -0.034991775 0.22904766 -0.07631847 0.31714123 -0.100400165
0.24110496 0.10520554 0.033843324 0.029782189 -0.18476139 0.07676613 0.12409765 -0.21383058
0.07633232 -0.062702894 0.21303268 0.09077361 -0.050928973 -0.042054165 -0.11956309 -0.1253301
00000000: fe2d 043e a4b1 52be 472b 9c3e 2c1c 09be
00000010: fef9 07be 18d9 f6bd af2f f23d 8e7d 85bd
00000020: 00c6 0a3e 1ad0 0fbe a447 47be 8cdb ba3d
00000030: 9d88 903c 62c1 d0bd 8cb0 a73d 7576 f2bc
00000040: a014 fe3d 0732 33be 8d29 07be c7b4 e73d
00000050: 6961 673f 7472 e53c ef20 73bd 7a8f af3e
00000060: 7754 22bd df7c ea3e f627 283d 76d7 123f
00000070: ae74 17be 3994 9bbc c507 2c3e dbd5 20be
00000080: 8abf 1c3f 2fc1 40bd 8aab 95bc 8f03 afbd
00000090: 002e 2ebe 5e4e 64be cd97 be3d d33c 55bc
000000a0: 7ac1 2bbe e89c 253e 2ce6 32be 8953 0fbd
000000b0: 788b 6a3e dc4c 9cbd 5660 a23e 9a9e cdbd
000000c0: 38e4 763e 0176 d73d 4c9f 0a3d c7f9 f33c
000000d0: 1732 3dbe 9037 9d3d e926 fe3d 67f6 5abe
000000e0: 1f54 9c3d 606a 80bd 3d25 5a3e 84e7 b93d
000000f0: e69a 50bd fd40 2cbd 7edd f4bd 8956 00be

net.2.weight f4 [64, 64]
-0.03007434 0.1208506 0.066087246 -0.0029509328 -0.038291022 -0.034926534 0.055177435 0.18659443
0.0150590325 0.17071386 -0.23386931 -0.07494015 0.15402642 0.032604814 -0.04505659 -0.023263335
0.10375184 -0.024029776 -0.003952042 0.16506363 -0.02140711 -0.054826964 0.09061497 0.030978858
-0.028252674 -0.0055093127 -0.05788073 0.18882252 0.051599793 0.0596508 -0.14960156 0.14018936
-0.08758679 -0.0321719 -0.10945083 -0.009557694 0.008788422 -0.0552232 -0.011830986 -0.1040103
0.108892456 -0.10340254 -0.015987113 0.045545675 0.010743019 -0.08979462 -0.025088107 0.073362455
-0.10805776 0.097492866 -0.12607527 -0.10528603 0.12377432 0.075980246 0.056917 0.0864007
-0.04772924 0.08086016 -0.14762887 0.08619647 -0.047311235 -0.077766076 -0.020622125 0.005849009
0.03990037 -0.07932068 -0.099072106 -0.034950048 -0.010855392 0.02523848 -0.018493678 -0.038427938
-0.0804498 -0.045376316 0.03159093 -0.039518707 0.07094013 -0.13180183 0.08180485 0.07030194
-0.1494291 -0.09213543 -0.06557911 -0.07207129 0.001331216 -0.045766376 0.013793406 -0.047877524
0.015365717 0.052036002 -0.10844753 -0.017762002 -0.021015823 0.057328276 0.060927644 -0.04154545
-0.10979602 -0.041304246 0.049432855 0.019439533 -0.028947353 0.09185289 -0.13267675 -0.028178103
-0.11156331 -0.07050945 0.0024995804 -0.060600217 0.03553343 0.03451206 0.02090032 0.048800558
-0.09559917 -0.08884732 -0.041466758 0.043495364 0.053504452 0.012115082 -0.12856568 -0.0010625494
0.03286763 -0.024989456 -0.014945552 -0.0009800488 -0.075232446 -0.08103766 -0.15183915 0.12197548
-0.060957648 -0.076573685 -0.06914378 -0.099081755 0.05476798 0.051654793 -0.09038281 0.107696615
-0.10807899 0.106714755 -0.13413607 0.13283832 -0.05321865 0.040184975 -0.13544251 -0.11326202
-0.05203329 0.010433614 0.07780171 -0.08772336 -0.11916645 -0.0044753132 -0.052536 -0.024177628
-0.01802765 -0.0058659166 -0.10216156 -0.0045139906 -0.098119885 0.09248785 0.047204524 0.10944632
-0.017532162 0.062873185 0.07360912 -0.04588382 -0.098984435 -0.104386196 -0.03247269 -0.12961046
-0.068642914 0.10877396 -0.015197173 -0.048502192 0.054650813 -0.029069483 -0.03326274 -0.003132254
0.09182791 0.009910611 -0.04348193 -0.12997776 0.10165425 -0.05609841 0.04955766 0.051696558
-0.054915585 -0.081581146 0.0151758585 -0.07281234 -0.13606536 0.01974603 0.060334265 0.0249166
0.0110765975 0.062359788 0.08094251 0.10664573 0.09182206 0.05249302 -0.016606035 0.12895827
0.05166353 -0.032328125 -0.12674661 0.13769619 0.094121225 0.13295822 -0.16449878 -0.107360676
-0.07548416 0.0709289 0.10259482 0.07338737 -0.11556757 -0.040625893 0.077046104 -0.062610656
0.02982189 0.0055662445 0.009981241 0.13591349 0.09774165 0.04743934 -0.09259761 0.18061833
-0.18913737 0.10725996 0.099664964 -0.10549222 0.011498079 0.025137521 0.2439264 0.09282057
0.08859837 0.092892826 -0.08129819 -0.04258062 -0.0026522279 0.030854162 0.1757816 0.072866276
-0.006246165 0.10788679 -8.745641e-05 -0.02667485 0.03521175 0.23609373 0.098300934 0.015689772
0.011978691 0.22977878 -0.21216662 0.010784899 -0.016108127 -0.049870998 -0.008787001 0.009922305
00000000: 765e f6bc 8580 f73d c058 873d 7064 41bb
00000010: 0cd7 1cbd 200f 0fbd bc01 623d 9c12 3f3e
00000020: 29ba 763c 9dcf 2e3e 707b 6fbe 397a 99bd
00000030: 1ab9 1d3e a08c 053d 428d 38bd c092 bebc
00000040: d87b d43d 18da c4bc 2280 81bb 7106 293e
00000050: f75d afbc 3d92 60bd 5794 b93d 60c7 fd3c
00000060: 2772 e7bc 7787 b4bb 5814 6dbd b15a 413e
00000070: 4e5a 533d 6654 743d 2731 19be cd8d 0f3e
00000080: b460 b3bd afc6 03bd c227 e0bd e097 1cbc
00000090: 50fd 0f3c b931 62bd c0d6 41bc 5a03 d5bd
000000a0: 0203 df3d b6c4 d3bd 68f7 82bc 1a8e 3a3d
000000b0: 7d03 303c 3ee6 b7bd 9385 cdbc 0e3f 963d
000000c0: 634d ddbd 57aa c73d e019 01be 34a0 d7bd
000000d0: 647d fd3d 889b 9b3d cd21 693d daf2 b03d
000000e0: bc7f 43bd 039a a53d 062c 17be c687 b03d
000000f0: 6dc9 41bd d243 9fbd bbef a8bc 0ba9 bf3b
00000100: 926e 233d e172 a2bd 51e6 cabd c827 0fbd
00000110: d0da 31bc eec0 ce3c 0e80 97bc 9d66 1dbd
00000120: ddc2 a4bd 84dc 39bd 7e65 013d 5ede 21bd
00000130: 0f49 913d 0ff7 06be 4d89 a73d 77fa 8f3d
00000140: f103 19be 80b1 bcbd 574e 86bd 1d9a 93bd
00000150: 327c ae3a 8675 3bbd bdfd 613c 391b 44bd
00000160: 7dc0 7b3c b423 553d bd19 debd 9e81 91bc
00000170: 6029 acbc 0ed1 6a3d 448f 793d 902b 2abd
00000180: bcdc e0bd a42e 29bd 1b7a 4a3d a83f 9f3c
00000190: 0023 edbc 5e1d bc3d 6adc 07be c4d5 e6bc
000001a0: 4e7b e4bd 4267 90bd 00d0 233b ef37 78bd
000001b0: 808b 113d 855c 0d3d 2637 ab3c 18e3 473d
000001c0: 7fc9 c3bd 95f5 b5bd 0cd9 29bd 3228 323d
000001d0: 7c27 5b3d 567e 463c b9a6 03be 3e45 8bba
000001e0: 35a0 063d b0b6 ccbc 30de 74bc fb74 80ba
000001f0: 7813 9abd 13f7 a5bd b97b 1bbe 48ce f93d
00000200: baae 79bd aad2 9cbd 419b 8dbd 60eb cabd
00000210: 6454 603d fa93 533d 9f1a b9bd 0b90 dc3d
00000220: 8458 ddbd 448d da3d f75a 09be c506 083e
00000230: cdfb 59bd 0099 243d 71b1 0abe ebf5 e7bd
00000240: dc20 55bd c0f1 2a3c 8156 9f3d 4ea8 b3bd
00000250: 8a0d f4bd a6a5 92bb fd2f 57bd 2910 c6bc
00000260: b9ae 93bc e036 c0bb 143a d1bd 19ea 93bb
00000270: 14f3 c8bd 456a bd3d 8859 413d 6425 e03d
00000280: 9c9f 8fbc a8c3 803d 61c0 963d acf0 3bbd
00000290: 5ab8 cabd 6ec8 d5bd 1502 05bd 9bb8 04be
000002a0: a894 8cbd e2c4 de3d 90fd 78bc 3caa 46bd
000002b0: 88d9 5f3d 2023 eebc 833e 08bd 8046 4dbb
000002c0: 4510 bc3d 1e60 223c 1c1a 32bd e418 05be
000002d0: 1a30 d03d 72c7 65bd f9fc 4a3d c5bf 533d
000002e0: 2aef 60bd 0414 a7bd 2aa4 783c a31e 95bd
000002f0: b854 0bbe 6dc2 a13c 1021 773d e61d cc3c
00000300: 9e7a 353c fa6c 7f3d 30c5 a53d 1469 da3d
00000310: 340d bc3d ec02 573d 6109 88bc a30d 043e
00000320: 239d 533d 7f6a 04bd ddc9 01be 3b00 0d3e
00000330: a1c2 c03d 3326 083e 5e72 28be eadf dbbd
00000340: 7097 9abd 2c43 913d 3c1d d23d 1e4c 963d
00000350: b1ae ecbd 5667 26bd 59ca 9d3d 043a 80bd
00000360: 094d f43c 0b65 b63b 5c88 233c e82c 0b3e
00000370: c62c c83d c14f 423d d1a3 bdbd 03f4 383e
00000380: 3aad 41be 1cab db3d 251d cc3d 4e0c d8bd
00000390: 7062 3c3c 34ed cd3c d8c7 793e b618 be3d
000003a0: 1073 b53d 983e be3d aa7f a6bd 0469 2ebd
000003b0: 00d1 2dbb dec1 fc3c 1700 343e ea3a 953d
000003c0: a1ac ccbb c0f3 dc3d cd68 b7b8 3785 dabc
000003d0: 323a 103d 8ec2 713e 0052 c93d d687 803c
000003e0: 4642 443c 214b 6b3e 3542 59be 25b3 303c
000003f0: 31f5 83bc 8845 4cbd 5af7 0fbc 2a91 223c

net.2.bias f4 [64]
0.017161127 -0.08679089 -0.016844 -0.09763862 0.06128198 -0.104415275 0.099149846 -0.07310317
0.16186671 -0.07893543 -0.02809524 0.11620514 -0.03551338 0.0039493344 -0.22168934 0.09591968
0.058985345 0.049105447 -0.029557507 0.070352875 0.09303762 0.0859282 -0.037620347 0.012808051
-0.057247687 0.13973577 -0.0010452627 -0.07315133 -0.017267719 0.07365816 0.014896183 0.042299856
0.03840448 -0.12168059 -0.14821704 0.15541726 0.08542202 0.1545549 -0.13733906 -0.0035934348
-0.11600715 0.18577982 0.025939658 -0.15784769 0.100548364 0.09949224 -0.033701986 0.13869132
-0.0024684586 0.12600419 0.0251304 0.0014524007 -0.08250552 0.020450411 -0.11812978 0.13699254
0.0081370855 0.12700441 -0.08068119 -0.07699586 -0.042296756 -0.08720324 0.059856344 0.2295148
00000000: 7e95 8c3c 6cbf b1bd 6efc 89bc c2f6 c7bd
00000010: d002 7b3d add7 d5bd 130f cb3d 1db7 95bd
00000020: 63c0 253e e6a8 a1bd fd27 e6bc f6fc ed3d
00000030: 7a76 11bd 6b69 813b 8802 63be 8a71 c43d
00000040: 9e9a 713d cb22 493d 9622 f2bc 2b15 903d
00000050: 828a be3d 20fb af3d cb17 1abd dcd8 513c
00000060: 8d7c 6abd e516 0f3e 3201 89ba 5dd0 95bd
00000070: 0875 8dbc 17da 963d 1f0f 743c 9d42 2d3d
00000080: 044e 1d3d ac33 f9bd 35c6 17be b425 1f3e
00000090: bdf1 ae3d a443 1e3e 9ca2 0cbe d57f 6bbb
000000a0: 2895 edbd 113d 3e3e 687f d43c d3a2 21be
000000b0: 4dec cd3d 96c2 cb3d 180b 0abd 1905 0e3e
000000c0: ddc5 21bb 3e07 013e 45de cd3c 7b5e be3a
000000d0: a7f8 a8bd 9f87 a73c 07ee f1bd c647 0c3e
000000e0: 6951 053c 720d 023e 2e3c a5bd 01b0 9dbd
000000f0: 5d3f 2dbd 9d97 b2bd ed2b 753d ed05 6b3e

net.4.weight f4 [3, 64]
-0.0023340678 0.04631137 -0.060764678 0.011667591 0.02008913 0.06603323 -0.051000744 0.030333618
0.07962017 -0.091711596 0.0011450882 -0.06839051 -0.0028658253 0.0012780558 0.015575186 -0.07797932
-0.035547085 -0.0006765673 0.006379833 -0.022302078 -0.0073081595 0.0029832744 0.011393182 0.014586046
-0.02869446 0.117793664 -0.0019509575 0.010177425 0.032674402 -0.10803745 -0.032361392 0.06694034
0.00042447934 0.027856354 0.032482214 0.098454714 -0.023671886 -0.06246707 0.042737532 0.0031200836
0.06949078 0.057928037 0.011308679 0.060927782 0.23555805 -0.26451984 -0.010926018 -0.16851142
0.004251317 -0.042097513 -0.03250606 -0.00015109312 -0.038715456 -0.014741873 -0.09123319 -0.018936312
0.14845367 -0.091001205 0.066924036 0.0068589677 0.04816183 0.0045223655 0.042039733 -0.14625776
0.021561982 -0.017381134 -0.04584846 0.039344635 0.12755652 0.10742863 -0.14745668 -0.0027194046
0.034897584 -0.07143694 -0.08728511 0.06590052 0.0030162754 0.0028772384 -0.0018466462 0.00087277807
-0.00023384127 0.004651314 0.004276151 0.2092398 0.006046831 0.002853907 0.016512558 -0.016785838
0.024632858 0.18737084 -0.005546745 0.0017637091 0.059637208 -0.11724399 -0.02133227 0.011002701
-0.03482328 -0.012004825 -0.031921737 -0.18037468 -0.008205755 -0.057024445 0.016672036 -0.013873087
0.07751836 -0.024061283 0.015634775 0.05158128 -0.10485818 -0.013458476 -0.010311437 0.145264
0.013055872 0.05493778 0.014915967 -0.0017099332 -0.08405446 -0.04698078 -0.08951036 0.055363998
0.009048596 0.05552417 0.07471844 -0.015393919 -0.016565565 -0.008376769 -0.078848794 -0.20864896
0.017519677 -0.08386095 -0.03296438 -0.013330457 0.058490977 0.0059386874 0.010931927 0.066562764
-0.06919065 0.009692215 0.03261439 0.21817385 -0.008252149 -0.0015352465 0.00809083 0.112432115
0.010293635 0.008178406 0.007412608 0.07382813 0.022349052 -0.0056896643 -0.046156313 0.014551479
-0.011185489 0.16593476 -0.014255217 0.055143725 -0.045120798 0.074542426 -0.0051307245 0.11940196
0.013653516 0.007363303 -0.07048663 0.08211494 0.03429149 -0.054121405 -0.034420546 0.0036492697
-0.01590747 -0.15252997 0.005698813 -0.04459707 0.17953688 -0.03842191 0.07585523 -0.028362786
0.0035120358 -0.0715816 0.13165802 0.008828169 0.16932443 -0.008945737 -0.061847 -0.06615682
-0.13757265 0.14035775 0.07207045 -0.011833301 -0.014346108 0.0036129951 -0.012115064 0.026015555
00000000: 29f7 18bb feb0 3d3d 62e4 78bd 6c29 3f3c
00000010: f691 a43c 6e3c 873d 28e6 50bd 357e f83c
00000020: e60f a33d 4ad3 bbbd c916 963a 5310 8cbd
00000030: 92d0 3bbb 7084 a73a 112f 7f3c 9fb3 9fbd
00000040: d299 11bd aa5b 31ba eb0d d13b d9b2 b6bc
00000050: 4979 efbb 0a83 433b 78aa 3a3c 50fa 6e3c
00000060: a510 ebbc ce3d f13d 45b7 ffba 37bf 263c
00000070: 98d5 053d bd42 ddbd 618d 04bd 0418 893d
00000080: a78c de39 0233 e43c 120c 053d a0a2 c93d
00000090: 8beb c1bc 78dd 7fbd 8d0d 2f3d 517a 4c3b
000000a0: 2f51 8e3d f345 6d3d 0a48 393c 698f 793d
000000b0: 2136 713e 256f 87be 0a03 33bc 428e 2cbe
000000c0: a24e 8b3b 716e 2cbd 1325 05bd c06e 1eb9
000000d0: 1994 1ebd e687 71bc 77d8 babd 5320 9bbc
000000e0: 3d04 183e d75e babd 780f 893d 31c1 e03b
000000f0: 5745 453d 5a30 943b db31 2c3d 98c4 15be
00000100: c1a2 b03c e162 8ebc 98cb 3bbd d727 213d
00000110: 2d9e 023e 8b03 dc3d e2fe 16be 0a38 32bb
00000120: c5f0 0e3d 884d 92bd 89c2 b2bd daf6 863d
00000130: b4ac 453b 0d90 3c3b 2a0b f2ba 25cb 643a
00000140: 4a33 75b9 0d6a 983b f41e 8c3b f542 563e
00000150: 7f24 c63b 9d08 3b3b 5845 873c 7482 89bc
00000160: d9ca c93c 24de 3f3e 78c1 b5bb 422c e73a
00000170: 2546 743d 9e1d f0bd 03c1 aebc ac44 343c
00000180: dba2 0ebd e3af 44bc 5ec0 02bd 24b4 38be
00000190: 6e71 06bc 7792 69bd cb93 883c f24b 63bc
000001a0: f2c1 9e3d 2b1c c5bc 8014 803c e446 533d
000001b0: e3bf d6bd f180 5cbc 4df1 28bc 16c0 143e
000001c0: 4ce8 553c 7006 613d 1a62 743c d61f e0ba
000001d0: bf24 acbd eb6e 40bd 3551 b7bd 5cc5 623d
000001e0: 9040 143c 506d 633d fb05 993d c736 7cbc
000001f0: 82b4 87bc b73e 09bc 7a7b a1bd 13a8 55be
00000200: 6d85 8f3c 4abf abbd a805 07bd fd67 5abc
00000210: 3c94 6f3d 5299 c23b d31b 333c 0f52 883d
00000220: d4b3 8dbd 19cc 1e3c ab96 053d f768 5f3e
00000230: 0634 07bc 533a c9ba 678f 043c cf42 e63d
00000240: a2a6 283c b9fe 053c 76e5 f23b 3433 973d
00000250: 5c15 b73c 5d70 babb 670e 3dbd 5469 6e3c
00000260: 5743 37bc cdea 293e b78e 69bc 63de 613d
00000270: 96d0 38bd b3a9 983d a31f a8bb 0489 f43d
00000280: ffb2 5f3c dd47 f13b 4b5b 90bd e12b a83d
00000290: 3c75 0c3d 68ae 5dbd 8ffc 0cbd 9628 6f3b
000002a0: 6250 82bc d130 1cbe 1cbd ba3b 6bab 36bd
000002b0: 84d8 373e 4b60 1dbd fd59 9b3d 1359 e8bc
000002c0: 2f2a 663b 6099 92bd 5cd1 063e 06a4 103c
000002d0: 6263 2d3e 2491 12bc 4853 7dbd 3a7d 87bd
000002e0: d8df 0cbe f1b9 0f3e ac99 933d 76e0 41bc
000002f0: f00b 6bbc 00c8 6c3b 437e 46bc 931e d53c

net.4.bias f4 [3]
0.13156489 0.070375755 0.106425434
00000000: f2b8 063e 2a21 903d 94f5 d93d
