Assets/Models/MLP-90Hz-WithZ-v1.onnx (onnx, 9131 bytes, 6 tensors)

net.0.bias f4 [32]
000000 e2 35 0b bf 7e 95 12 be e8 6c 5a be f7 80 2c 3e
       -0.54379094 -0.14314839 -0.21330607 0.16846071
000010 f6 5d 6e 3e 89 18 83 3e 3d d0 91 3e 55 2b 7d 3e
       0.23278031 0.25604656 0.28479186 0.24723561
000020 58 f8 3a 3e 6c 00 ff bb a6 0c e8 3d a7 99 dd 3d
       0.18258798 -0.0077820327 0.113305375 0.108203225
000030 df 3d a5 3e 35 43 49 be 85 93 84 3d 3c 0c d7 3d
       0.32273766 -0.19654544 0.064734496 0.105003804
000040 b9 4e bf bd 7d a9 44 be 04 52 08 bd fe 44 5a 3e
       -0.09341187 -0.1920528 -0.03328134 0.21315381
000050 72 11 b5 3c e9 ab 8b 3e 70 c4 8b 3e 48 62 ad 3f
       0.022103045 0.27279595 0.27298307 1.3545618
000060 1d e7 34 3e 29 0f da 3d 0a 38 f8 3c 7f 86 4f 3e
       0.17666288 0.10647423 0.030300159 0.2026615
000070 e6 58 2d be f7 8e b7 bd 4d 22 ae bd 2f 7b 73 3e
       -0.16928443 -0.08962815 -0.08502636 0.2377746

net.2.bias f4 [32]
000000 23 ad 1f be f4 aa 63 3e 08 77 ae 3d 78 b9 c8 3d
       -0.1559339 0.22233182 0.08518797 0.09801
000010 cd 00 c9 bd cb 99 d0 bc 36 0b 3d be 65 ea ff bd
       -0.09814606 -0.02546396 -0.18461308 -0.12495879
000020 f4 4f 97 bd 3f 12 3d bd d0 4a cc 3d de b5 e9 3c
       -0.07388297 -0.04615998 0.09975207 0.028529104
000030 de c8 10 be 08 13 98 3d d8 bb e0 3b a5 43 8a bd
       -0.14139125 0.07425505 0.00685833 -0.067511834
000040 82 55 bb 3d e5 1c ef bb e8 f1 29 3c 0f bd dc bc
       0.09147169 -0.0072971457 0.010372616 -0.026945619
000050 ed 59 63 3e 79 37 ba bd e1 1c 8e bc 0e f0 ef bd
       0.22202273 -0.09092612 -0.017347755 -0.11715709
000060 aa dc 31 be bf 29 b7 3d e9 2a e2 3d 8f d7 e7 bd
       -0.17369333 0.08943509 0.11043341 -0.113204114
000070 02 29 9b 3d ff d9 57 3e 91 c4 12 be 06 21 f4 3e
       0.07576181 0.21079253 -0.14332797 0.47681445

net.4.bias f4 [3]
000000 14 3a 00 3e 41 ac 0c 3e fd dc c8 bd
       0.12522155 0.13737585 -0.09807775

onnx::MatMul_18 f4 [27, 32]
000000 3d 63 c5 bd a0 15 e8 3b 9f 65 43 3e 1b 6d 37 bd
       -0.09638069 0.007082656 0.19081734 -0.044781785
000010 c5 5f 3f bc 17 e3 9e bb 75 af 5c 3d 3f 75 b7 bc
       -0.011680548 -0.0048488486 0.053878266 -0.022394774
000020 0f 60 96 3b 40 d6 e4 bd 37 d5 18 3e b3 a2 73 bc
       0.004589088 -0.111736774 0.14925085 -0.0148703335
000030 1f e2 a1 bd ef 3f d0 bd c1 f2 4d 3d 4f b5 bd 3c
       -0.07904457 -0.10168444 0.050280336 0.023157744
000040 83 0c 0a bd 0b 73 87 bd 51 e5 8d 3b 12 ad e0 bd
       -0.03370334 -0.066137396 0.004330315 -0.109705105
000050 05 be e5 3a a1 1f 8e 3d 92 e5 a0 3c 88 d4 74 3c
       0.0017527944 0.069396265 0.019640718 0.0149432495
000060 b1 d7 84 3d 43 95 75 3d 19 cc 0b bd b6 5b 17 bd
       0.06486452 0.0599568 -0.03413019 -0.036952697
000070 45 f2 32 bd 99 fd 06 be d3 de de 3b e1 d8 e3 bd
       -0.043688077 -0.13182677 0.006801465 -0.11125351
000080 a1 15 81 bd f8 4e f6 bc 73 3c bf bd 7d ce 81 3d
       -0.063029535 -0.030066952 -0.09337702 0.06338213
000090 38 8b b0 bd 39 d8 bc bd fa 54 12 bd b6 2a 31 bd
       -0.08620304 -0.09220929 -0.03572557 -0.043253623
0000a0 dd f1 0b bd ce cd d8 3d 2c 9f 55 3d 4d 76 f9 3d
       -0.034166206 0.10586129 0.05215375 0.12180767
0000b0 0c 92 b3 bd fd 71 d1 bd a1 c8 17 be a8 1b 52 bd
       -0.087680906 -0.1022682 -0.14822628 -0.051295906
0000c0 26 ce bd bd 02 1a b8 bd d4 24 97 3d e1 0f a1 3d
       -0.09267835 -0.089893356 0.07380071 0.07864357
0000d0 9d fc b7 3d d2 96 2e 3d 2b 7b 39 3d 11 2a ff bd
       0.08983729 0.042624302 0.045283478 -0.124591954
0000e0 54 5b e8 bd b8 8d 00 bb d7 a4 47 be 2c bd 0d be
       -0.113455445 -0.001961572 -0.19496475 -0.13841695
0000f0 98 38 ae 3d 21 1a cf bc 3a 1a 98 3d 64 fd a5 bd
       0.08506888 -0.025281014 0.07426877 -0.08104971
000100 c3 13 e2 3d 11 4b 0e be 67 4c 2f be 11 6a e5 bd
       0.110389255 -0.13895823 -0.17118989 -0.11201871
000110 9c ae 2b bd cb bb 88 be 3d 47 ea bd 73 29 c0 3c
       -0.041914567 -0.26705775 -0.11439369 0.023457265
000120 4b d9 bb bc d2 1c 23 3d d5 19 17 3d 51 0a 81 3c
       -0.022930762 0.039822407 0.03688987 0.01575199
000130 6c b0 d9 bc bc 88 c2 bd 34 7f 4a bc 94 8e 02 be
       -0.026573382 -0.09498736 -0.012359429 -0.12749702
000140 c1 85 d4 bc 18 6c 92 3d cc 6d 60 3d 16 9f 68 3c
       -0.025942685 0.071495235 0.05479221 0.014198085
000150 a2 e4 6d 3c 29 df 6c bd 96 f2 6a 3c cc b2 04 3c
       0.014519842 -0.05783001 0.014340064 0.008099269
000160 53 8c 57 3d 28 af 95 3c a2 8e b8 bd 97 da 3f bd
       0.052624058 0.018271998 -0.0901158 -0.046839323
000170 95 58 7b 3b a3 16 ba bd 04 32 ed 3d 3a c0 b8 3d
       0.003835236 -0.09086349 0.11581805 0.09021039
000180 d7 f3 ef 3d 96 f8 cb 3d 1d ae 4c 3e 8e 9d aa 3d
       0.11716431 0.099595234 0.19988294 0.083308324
000190 b5 dc a4 3c ea 9c f0 bd e2 05 bb bd b1 a8 3c bc
       0.020124773 -0.11748679 -0.091319814 -0.011514829
0001a0 a9 8b 95 bd 69 2b f8 bd ab 1e d7 3c 14 c9 80 bd
       -0.07302029 -0.12117655 0.02625974 -0.062883526
0001b0 dc ca ee 3c 80 77 5d 3c 1a d2 c1 3c 87 3b 03 be
       0.029149465 0.013517261 0.023659755 -0.12815677
0001c0 03 66 87 3d d7 82 15 3e f1 ef 24 3e 10 7b 97 3d
       0.06611254 0.14600693 0.16107155 0.07396519
0001d0 ab fa 1b 3b 95 65 6f bd 7c 02 13 3c 3b 3b 95 be
       0.0023800533 -0.058446486 0.00897276 -0.29146752
0001e0 5c 29 00 be c6 9b 8c bd a3 2a 19 be 27 37 a3 bc
       -0.12515777 -0.06865649 -0.14957671 -0.01992376
0001f0 92 b2 fb 3d 78 27 23 bd 51 5e ce 3c e7 e9 7b bc
       0.12289919 -0.039832562 0.025191458 -0.015375591
000200 8e d2 1c be 22 f9 c7 bd f8 5e 54 be be 90 25 bb
       -0.15314695 -0.09764315 -0.20739353 -0.0025263275
000210 6f 4f e5 bc b0 14 46 3e 24 ca 1d 3d a7 13 94 3c
       -0.027991978 0.19343829 0.038522854 0.018075777
000220 62 e1 b6 bd 20 e5 13 be a2 f8 52 3e 93 87 b0 bb
       -0.08929707 -0.14442873 0.20602658 -0.0053872555
000230 05 5b db 39 00 37 38 bc ca 26 4a 3d 35 9b 45 3d
       0.0004183875 -0.011243582 0.0493534 0.04824372
000240 5b 37 50 3d cd 57 e2 3d a3 41 68 bd 8e 4e 06 3d
       0.05083404 0.11051903 -0.05670322 0.03278976
000250 e0 90 21 3d b5 a2 b9 3d f7 16 e5 3d b6 2a 01 3c
       0.039444804 0.09064237 0.11186021 0.007883718
000260 43 65 b3 3b 1f 3f 9c 3d 79 fc 86 bd 58 e7 d5 3d
       0.005474718 0.07629227 -0.06591124 0.10444516
000270 2a 70 b0 3d 4f e1 1f bd a3 ca c6 bd 6b 60 2e 3e
       0.086151436 -0.03903323 -0.09706619 0.17028968
000280 d7 a0 f0 bc 28 ba f4 bd d1 f8 b8 bc f7 27 c3 3c
       -0.02937357 -0.11949569 -0.022579582 0.023822768
000290 e1 fa 39 3c 79 8a a7 be 05 b6 a8 3c ab b5 17 bd
       0.011351318 -0.32722834 0.020594606 -0.037038486
0002a0 53 55 e2 3d cd 6d ac bc fd f8 90 be 14 a6 c5 3d
       0.110514306 -0.02104845 -0.28314963 0.096508175
0002b0 c2 97 d7 ba bc b4 40 be bb 02 02 bd 68 35 95 bd
       -0.0016448426 -0.18818945 -0.031740885 -0.07285577
0002c0 d6 44 23 be 75 6c c2 bd ee 78 82 bd b5 9e 6b 3d
       -0.15944228 -0.09493343 -0.06370722 0.0575244
0002d0 d9 e4 d2 3d ef 70 95 3c b1 85 de 3d 44 91 93 3e
       0.102975555 0.018242327 0.10865343 0.28821766
0002e0 88 20 90 3c 60 91 e5 3d 41 1c 51 be 04 53 c9 bd
       0.017593637 0.11209369 -0.20420934 -0.09830287
0002f0 aa 63 f4 bd 14 98 37 bd a0 77 c1 3d 34 98 bd bd
       -0.11933072 -0.044822767 0.09446645 -0.09257546
000300 4f 88 58 be 6b 4f 99 bd db ff 04 be 0d 92 32 3d
       -0.21145748 -0.07485851 -0.12988226 0.043596316
000310 9a 5f b9 3e cc e3 ca be 41 35 ff be 9b e9 82 3e
       0.3620575 -0.3962692 -0.49845317 0.25568852
000320 74 fc 98 3d cf e5 34 bd a6 cd ea 3d c1 c4 00 3e
       0.074700266 -0.044164475 0.114650056 0.12575056
000330 5f 69 62 3e 9f b2 15 be dc cf be be af 29 aa 3d
       0.22110508 -0.1461892 -0.3726796 0.08308732
000340 76 2d c7 3d bd 29 83 3d 09 57 33 3e 50 1b 8c be
       0.09725468 0.06404445 0.1751367 -0.27364588
000350 53 77 b2 3d 3f 67 89 bc f8 e2 f4 3d 64 e3 13 3c
       0.087141655 -0.016772864 0.11957353 0.009026382
000360 fa 28 80 be dc 80 8e 3c 86 7b 6c be 03 44 69 be
       -0.25031263 0.01739543 -0.23093995 -0.2277985
000370 33 9c 02 3e 67 cc 34 bf 6a 08 0b be 55 b1 d6 3d
       0.12754898 -0.70624393 -0.13577428 0.10483042
000380 1e 05 53 3e ef 56 38 3e 4d b7 53 3d 7c e6 e2 be
       0.20607421 0.18001913 0.05168848 -0.4431647
000390 8a 06 81 bd be ee 34 3d 42 19 cf 3e 19 c5 be 3e
       -0.06300075 0.044172995 0.40448958 0.3725975
0003a0 5e 59 b6 bd d1 15 2a be 61 be 84 be 93 99 0a 3e
       -0.08903764 -0.16609885 -0.25926498 0.13535146
0003b0 f2 56 8c 3e 90 ca 87 bd df 00 12 be 1e b6 4e be
       0.27410084 -0.066304326 -0.14258145 -0.2018666
0003c0 f0 2d 38 3d 50 3f 22 3e 62 00 03 b9 18 44 5c 3e
       0.044965684 0.15844464 -0.00012493276 0.2151035
0003d0 3a 88 84 bd 1f e2 57 3e dc c1 3d 3d d0 fa 9f 3e
       -0.06471296 0.21082352 0.046327457 0.31246042
0003e0 73 3b ae 3e 10 d4 66 be 6e f0 54 3e b5 2a 5e bc
       0.3402973 -0.22541833 0.20794842 -0.013559987
0003f0 26 da 8b 3d 80 5d 7f bd 7a 6c c4 bd 00 d6 59 bd
       0.06828718 -0.062345028 -0.09591003 -0.053182602

onnx::MatMul_19 f4 [32, 32]
000000 65 5f 10 be 86 4c fa 3d 3f e3 96 3e 83 fd 8c bc
       -0.1409889 0.12221627 0.2947025 -0.017210728
000010 32 22 66 bd c8 be 81 3d d4 ed 3b bd e4 d4 09 be
       -0.056184955 0.06335217 -0.045881107 -0.13460118
000020 ef 19 15 3e 46 25 35 3e 48 7a 7e 3d c6 34 26 3e
       0.14560674 0.1769 0.062128335 0.16231069
000030 34 1a 32 3d cc a1 c3 3e a6 91 00 3e 80 8c 16 3c
       0.04348202 0.3820938 0.1255556 0.009188771
000040 f6 7e f1 bb d1 ac db 3e 5f 22 ab 3c d7 5d 6b 3e
       -0.0073698713 0.42905286 0.020890413 0.22985016
000050 f7 05 20 3d 01 5a bf be 8e b2 d5 3d 8f 3e 07 3e
       0.03906819 -0.37373355 0.10434447 0.13207458
000060 89 24 75 bd db 67 df 3d 80 ac 55 bd 28 a6 09 3e
       -0.059849296 0.10908481 -0.052166462 0.1344229
000070 fb 7c c6 3d 0d 45 e2 3e 75 2a 2d 3e 04 b0 6a 3d
       0.09691807 0.44193307 0.16910727 0.057296768
000080 e9 51 18 3e ac 3c 4f bd b9 b9 0e 3e 83 3a 18 3e
       0.14874996 -0.05059497 0.13938035 0.1486607
000090 00 f7 68 bc e3 05 03 3e 01 af 03 3e d0 bb ca bc
       -0.014219046 0.12795214 0.12859727 -0.02474776
0000a0 28 c0 fc 3c 62 eb 96 3d e1 10 10 3e 14 1f 02 3d
       0.030853346 0.073691145 0.14068939 0.03176792
0000b0 4b a2 09 3e 5b 40 29 3e 10 cb 11 3c 18 c8 d4 bc
       0.13440816 0.16528456 0.0088985115 -0.025974318
0000c0 b3 a5 22 be d4 8e 7e bd 00 c8 bf 3c 6b 27 1b 3e
       -0.15883522 -0.06214793 0.023410797 0.15151756
0000d0 e0 93 d4 bb f6 fe e3 3d 05 4e 2a be 3a 9e 5d bd
       -0.0064873546 0.11132614 -0.16631325 -0.054105975
0000e0 73 99 2c 3e db 14 13 be ad 44 0c be d7 da 28 3e
       0.16855411 -0.14363424 -0.13698073 0.16489731
0000f0 10 18 3f 3d 57 4f bf bd c2 23 e0 3d be fc ca 3d
       0.046653807 -0.09341305 0.1094432 0.09911488
000100 63 61 c5 bd 3b 15 04 3e aa 46 20 3e 9c 62 4f bd
       -0.09637716 0.12898724 0.15651956 -0.05063115
000110 1c 08 56 bd 62 1c 42 bd ef 00 2d 3e 10 5b be bc
       -0.052253827 -0.04739035 0.16894887 -0.023236781
000120 c7 96 68 3c 84 77 0d be ab 3b 1b be 1b 5e 20 3d
       0.014196104 -0.13815123 -0.1515948 0.039152246
000130 da 31 85 3d b9 39 12 bd 03 97 ba bc c1 f4 10 3e
       0.06503649 -0.03569958 -0.022777086 0.14155866
000140 2d 2f eb bc f4 80 55 3c 3c db 7e 3d 3d d5 cb bd
       -0.028709019 0.013031233 0.062220797 -0.09952781
000150 92 b2 51 bd 68 f0 cc bd e3 86 40 3e 66 cc e6 3d
       -0.05119569 -0.10006791 0.18801455 0.11269455
000160 80 ec 2c 3b 4b 60 65 3d 6a 97 3a bc e4 7d 29 be
       0.0026386082 0.056000035 -0.011388639 -0.1655193
000170 90 cf 1e 3e 05 db 08 bd 9e 35 cd 3d 18 8f 78 bd
       0.15508866 -0.033412 0.10019992 -0.06068334
000180 85 6f 11 3e ca 7d 5d bd 30 1c 18 bc 71 0d 2b be
       0.14202698 -0.05407504 -0.009284064 -0.16704346
000190 c5 66 15 3e 5d 48 61 bd 6d a6 08 be 4c 3e 9b 3d
       0.14589985 -0.05500065 -0.13344736 0.075802416
0001a0 f7 97 67 3d e6 70 b1 bd b5 18 f9 bd a3 7f 3a 3e
       0.05654141 -0.08664112 -0.121629156 0.18212752
0001b0 62 d3 94 bb c1 c7 02 be c1 90 35 bd 92 3e 22 be
       -0.0045418004 -0.12771513 -0.0443275 -0.15844181
0001c0 0a d1 d9 3c f4 4e 17 3e 31 a8 0a be 91 f9 c4 3d
       0.026588935 0.14776212 -0.13540722 0.096179135
0001d0 53 1c 1c 3e fa a1 d6 3d e9 f4 24 3d fe ad 89 bd
       0.1524518 0.10480113 0.040272627 -0.067226395
0001e0 1a 8d 90 bc 03 9c 6b bc 07 60 0f bd 1e 87 a8 3d
       -0.017645407 -0.014380458 -0.03500369 0.082288966
0001f0 aa 73 fb 3c 45 78 ca bd 10 7b 64 3c 28 47 10 3e
       0.030694801 -0.09886221 0.013945356 0.14089644
000200 d4 0e 8d bd 84 fd f5 3d 87 66 b8 3d 7c 43 3f be
       -0.06887594 0.12011245 0.090039305 -0.18678087
000210 2e 3a 87 bd 0f 46 fa 3d de 87 ea bd 3b 02 2e be
       -0.06602894 0.12220394 -0.11451696 -0.16993038
000220 a6 47 67 3c e3 a2 6d bd ea a8 f4 bc 75 32 30 3e
       0.014116203 -0.05801667 -0.0298657 0.17206748
000230 e7 b2 21 3d 8c 2b 16 3e 29 6e 0a 3d 42 3a 53 3c
       0.039477255 0.1466505 0.033796463 0.012892308
000240 ba 39 13 bd 08 b3 af bd ba 61 0a bd 0a 7a 86 bd
       -0.035943724 -0.085790694 -0.033784606 -0.06566246
000250 a8 9f 89 3e ab 21 8c 3d 95 9a b0 3c cb d7 28 be
       0.2687962 0.06842359 0.021558085 -0.16488568
000260 b0 07 4e be 1d a0 cb 3c cc f3 f8 3b b6 e3 a4 bd
       -0.2012012 0.024856621 0.007597422 -0.08051245
000270 7c c4 a3 3c 1a 4b 2b 3e 06 87 89 3d 9d 82 86 be
       0.019991152 0.16727868 0.06715207 -0.26271525
000280 40 2a 08 3b 25 c5 80 3e 2f e8 bd 3e 20 86 af 3d
       0.0020777136 0.2515041 0.37091205 0.08570504
000290 4c c2 68 3d 50 cd 9c 3e de ce 9f 3d 4c e4 54 3d
       0.05682592 0.3062539 0.07803129 0.051975533
0002a0 46 62 de bd 5a 87 d4 bd 5a 7b 0f bb 51 c4 4a 3d
       -0.10858588 -0.10377379 -0.0021893592 0.04950363
0002b0 0e 51 c7 3d 71 1d 93 3e 45 b7 d1 bc 06 ef ef bd
       0.09732257 0.287334 -0.025600085 -0.11715512
0002c0 27 fc a3 3d 71 1a 98 3e 1b 70 22 be 1c 5d 90 3e
       0.080070786 0.29707673 -0.15863077 0.28196037
0002d0 b1 cc 89 3e 18 13 40 3f c8 e2 81 3b 64 af 10 3d
       0.2691398 0.75029135 0.003963802 0.035323516
0002e0 b0 97 28 be d5 eb 04 3e be 92 b1 3c 2a 32 4c 3d
       -0.16464114 0.12980588 0.021676417 0.049852528
0002f0 2c 4f 50 3e d7 26 85 3e 62 31 c3 3d 69 d3 08 3e
       0.20342702 0.26006195 0.095309034 0.13361897
000300 78 d5 d6 bc 47 b5 cb 3d 37 5a c2 3d a5 91 39 bd
       -0.026224837 0.09946685 0.09489863 -0.045304913
000310 38 d5 ee bc 91 34 92 bc 44 3a 76 bb 29 f7 8d 3d
       -0.029154405 -0.017847331 -0.003757135 0.06931908
000320 90 50 a0 bd 1f fb 2f be 50 cd 9a 3d 95 8f e0 3c
       -0.07827866 -0.17185639 0.075586915 0.027412215
000330 8a 14 16 be 49 01 97 3e a7 3a f9 3d a2 3f 5c 3d
       -0.14656273 0.29493168 0.1216939 0.053771622
000340 86 36 07 3e c8 41 36 3e ea 45 65 bd 74 3c 91 3c
       0.13204393 0.17798531 -0.05597488 0.017729022
000350 56 71 01 3e 3e 0d ec bc 66 de 85 bb 08 92 a0 3d
       0.1264089 -0.028814908 -0.00408535 0.07840353
000360 6f 55 87 3d 55 11 49 3e 18 29 fa 3c b5 be 80 3c
       0.06608092 0.19635518 0.030537173 0.015715936
000370 cb 2f 25 be 07 4f 9f bd 29 71 2f 3e 4e e4 ae 3e
       -0.16131513 -0.07778745 0.17133011 0.34158558
000380 21 3f 1b be c9 0b b3 3d 86 83 5e bd 31 d9 ac 3d
       -0.151608 0.08742482 -0.05432465 0.084398635
000390 8d bd d2 bd 9e 84 9e 3e 8d c9 10 3d 4a b5 95 3d
       -0.1029006 0.30960554 0.035348464 0.07309969
0003a0 b0 0c 34 3e 08 30 2c 3d 6a 79 d8 3c 15 68 5d be
       0.17582965 0.042037994 0.026425082 -0.21621735
0003b0 03 60 9c 3b 62 1f 8e 3e 89 ce 1b be 5a db b9 3a
       0.0047721877 0.27758318 -0.15215506 0.0014179752
0003c0 2a 28 5c 3e 3e fe 30 be 68 26 bf 3c a8 17 c2 3b
       0.21499696 -0.17284486 0.023333743 0.00592323
0003d0 94 7b 0a 3e ca 9c d2 bd aa 9e d2 bc 8c 67 4f 3d
       0.13523704 -0.102838114 -0.025710423 0.05063586
0003e0 aa d5 16 be b6 e1 3e be 20 18 9e bd 3f df 31 bd
       -0.14729944 -0.1864079 -0.07719445 -0.043425795
0003f0 45 f5 a0 3d aa b9 20 3e 86 0f 83 3d 85 4f 0d c0
       0.078592815 0.15695825 0.06399445 -2.2079785

onnx::MatMul_20 f4 [32, 3]
000000 00 cc 4d 3d 12 d3 ee bd 7c b6 23 be f0 51 0e 3e
       0.050243378 -0.11661352 -0.15987581 0.13898444
000010 0f 9f ba bb 78 30 0e be d3 11 fb 3d 2c 90 91 bd
       -0.005695231 -0.13885677 0.12259259 -0.07107577
000020 45 13 1b be 29 6e cf 3c 3c d3 89 bd cc ef 0c bd
       -0.1514407 0.025321083 -0.06729743 -0.034408376
000030 20 6b 92 3c 53 00 c5 bd dc 21 7f 3d a7 a2 12 be
       0.017873347 -0.096192025 0.06228815 -0.1431986
000040 77 6f 7c be 78 2b 03 3e 1b 9b 19 3e 76 8e 51 3d
       -0.24651895 0.12809551 0.15000574 0.051161252
000050 f6 6b 03 be d4 ff e6 bd 36 00 97 3c 30 85 d7 bd
       -0.12834153 -0.11279264 0.018432718 -0.105234504
000060 dd 88 a0 3d b6 30 5f be f8 48 1b 3e 80 6e ad 3d
       0.078386046 -0.21795925 0.15164554 0.08468342
000070 c3 c4 83 bd 32 80 36 3d 4d b9 78 bc 56 e2 4a 3d
       -0.06434014 0.04455585 -0.015180898 0.049532257
000080 5c 6b e7 bd b2 2b 72 bc 17 e9 a1 3e 2a 2f 0a 3d
       -0.11299774 -0.014780926 0.31623146 0.033736385
000090 57 cb 05 bd 5a b4 23 3e 80 17 f3 bd 67 aa 06 bd
       -0.032664623 0.15986767 -0.11869717 -0.032877352
0000a0 cc 59 82 be da 5e dd bd f0 8d 81 3e b4 e8 c6 3c
       -0.25459135 -0.10809107 0.25303602 0.024280883
0000b0 33 9d 70 3e e4 73 6c 3d 06 2e 6a bc 77 9e 4b bd
       0.23497467 0.05772771 -0.014293199 -0.04971167
0000c0 a5 2a 80 be 9a 33 c5 bd 19 3e 5a 3e e5 8e 45 bd
       -0.25032535 -0.09628983 0.21312751 -0.048231978
0000d0 42 9d 2e 3e ce 3b 84 3d f2 5d 2e 3e f8 33 f5 3d
       0.17052177 0.06456719 0.17028025 0.11972803
0000e0 95 f7 95 bd 28 45 ff 3d f6 ba d2 3d 21 b2 b6 3d
       -0.07322613 0.124643624 0.10289566 0.08920694
0000f0 10 a2 ff bc b8 a6 0d 3d 1e 31 37 be b1 ff 31 be
       -0.031205207 0.034582824 -0.1788983 -0.17382695
000100 76 e2 4b 3d 0c cf 28 bd f8 ce b5 bd c8 fc df 3c
       0.049776517 -0.04121308 -0.08877367 0.027342215
000110 ae 47 00 3e 85 29 b8 3d ac d1 cf bd d7 69 26 3e
       0.12527344 0.08992294 -0.101474136 0.16251312
000120 74 8a da 3d fd 44 59 bd e6 b4 d2 bd 74 f5 5a 3e
       0.10670939 -0.053044308 -0.1028841 0.21382695
000130 4a 12 15 bd 94 c2 68 3e 18 af 0d 3e c7 71 8b bc
       -0.036394395 0.22730476 0.13836324 -0.017022027
000140 6e 2f ef 3d b7 6d bf 3d 59 17 f5 3d db a3 de bc
       0.11678968 0.09347098 0.11967344 -0.027177742
000150 3a 07 a0 be d6 e3 09 3d d7 2a 56 3d 80 f0 24 be
       -0.31255513 0.033664547 0.05228695 -0.16107368
000160 ba f5 58 3e 94 a7 9c 3d 68 60 1a be d2 b7 cb bd
       0.21187487 0.076491505 -0.15075839 -0.0994717
000170 7c b9 95 3d 39 e2 c5 3d e5 79 c0 3d f9 59 6a bb
       0.07310769 0.09662289 0.093982495 -0.0035759194
