EyeTrackingTest/Assets/Models/lr_xyz.onnx (onnx, 10704 bytes, 7 tensors)

fc.1.weight f4 [128, 9]
-0.1634505 -0.20797911 -0.009358574 -0.052468427 0.35833445 0.0766698 0.03422286 0.0828416
0.32493043 0.20645311 0.20981541 -0.029735122 0.14155395 0.06821519 0.2258738 -0.07177762
0.06478973 0.017055007 -0.21326707 -0.3164451 -0.10084157 0.25309324 0.098446056 -0.20276465
0.0924687 -0.09049253 0.23359749 0.26574603 0.08788687 0.22888102 -0.18471168 -0.26862702
0.21357554 -0.102316454 -0.18134928 -0.29919815 -0.1459927 -0.13989662 0.15291657 0.21763211
-0.20739649 0.23715787 0.19020739 0.21974984 -0.1965301 -0.06301285 -0.2375056 -0.2316179
-0.2542964 0.19609286 0.19175388 -0.16087402 -0.17515749 -0.052277844 0.20717563 -0.038774453
-0.2169083 -0.18585034 -0.3124051 0.32516932 -0.16304895 -0.22100022 0.06170105 -0.05641296
0.17014393 -0.29235685 -0.31136823 0.2573565 -0.18336898 -0.30907094 0.2398173 -0.22510542
-0.13854979 -0.15984295 -0.2623138 -0.32483298 0.13267794 -0.12225875 0.035595458 -0.31696752
-0.19040252 -0.27588582 -0.14114784 0.31260297 0.31850976 0.19934045 0.3179127 0.24104995
0.12300047 0.0938301 0.04156482 0.19327523 -0.031176684 0.19125411 -0.15524633 0.16569056
-0.2763569 -0.21982369 0.13485986 -0.104793996 0.18506016 -0.311255 0.29252103 -0.23325638
-0.05079644 0.20666546 0.04922419 0.30782515 0.039490215 -0.15900478 -0.008315725 -0.14816588
-0.0470641 -0.19485705 -0.14067434 -0.22341573 0.2732049 0.22027928 0.18133481 0.16475391
0.010135415 -0.12276031 0.2595747 0.07507923 0.084916785 -0.29196098 0.09015799 -0.089378
0.230039 0.17665045 0.20989202 0.23421274 0.24681735 0.10165989 -0.16908517 -0.014132498
-0.1624959 0.07578591 0.0362398 0.10023001 0.16019632 0.051854715 0.023396166 0.3003858
0.33739093 -0.08020308 -0.20129232 0.21602955 -0.072499014 0.2260827 0.13709918 -0.20011084
-0.10022394 -0.33922824 -0.29121798 -0.15899657 -0.048093777 0.324578 -0.121083364 0.23832709
-0.12690066 -0.040368672 0.23051827 0.16002291 -0.06244899 0.22247419 0.25411898 0.27018785
0.104180604 -0.19628203 0.12517872 0.25658557 0.21602026 0.26677004 -0.23695846 0.11528986
0.30874532 0.054155156 -0.026284372 -0.27625832 -0.20260257 -0.07443579 -0.0077953693 -0.04618038
0.09453793 0.10362353 -0.12607148 0.08932091 0.20154113 -0.28837395 -0.32963824 -0.31905758
-0.15708426 0.11759899 0.31240788 -0.15441304 -0.062107604 0.07139653 0.07750346 -0.3402898
0.11462639 -0.15000604 0.11061197 0.28877646 -0.31193936 -0.063110135 0.17848574 -0.26631922
0.26930377 0.08938705 -0.13706104 -0.13326532 0.24557936 -0.10554094 0.32789862 0.19929653
0.3363882 -0.17206393 -0.17796512 0.17627583 0.33256117 -0.08172422 0.27835077 0.23700553
0.25897634 0.08650313 0.30097777 -0.2220906 0.04271754 0.19408646 0.30177328 -0.2622367
0.08435547 -0.3023947 0.07488959 0.036853086 -0.24752772 -0.1655855 -0.14817639 0.06251159
-0.2769298 -0.29717833 -0.33164552 -0.23053417 -0.0987581 0.12600991 0.07508445 0.18868376
-0.27595776 -0.02620363 0.15365992 -0.19250269 -0.020403216 -0.06899419 -0.084729284 0.20660251
00000000: 915f 27be 7af8 54be b454 19bc 22e9 56bd
00000010: 9d77 b73e 0e05 9d3d 452d 0c3d dba8 a93d
00000020: 485d a63e 7268 533e dad9 563e 1297 f3bc
00000030: 85f3 103e 68b4 8b3d 764b 673e 2500 93bd
00000040: 7ab0 843d f1b6 8b3c af62 5abe 1805 a2be
00000050: 0686 cebd 7095 813e 169e c93d 89a1 4fbe
00000060: 3b60 bd3d 2654 b9bd 2e34 6f3e dd0f 883e
00000070: 08fe b33d c95f 6a3e 0f25 3dbe 7b89 89be
00000080: 8cb3 5a3e 4a8b d1bd a0b3 39be 8030 99be
00000090: 1c7f 15be 0f41 0fbe 2996 1c3e f4da 5e3e
000000a0: bf5f 54be 83d9 723e bac5 423e 1a06 613e
000000b0: 303f 49be e20c 81bd ab34 73be 3e2d 6dbe
000000c0: 2333 82be 91cc 483e 215b 443e 29bc 24be
000000d0: 7c5c 33be 4b21 56bd d925 543e f6d1 1ebd
000000e0: 361d 5ebe 8d4f 3ebe 90f3 9fbe 987c a63e
000000f0: 4ef6 26be e24d 62be 3dba 7c3d 4711 67bd
00000100: 363a 2e3e ccaf 95be a86b 9fbe 3bc4 833e
00000110: 14c5 3bbe 8c3e 9ebe ab92 753e 0982 66be
00000120: ffdf 0dbe dfad 23be ff4d 86be 8250 a6be
00000130: badc 073e cc62 fabd 8bcc 113d 9149 a2be
00000140: e1f8 42be e840 8dbe 0f89 10be 7f0d a03e
00000150: b613 a33e e71f 4c3e 74c5 a23e ccd5 763e
00000160: ace7 fb3d ff29 c03d df3f 2a3d f1e9 453e
00000170: 3f66 ffbc 1ed8 433e e5f8 1ebe c9aa 293e
00000180: a77e 8dbe 7619 61be b418 0a3e 3c9e d6bd
00000190: 6980 3d3e d15c 9fbe 51c5 953e c3da 6ebe
000001a0: ee0f 50bd 1ca0 533e 4e9f 493d 429b 9d3e
000001b0: 7ec0 213d 26d2 22be ae3e 08bc ccb8 17be
000001c0: 49c6 40bd 9b88 47be ef0c 10be 18c7 64be
000001d0: 83e1 8b3e e490 613e d5af 393e 40b5 283e
000001e0: 030f 263c c269 fbbd fae6 843e 24c3 993d
000001f0: dae8 ad3d e97b 95be c1a4 b83d d00b b7bd
00000200: 588f 6b3e dbe3 343e efed 563e 77d5 6f3e
00000210: b0bd 7c3e 0f33 d03d aa24 2dbe fe8b 67bc
00000220: 5365 26be a535 9b3d 2f70 143d 6445 cd3d
00000230: 810a 243e 9c65 543d 51a9 bf3c 2bcc 993e
00000240: 81be ac3e 8341 a4bd 931f 4ebe da36 5d3e
00000250: 5d7a 94bd 3982 673e ba63 0c3e dbe9 4cbe
00000260: 3642 cdbd 53af adbe 861a 95be ffcf 22be
00000270: fbfd 44bd 162f a63e 8efa f7bd 040c 743e
00000280: 3ff2 01be 9f59 25bd fb0c 6c3e 0cdd 233e
00000290: 83ca 7fbd 46d0 633e e21b 823e 1056 8a3e
000002a0: a45c d53d 28fe 48be da2e 003e 2f5f 833e
000002b0: 6a34 5d3e 1596 883e 3da5 72be 171d ec3d
000002c0: de13 9e3e ccd1 5d3d 5352 d7bc bb71 8dbe
000002d0: 0c77 4fbe cb71 98bd 4c70 ffbb a327 3dbd
000002e0: 1a9d c13d 9338 d43d e218 01be e2ed b63d
000002f0: cc60 4e3e c0a5 93be 58c6 a8be 845b a3be
00000300: b2da 20be bdd7 f03d edf3 9f3e 741e 1ebe
00000310: 8b64 7ebd 5838 923d 22ba 9e3d 773a aebe
00000320: 3ec1 ea3d 2f9b 19be 8788 e23d 82da 933e
00000330: 84b6 9fbe e33f 81bd f7c4 363e fe5a 88be
00000340: 2fe2 893e 8f10 b73d bb59 0cbe b476 08be
00000350: 2879 7b3e d925 d8bd 54e2 a73e 6414 4c3e
00000360: 133b ac3e 8731 30be 7d3c 36be a781 343e
00000370: 7545 aa3e 075f a7bd fe83 8e3e 94b1 723e
00000380: 8c98 843e 8e28 b13d c219 9a3e b86b 63be
00000390: 96f8 2e3d 9abe 463e 0782 9a3e e443 86be
000003a0: 90c2 ac3d 7ad3 9abe b75f 993d 43f3 163d
000003b0: e877 7dbe 3f8f 29be 8dbb 17be 1406 803d
000003c0: bec9 8dbe c227 98be 71cd a9be 2611 6cbe
000003d0: b041 cabd be08 013e e0c5 993d 5136 413e
000003e0: 564a 8dbe ffa8 d6bc 0759 1d3e 6d1f 45be
000003f0: a524 a7bc d34c 8dbd 8c86 adbd 9c8f 533e

fc.1.bias f4 [128]
0.16386232 0.10752183 -0.01976197 0.3192157 0.026743807 0.12257745 0.19306946 0.13803993
0.15426378 -0.3214063 -0.15341818 0.062645115 -0.16063073 -0.15820996 0.20225398 -0.008785211
-0.29861873 0.29079252 -0.31207487 -0.14168155 0.21363828 -0.20402041 -0.24376678 -0.25678417
0.17822209 0.19712521 -0.30064058 0.10564033 0.20513801 -0.16810133 0.28997013 0.0011142868
0.1207475 -0.2694978 -0.06043076 -0.10197041 -0.119016096 0.24440521 0.031161383 -0.2341949
-0.28452963 0.019715846 -0.3065151 0.25685522 -0.012677646 -0.27484325 -0.07234641 -0.07780209
-0.01744109 0.17765816 -0.25801054 -0.003584299 0.33122656 0.062663354 -0.2904294 0.12374468
-0.25532594 0.03771317 0.30415764 -0.14656861 -0.1340992 0.09514796 0.3058932 -0.10771291
-0.26018238 0.26022577 0.30748075 0.023025297 0.21901043 -0.2868422 -0.16556619 -0.31459358
0.049293835 0.29474083 -0.17798905 -0.3025526 0.26578358 -0.007720789 0.07762944 -0.12325115
-0.103887565 -0.27286762 -0.3041957 0.09337252 -0.12423938 0.036404334 0.17624913 -0.061014753
-0.10835352 0.2084263 -0.13930029 -0.20202138 0.06889211 0.0041107633 0.09767435 -0.28002307
0.3140964 -0.11598107 -0.024696847 -0.1214087 0.25192064 -0.25297374 -0.2860459 -0.069846
0.18330067 0.3433501 -0.08560371 -0.24809486 0.1943171 0.06497764 -0.15600787 -0.2686976
-0.061955884 0.14511013 0.21629691 0.1810017 0.16172183 0.08775427 -0.2330969 -0.111127704
-0.06820451 0.20819965 -0.24884154 -0.1275579 -0.10999587 0.03109556 -0.339604 -0.2667819
00000000: 86cb 273e 6834 dc3d dbe3 a1bc 3d70 a33e
00000010: d415 db3c e309 fb3d 00b4 453e 575a 0d3e
00000020: 53f7 1d3e 5e8f a4be a819 1dbe 154c 803d
00000030: 627c 24be cb01 22be ab1b 4f3e d8ef 0fbc
00000040: 8ee4 98be c2e2 943e 47c8 9fbe f814 11be
00000050: fec3 5a3e baea 50be 009e 79be 3779 83be
00000060: da7f 363e 31db 493e 90ed 99be f559 d83d
00000070: b30f 523e c122 2cbe f776 943e 430d 923a
00000080: 774a f73d 9efb 89be 3f86 77bd ddd5 d0bd
00000090: b6be f3bd 5c45 7a3e 2846 ff3c cad0 6fbe
000000a0: dead 91be 2083 a13c 8cef 9cbe 8782 833e
000000b0: e7b5 4fbc 41b8 8cbe 5b2a 94bd b456 9fbd
000000c0: 9ee0 8ebc 05ec 353e f519 84be 8fe6 6abb
000000d0: 8796 a93e a555 803d 2ab3 94be da6d fd3d
000000e0: 15ba 82be 2079 1a3d 8dba 9b3e 1516 16be
000000f0: 4d51 09be efdc c23d 099e 9c3e 9698 dcbd
00000100: a036 85be 503c 853e 1e6e 9d3e 8c9f bc3c
00000110: 4544 603e fbdc 92be 2f8a 29be 6912 a1be
00000120: 55e8 493d 45e8 963e c342 36be 2de8 9abe
00000130: c914 883e acfe fcbb 2ffc 9e3d 196b fcbd
00000140: 01c3 d4bd 4eb5 8bbe 8abf 9bbe 173a bf3d
00000150: 3771 febd b61c 153d a77a 343e 9bea 79bd
00000160: 73e8 ddbd b46d 553e bca4 0ebe b1de 4ebe
00000170: 4e17 8d3d 95b3 863b 7d09 c83d 2f5f 8fbe
00000180: 3ed1 a03e 7c87 edbd 0b51 cabc 20a5 f8bd
00000190: befb 803e c685 81be 9c74 92be 6b0b 8fbd
000001a0: 2cb3 3b3e 96cb af3e ff50 afbd 940c 7ebe
000001b0: 10fb 463e ff12 853d 87c0 1fbe bb92 89be
000001c0: 74c5 7dbd c097 143e f07c 5d3e 8258 393e
000001d0: 689a 253e 83b8 b33d f4b0 6ebe ec96 e3bd
000001e0: ceae 8bbd 4a32 553e 51d0 7ebe 8a9e 02be
000001f0: 8445 e1bd 1ebc fe3c 93e0 adbe a397 88be

fc.3.weight f4 [3, 128]
0.002793003 -0.07013927 0.012277106 -0.031224865 0.006753861 0.013127941 0.08955594 0.014284494
-0.038020942 -0.031864323 -0.019232687 -0.03620679 0.07606401 -0.055643145 -0.04262812 -0.050760355
0.0021837542 -0.057851497 -0.023182206 -0.048557412 -0.060472712 0.054638203 -0.06538128 0.003578184
0.055876736 0.0012139602 0.052337885 -0.038815442 0.031943962 0.06396222 0.014309503 -0.09068626
-0.03502574 -0.0032365632 0.031728677 0.074275434 0.022107137 0.08565918 0.026713468 0.053372703
0.07078432 0.026658403 -0.03589592 0.073249504 0.010286309 -0.069466464 0.026823336 -0.030379452
0.05585063 0.039754957 -0.091289565 -0.03505353 0.0007076408 -0.087061554 0.062427524 -0.0032888204
-0.05720753 0.07163494 0.079703055 0.0365476 0.048532832 -0.029792106 0.09317736 0.012169117
0.035061494 0.06592986 -0.0037771817 -0.08371379 -0.066577695 -0.048501372 0.012654758 -0.088076435
0.009236197 0.046408217 -0.0654901 -0.07045344 -0.0713415 0.035633247 0.06715525 0.043516
-0.016311225 0.030434081 0.062351637 -0.030029222 0.034212 0.053574577 0.09463181 -0.015152492
0.08129615 -0.05944628 0.036469243 -0.032899287 0.09326359 0.051214762 0.020192329 0.0070514465
-0.06460366 0.060907207 -0.06338792 0.029024212 -0.010087853 -0.06854408 0.03262158 0.0023089238
-0.029519357 0.06270235 -0.07194681 -0.034753066 0.0001331784 -0.033643957 0.017556297 -0.04930097
0.10008003 0.026317133 0.02082978 -0.06890077 -0.0069123874 -0.0314294 0.023545947 -0.054714866
0.008683785 0.020752495 -0.04293764 -0.09381906 0.013637071 0.051474445 -0.04777023 0.013355207
-0.057307787 -0.09706959 0.056522783 0.03818796 0.07786097 -0.011210808 0.028559908 -0.0001901626
-0.06443512 0.071879774 0.023859832 0.019249734 0.068983465 0.0049720453 -0.015761506 0.0580862
0.0838971 -0.077958666 -0.081326194 0.036046263 -0.074864715 0.0651287 0.0043071792 -0.07060815
-0.06357314 0.009099683 0.08729111 0.0410718 0.06385315 -0.04531983 0.008188124 0.013776534
-0.025124552 -0.03749699 -0.09458917 -0.038645096 -0.009530718 0.046179857 -0.08139963 0.025652083
-0.024001798 0.031006528 0.0247296 -0.02998734 -0.0060110646 0.05356352 0.04709354 0.007687094
-0.013308545 0.06933626 -0.04651443 -0.029816812 -0.03803916 0.052635938 0.03980945 -0.01866441
0.084695555 -0.06442342 -0.06631228 0.02306074 -0.080956616 -0.074776925 0.025547104 0.023238208
-0.037972014 0.06345139 -0.06983825 -0.04829181 -0.0709886 -0.07841692 -0.05065616 0.03025908
0.04537155 -0.009557355 -0.040598966 -0.018385982 0.05574661 0.052921247 -0.041694112 -0.0057380414
-0.048831537 0.031224024 0.008909567 -0.057157237 -0.059904665 -0.06916977 0.05598153 0.0031507055
-0.02343732 0.05518793 0.023032447 0.025588498 0.038702585 -0.044670627 -0.05226782 -0.042005394
0.05203317 -0.05847795 0.038745005 -0.09609865 0.06709623 -0.05477805 0.014855564 -0.03135271
-0.038843576 -0.0666658 0.015561854 0.039258372 0.025939157 -0.038688738 -0.07203361 0.08300858
-0.09162597 -0.10878245 0.068198584 0.015683006 0.07576782 -0.026690982 0.07166469 -0.036709156
0.046520084 0.05089374 0.019685665 0.07336899 -0.062352303 -0.05178976 -0.08545658 0.0673508
00000000: d10a 373b 2da5 8fbd ea25 493c 4acb ffbc
00000010: 7e4f dd3b 9316 573c 1b69 b73d 8309 6a3c
00000020: d9bb 1bbd 2a84 02bd de8d 9dbc 924d 14bd
00000030: 73c7 9b3d 11ea 63bd d39a 2ebd 17ea 4fbd
00000040: 511d 0f3b b1f5 6cbd 9ce8 bdbc 23e4 46bd
00000050: 3cb2 77bd 4fcc 5f3d 9fe6 85bd f77f 6a3b
00000060: 01df 643d bf1d 9f3a 4060 563d f1fc 1ebd
00000070: acd7 023d a0fe 823d 6872 6a3c b8b9 b9bd
00000080: 2677 0fbd 851c 54bb eef5 013d b81d 983d
00000090: 071a b53c 156e af3d 34d6 da3c 569d 5a3d
000000a0: 5ff7 903d b962 da3c 9a07 13bd d603 963d
000000b0: e887 283c 6f44 8ebd 9dbc db3c 54de f8bc
000000c0: a1c3 643d 18d6 223d 06f6 babd 4a94 0fbd
000000d0: f880 393a 544d b2bd 01b4 7f3d 4089 57bb
000000e0: 7152 6abd 57b5 923d 5b3b a33d f0b2 153d
000000f0: 5dca 463d 930e f4bc c6d3 be3d fa60 473c
00000100: a49c 0f3d 3c06 873d 988a 77bb 2372 abbd
00000110: e359 88bd 60a9 46bd e755 4f3c 6b61 b4bd
00000120: 6b53 173c 8b16 3e3d ac1f 86bd e549 90bd
00000130: 7e1b 92bd 2bf4 113d b188 893d d53d 323d
00000140: 1e9f 85bc e550 f93c 6e64 7f3d d8ff f5bc
00000150: e221 0c3d 0471 5b3d 53ce c13d 2842 78bc
00000160: 997e a63d f17d 73bd c660 153d 67c1 06bd
00000170: fb00 bf3d 92c6 513d 626a a53c d20f e73b
00000180: ec4e 84bd d679 793d 87d1 81bd 2fc4 ed3c
00000190: 8647 25bc d760 8cbd 359e 053d 5051 173b
000001a0: 94d2 f1bc 176a 803d d958 93bd 3b59 0ebd
000001b0: cea5 0b39 3fce 09bd 39d2 8f3c d0ef 49bd
000001c0: c2f6 cc3d 0797 d73c 37a3 aa3c d91b 8dbd
000001d0: 4f81 e2bb 1dbc 00bd 6ee3 c03c b21c 60bd
000001e0: 6f46 0e3c 2301 aa3c 61df 2fbd 3524 c0bd
000001f0: 056e 5f3c ded6 523d b7aa 43bd cccf 5a3c
00000200: 92bb 6abd 6ccc c6bd 6f84 673d fa6a 1c3d
00000210: 9275 9f3d 89ad 37bc 78f6 e93c 6266 47b9
00000220: 8ff6 83bd b435 933d b275 c33c 9eb1 9d3c
00000230: 3447 8d3d 8aec a23b 461e 81bc cceb 6d3d
00000240: 3ed2 ab3d cba8 9fbd 598e a6bd 3fa5 133d
00000250: ac52 99bd 3262 853d 3d23 8d3b 019b 90bd
00000260: a232 82bd d616 153c aec5 b23d e73a 283d
00000270: 71c5 823d 49a1 39bd 7b27 063c f9b6 613c
00000280: 01d2 cdbc 7296 19bd f7b7 c1bd 524a 1ebd
00000290: bb26 1cbc 1727 3d3d d9b4 a6bd 5124 d23c
000002a0: 6b9f c4bc 6701 fe3c bb95 ca3c 03a8 f5bc
000002b0: 77f8 c4bb 6c65 5b3d 28e5 403d 05e4 fb3b
000002c0: 150c 5abc 2b00 8e3d ea85 3ebd 6342 f4bc
000002d0: f3ce 1bbd c898 573d 3c0f 233d 1be6 98bc
000002e0: dd74 ad3d 6df0 83bd bcce 87bd e1e9 bc3c
000002f0: 95cc a5bd a524 99bd 2948 d13c 0e5e be3c
00000300: 8b88 1bbd cdf2 813d 5b07 8fbd a2cd 45bd
00000310: 7962 91bd 0d99 a0bd d57c 4fbd e4e1 f73c
00000320: 85d7 393d 7496 1cbc 1a4b 26bd 339e 96bc
00000330: 8f56 643d f3c3 583d 72c7 2abd 2e06 bcbb
00000340: 9403 48bd 86c9 ff3c 6ff9 113c b51d 6abd
00000350: 985e 75bd e1a8 8dbd e44c 653d 117c 4e3b
00000360: 9fff bfbc bd0c 623d 8bae bc3c f89e d13c
00000370: 9a86 1e3d 8cf8 36bd c816 56bd d90d 2cbd
00000380: bc20 553d 9386 6fbd 15b3 1e3d 5ecf c4bd
00000390: c069 893d f35e 60bd c064 733c b36b 00bd
000003a0: 711a 1fbd 1488 88bd 25f7 7e3c 63cd 203d
000003b0: 5b7e d43c 1578 1ebd 5b86 93bd 6700 aa3d
000003c0: 66a6 bbbd 55c9 debd b3ab 8b3d a679 803c
000003d0: 292c 9b3d 0ca7 dabc f0c4 923d 575c 16bd
000003e0: d88b 3e3d f475 503d d543 a13c 7b42 963d
000003f0: 2165 7fbd 8021 54bd dc03 afbd 37ef 893d

fc.3.bias f4 [3]
0.074314184 0.040746115 0.10014491
00000000: 0932 983d 66e5 263d c618 cd3d

onnx::LSTM_95 f4 [1, 36, 9]
0.2751884 -0.30034253 -0.22609177 -0.3225086 -0.26296473 0.24387616 0.21546732 -0.21198453
0.16422927 -0.30027133 -0.3058218 0.06121248 0.20720585 0.120527364 0.19510996 0.3211489
-0.030172223 0.0013152204 -0.2706661 0.075032346 0.1605022 -0.13908944 0.13689682 0.33054766
-0.27218997 -0.011610155 -0.22161686 -0.23616594 0.13421497 0.036437254 0.2931186 -0.07515058
-0.30725062 -0.10289443 0.14806353 0.23795743 -0.023001565 -0.21427795 -0.35219744 -0.04307083
-0.08566133 0.22643068 -0.3246036 -0.13636832 0.328377 0.13069303 -0.04126069 -0.118571356
-0.30218476 0.05094899 0.1304376 0.24084067 0.22838545 0.3324091 -0.06216771 0.0372258
0.20566025 0.2885477 0.10700891 0.08502886 -0.20191784 0.23843668 -0.014395379 0.32343665
-0.0077768546 -0.16984119 0.078260176 -0.27752754 0.11247493 -0.3266809 0.24587089 0.20626725
-0.33861724 0.08097304 0.13206185 -0.120210804 0.09192015 -0.005557031 -0.072997004 -0.2142337
-0.29928765 -0.29431307 -0.19269967 -0.1442707 -0.021575823 -0.2075008 -0.31213173 0.10709705
-0.24493752 -0.32276732 0.17895603 0.15224099 0.18740803 0.32018015 0.27888784 0.04529396
-0.19772854 -0.09952725 -0.13010621 0.28564557 0.16897933 -0.28395563 -0.10243036 0.3427295
-0.049588226 -0.20827076 -0.35318747 -0.030543031 -0.15351182 -0.07421885 0.13984512 -0.06361281
-0.17807764 -0.346646 -0.33658352 0.2338606 0.21181114 0.06254484 -0.13675255 -0.2756116
-0.23087767 0.17221089 -0.02642329 0.2258687 0.057895094 -0.031467516 -0.1601648 0.17810164
-0.24534945 -0.115424626 0.23624729 0.31208315 -0.1388686 -0.156135 0.3441468 0.084990695
-0.24390806 0.2670585 -0.19146352 -0.02643194 0.16909878 0.32108703 0.15320945 -0.06266065
-0.20886913 -0.23938572 -0.18989739 -0.18204865 -0.11986562 -0.22425751 0.13013537 -0.07179114
0.055794705 -0.052408144 -0.13569875 -0.20073119 0.09473479 0.18248563 -0.32254156 -0.31590098
0.12777035 -0.00086747314 0.25446686 -0.026969764 0.3195403 0.05111946 -0.103684925 -0.2276942
0.117013074 0.050735187 -0.29444784 0.23686288 -0.12142979 0.21717511 -0.33319345 0.218765
-0.12150555 -0.006660464 -0.2079086 0.15645471 -0.13533019 -0.015722997 0.05032947 0.14379422
0.3498185 0.0811009 0.074377574 -0.041500803 0.18473548 0.06898681 0.052172765 -0.17021258
0.31175074 -0.28054678 -0.32998693 0.2825222 0.020721504 0.06684208 0.0074157785 -0.3542956
0.262808 -0.27438673 0.12643534 0.12545986 -0.29845825 -0.07187524 0.33079162 -0.2541782
0.022375612 -0.034178894 -0.04828139 0.30316558 0.22884434 0.18618323 0.1534736 0.17355308
-0.10777904 -0.26132506 -0.052059535 0.20914319 0.21715683 0.23688349 0.26880577 -0.16254547
-0.28409046 0.15393226 0.14456502 -0.34606823 -0.09711045 0.21701284 0.14543243 0.19511977
-0.07604943 0.06551476 -0.011040168 0.2770836 0.007248538 -0.3293108 -0.08749391 -0.2599463
-0.07944166 0.1195419 0.26937255 0.22638267 0.32807145 0.25365838 -0.22667807 -0.055673823
-0.09573794 0.08434634 -0.16302899 -0.18112141 -0.20527126 -0.32814786 0.0034742788 0.13197292
00000000: 7ee5 8c3e 7fc6 99be 9a84 67be d91f a5be
00000010: 50a3 86be acba 793e 77a3 5c3e 7912 59be
00000020: b82b 283e 2abd 99be ad94 9cbe f0b9 7a3d
00000030: c52d 543e 0dd7 f63d e8ca 473e a16d a43e
00000040: bd2b f7bc 7963 ac3a bf94 8abe 8faa 993d
00000050: b05a 243e 766d 0ebe ae2e 0c3e 8b3d a93e
00000060: 7c5c 8bbe 8538 3ebc 88ef 62be 7cd5 71be
00000070: a66f 093e 3b3f 153d a413 963e 8ce8 99bd
00000080: f44f 9dbe 51ba d2bd f79d 173e 1dab 733e
00000090: c76d bcbc ae6b 5bbe 3953 b4be 0a6b 30bd
000000a0: 356f afbd 72dd 673e 7132 a6be 23a4 0bbe
000000b0: 0821 a83e 65d4 053e f800 29bd 8ad5 f2bd
000000c0: f6b7 9abe e3af 503d 6f91 053e f09e 763e
000000d0: e0dd 693e 8731 aa3e 92a3 7ebd 157a 183d
000000e0: 9a98 523e 86bc 933e 7d27 db3d 9c23 ae3d
000000f0: 8dc3 4ebe bf28 743e 99da 6bbc 7d99 a53e
00000100: fcd4 febb d9ea 2dbe df46 a03d 1718 8ebe
00000110: 4259 e63d b842 a7be 94c5 7b3e b937 533e
00000120: 3d5f adbe 31d5 a53d 393b 073e 1531 f6bd
00000130: a240 bc3d c117 b6bb 747f 95bd 1460 5bbe
00000140: 3b3c 99be 34b0 96be 1053 45be b3bb 13be
00000150: c8bf b0bc 177b 54be bbcf 9fbe b355 db3d
00000160: e7d0 7abe c241 a5be 4040 373e 10e5 1b3e
00000170: e4e7 3f3e a7ee a33e 63ca 8e3e 2986 393d
00000180: 5a79 4abe f1d4 cbbd 903a 05be 2340 923e
00000190: eb08 2d3e a262 91be 02c7 d1bd 3e7a af3e
000001a0: 061d 4bbd ee44 55be fdd4 b4be 6135 fabc
000001b0: 3432 1dbe 0d00 98bd 8f33 0f3e 6f47 82bd
000001c0: fc59 36be 967b b1be ad54 acbe 2779 6f3e
000001d0: 05e5 583e 8217 803d dc08 0cbe f71c 8dbe
000001e0: 326b 6cbe 0d58 303e a875 d8bc 204a 673e
000001f0: 6823 6d3d 15e4 00bd 3e02 24be 4760 363e
00000200: e33c 7bbe bf63 ecbd cfea 713e 5dc9 9f3e
00000210: 9233 0ebe dae1 1fbe 0234 b03e 9a0f ae3d
00000220: 09c3 79be e4bb 883e 030f 44be cc87 d8bc
00000230: 3b28 2d3e 8565 a43e f0e2 1c3e 3a54 80bd
00000240: cae1 55be 8821 75be 7674 42be f66a 3abe
00000250: 1b7c f5bd c3a3 65be 3542 053e 3c07 93bd
00000260: fd88 643d eca9 56bd 9df4 0abe 7a8c 4dbe
00000270: 5004 c23d 83dd 3a3e 2b24 a5be c6bd a1be
00000280: 3bd6 023e 2367 63ba 7b49 823e b2ef dcbc
00000290: c99a a33e a462 513d c358 d4bd ab28 69be
000002a0: 8da4 ef3d b3cf 4f3d dec1 96be 2f8c 723e
000002b0: 2fb0 f8bd 2763 5e3e 5598 aabe ef03 603e
000002c0: e7d7 f8bd 0640 dabb fee5 54be aa35 203e
000002d0: ff93 0abe 84cd 80bc 4626 4e3d cb3e 133e
000002e0: 691b b33e 3b18 a63d 4553 983d bffc 29bd
000002f0: 4c2b 3d3e f548 8d3d 1cb3 553d 354c 2ebe
00000300: cb9d 9f3e d4a3 8fbe 0cf4 a8be c0a6 903e
00000310: 25c0 a93c 80e4 883d 0f00 f33b 3c66 b5be
00000320: c58e 863e 6b7c 8cbe 4478 013e 8d78 003e
00000330: 85cf 98be 5333 93bd 855d a93e a523 82be
00000340: 0f4d b73c 2bff 0bbd b5c2 45bd 8538 9b3e
00000350: 2c56 6a3e d1a6 3e3e 2f28 1d3e e6b7 313e
00000360: 42bb dcbd 66cc 85be 613c 55bd a229 563e
00000370: 5c5e 5e3e 9691 723e e9a0 893e 5272 26be
00000380: 4e74 91be 6ba0 1d3e da08 143e db2f b1be
00000390: d8e1 c6bd 9d38 5e3e 3dec 143e 7acd 473e
000003a0: cebf 9bbd 9a2c 863d d2e1 34bc e7dd 8d3e
000003b0: 2585 ed3b 6d9b a8be 0230 b3bd ae17 85be
000003c0: 4fb2 a2bd 62d2 f43d 33eb 893e dcd0 673e
000003d0: fbf8 a73e 83df 813e 4c1e 68be 3c0a 64bd
000003e0: 4112 c4bd c6bd ac3d 12f1 26be e477 39be
000003f0: a132 52be ff02 a8be bab0 633b e923 073e

onnx::LSTM_96 f4 [1, 36, 9]
-0.30117327 0.2502355 0.11791154 0.119709514 0.04599172 0.2893835 0.021856641 0.12476537
-0.23393151 -0.18949407 0.26030964 -0.014911169 -0.22316273 0.17916559 -0.24954088 0.109563515
-0.19408666 -0.21551554 0.25218102 -0.00076818414 0.26328927 0.060025465 0.33926573 -0.10991946
0.040709693 0.09859794 0.085552506 -0.0073597594 0.26569393 -0.14008652 0.021525647 -0.32727927
0.26785034 -0.15368089 -0.102688484 -0.0057069547 -0.13439763 0.29397085 0.13718517 0.2164434
-0.13912754 -0.17714374 -0.26914227 0.10865384 0.109676905 0.025526775 -0.13532059 -0.11387774
-0.29830244 0.24314348 -0.23724529 0.2012122 0.20810956 0.17878515 0.2071171 -0.23619613
-0.16834198 0.23358591 -0.33967185 -0.3077318 0.03420579 0.006142842 -0.17818841 0.110675864
-0.09393725 -0.27830765 -0.16795385 -0.07108465 -0.3460701 -0.29085034 -0.13793501 0.2799869
-0.12133706 0.3377299 -0.24784057 -0.23694782 -0.11798128 -0.33714068 -0.18558802 -0.09933669
-0.3285375 -0.07341607 0.07994877 -0.26237902 -0.2680679 0.3313815 -0.17833081 0.26636732
0.012747678 -0.19406177 0.10418838 0.06062215 0.078836985 0.008533304 0.024201564 0.24968679
0.035163224 -0.04095021 -0.18045937 0.27681315 0.04310236 0.2648072 -0.10652081 0.16641118
0.19670457 -0.24088414 0.09772458 -0.28990817 -0.108173706 -0.10719206 -0.07058399 0.008478597
0.25616562 0.00042591162 -0.30952883 0.23251414 0.1717735 -0.29389808 0.1284388 -0.016846385
0.0116430605 -0.007382364 -0.18680298 0.051628258 0.16765597 0.25129884 0.21694036 0.14810015
0.25316137 0.15309046 -0.08933722 0.18289657 -0.24215785 -0.24232413 -0.20751448 -0.27260196
-0.15392594 0.17103341 0.33256665 -0.30010006 -0.26566428 0.20441778 0.011859541 -0.33235973
-0.29835755 0.1502145 0.116019964 -0.2289148 0.18013707 -0.037457313 -0.29264262 0.34195107
-0.28463364 0.04638742 0.21308018 0.35327742 -0.09986036 -0.29207817 0.2090578 0.03440514
0.19325198 0.011493941 0.052979443 -0.13641368 -0.21963361 0.28578445 -0.29869094 -0.2547854
0.067697704 0.028125115 -0.05977587 0.24187288 0.24626787 -0.07986387 0.0172207 0.2371348
0.039044943 -0.036650017 -0.19092967 -0.03952563 -0.22279826 -0.07792023 -0.017052356 -0.1167568
0.29018235 -0.12767865 -0.066437684 -0.0003001783 0.30035 -0.13186213 -0.09311419 0.048464134
0.19250195 -0.09550709 -0.31276056 0.19116631 0.29350486 0.06759978 -0.14574355 0.14378569
0.12202869 -0.28416136 0.20652397 -0.3168527 -0.2770602 -0.30748993 -0.32723618 0.25984645
-0.14827098 0.103494585 -0.117124654 0.2971665 -0.1226245 -0.06619102 -0.14581135 0.12656978
0.070356116 0.07057079 -0.17486984 0.15234196 0.25195712 -0.100974366 -0.048622813 -0.10608961
-0.10877245 0.122847885 0.028624851 -0.28444332 0.29280788 -0.12275422 -0.26155186 -0.23460281
0.038224816 -0.10542788 -0.1019643 0.18419653 -0.27340937 0.23172478 -0.13620342 -0.018322166
-0.036836304 -0.10551859 -0.32115227 0.027356619 0.29956067 0.2013946 -0.27920973 0.20634896
0.24174622 -0.17978291 0.25659466 0.16869082 0.01991142 0.046014756 0.12868685 -0.24628815
00000000: 6233 9abe de1e 803e 9b7b f13d 432a f53d
00000010: d061 3c3d 132a 943e b30c b33c fc84 ff3d
00000020: be8b 6fbe bc0a 42be 4e47 853e fa4d 74bc
00000030: c584 64be 2f77 373e a587 7fbe d662 e03d
00000040: a7be 46be 1bb0 5cbe df1d 813e f75f 49ba
00000050: dacd 863e 43dd 753d 3db4 ad3e 741d e1bd
00000060: 35bf 263d b7ed c93d 2736 af3d 232a f1bb
00000070: 0909 883e d772 0fbe 8e56 b03c 2691 a7be
00000080: ae23 893e 865e 1dbe 574e d2bd 6801 bbbb
00000090: 889f 09be 5983 963e 457a 0c3e 57a3 5d3e
000000a0: 7377 0ebe 2b65 35be 04cd 89be e885 de3d
000000b0: 499e e03d 871d d13c 7b91 0abe bc38 e9bd
000000c0: 19bb 98be 9bfa 783e 6ef0 72be 920a 4e3e
000000d0: ac1a 553e 7413 373e 8116 543e 66dd 71be
000000e0: d761 2cbe 2531 6f3e 78e9 adbe 068f 9dbe
000000f0: 5f1b 0c3d e549 c93b 0677 36be 07aa e23d
00000100: 2c62 c0bd 577e 8ebe 18fc 2bbe d494 91bd
00000110: 1a30 b1be 56ea 94be d63e 0dbe 715a 8f3e
00000120: 917f f8bd efea ac3e ebc9 7dbe 73a2 72be
00000130: 2ba0 f1bd b49d acbe c90a 3ebe 0971 cbbd
00000140: 1136 a8be 2a5b 96bd 2ebc a33d 8b56 86be
00000150: 3240 89be d6aa a93e 5a9c 36be 4c61 883e
00000160: a3db 503c 21b8 46be b860 d53d ee4e 783d
00000170: 4975 a13d 45cf 0b3c 5c42 c63c e5ad 7f3e
00000180: 5007 103d 68bb 27bd 57ca 38be 74ba 8d3e
00000190: 1a8c 303d cf94 873e 9527 dabd b167 2a3e
000001a0: ec6c 493e 55aa 76be d323 c83d d86e 94be
000001b0: 2d8a ddbd 8387 dbbd 578e 90bd d0e9 0a3c
000001c0: 2428 833e e44c df39 907a 9ebe 3018 6e3e
000001d0: 64e5 2f3e cf79 96be 7685 033e 6e01 8abc
000001e0: 89c2 3e3c c2e7 f1bb 4849 3fbe 2778 533d
000001f0: 02ae 2b3e 3eaa 803e 9d25 5e3e 91a7 173e
00000200: 5e9e 813e bfc3 1c3e 6ff6 b6bd 3d49 3b3e
00000210: 3af8 77be d123 78be ad7e 54be 7c92 8bbe
00000220: c39e 1dbe 6223 2f3e 2d46 aa3e b7a6 99be
00000230: 2605 88be e552 513e 854e 423c 0e2b aabe
00000240: 52c2 98be d4d1 193e e09b ed3d a468 6abe
00000250: da75 383e d76c 19bd 41d5 95be 3614 af3e
00000260: 80bb 91be bc00 3e3d b131 5a3e c7e0 b43e
00000270: 9783 ccbd 458b 95be 3f13 563e 67ec 0c3d
00000280: d9e3 453e 1551 3c3c f900 593d 07b0 0bbe
00000290: a2e7 60be 5752 923e 05ee 98be 3b73 82be
000002a0: 18a5 8a3d a466 e63c 8bd7 74bd 86ad 773e
000002b0: a52d 7c3e ab8f a3bd 6d12 8d3c 77d3 723e
000002c0: 97ed 1f3d 541e 16bd 1183 43be a1e5 21bd
000002d0: 3a25 64be a494 9fbd 62b1 8bbc 301e efbd
000002e0: c892 943e 31be 02be 7b10 88bd 4061 9db9
000002f0: 7ac7 993e de06 07be a7b2 bebd 5482 463d
00000300: 3b1f 453e 3999 c3bd 2722 a0be 1ac1 433e
00000310: 4546 963e c171 8a3d cc3d 15be 8e3c 133e
00000320: 2eea f93d 997d 91be 057b 533e 843a a2be
00000330: d6da 8dbe 526f 9dbe 808b a7be 980a 853e
00000340: 59d4 17be f8f4 d33d 0ddf efbd 3526 983e
00000350: 8e22 fbbd 288f 87bd 924f 15be 829b 013e
00000360: de16 903d 6b87 903d 1411 33be 88ff 1b3e
00000370: 8600 813e a6cb cebd b728 47bd 8245 d9bd
00000380: 17c4 debd ac97 fb3d aa7e ea3c 8ea2 91be
00000390: eaea 953e 9166 fbbd 20ea 85be b83b 70be
000003a0: a091 1c3d 93ea d7bd a9d2 d0bd 049e 3c3e
000003b0: 50fc 8bbe 4349 6d3e e978 0bbe 5e18 96bc
000003c0: aae1 16bd 211a d8bd 126e a4be fd1a e03c
000003d0: 0460 993e 633a 4e3e 94f4 8ebe 244d 533e
000003e0: 528c 773e 0319 38be 6060 833e 49bd 2c3e
000003f0: 461d a33c f879 3c3d 7cc6 033e f632 7cbe

onnx::LSTM_97 f4 [1, 72]
0.27399394 0.26532996 -0.20094399 -0.023691744 0.03918455 -0.10278004 -0.29583997 0.23847935
-0.1235946 0.01862238 0.25534716 0.2782683 -0.28428307 0.24963786 0.00472634 0.09999158
-0.08301747 -0.28698397 -0.20968826 -0.012666857 0.18153761 -0.06473772 0.10836512 0.19271888
0.21384896 -0.06480078 -0.055863623 0.067790754 0.1555279 -0.08576625 0.29831865 0.1260067
-0.15311782 -0.19682828 -0.290771 0.08452683 -0.29225963 -0.23485498 -0.10156363 -0.20907472
0.21518435 -0.15376486 0.21460497 0.2563407 0.17592573 0.21872929 0.28800797 0.18649489
0.14028963 0.25164148 -0.2507462 0.12714094 -0.12120736 0.14818265 -0.11624053 0.09939254
-0.1726089 0.0457096 0.134972 0.19854046 -0.06165639 0.037186377 0.17973794 0.2916229
0.14821248 -0.1714201 0.013484253 0.07690074 0.22256444 0.18497194 -0.23919648 0.3120456
00000000: ef48 8c3e 54d9 873e 43c4 4dbe 3015 c2bc
00000010: fb7f 203d 577e d2bd 5678 97be ee33 743e
00000020: 2a1f fdbd f68d 983c ddbc 823e 2f79 8e3e
00000030: 8d8d 91be 11a1 7f3e 6adf 9a3b 63c8 cc3d
00000040: 1005 aabd 90ef 92be 85b8 56be a688 4fbc
00000050: ffe4 393e 3695 84bd 88ee dd3d 1958 453e
00000060: 39fb 5a3e 45b6 84bd 41d1 64bd e1d5 8a3d
00000070: b542 1f3e 37a6 afbd 39bd 983e e607 013e
00000080: ebca 1cbe 5a8d 49be f0df 94be 671c ad3d
00000090: 0ea3 95be d37d 70be 9800 d0bd af17 56be
000000a0: 4959 5c3e 8974 1dbe 68c1 5b3e 173f 833e
000000b0: e025 343e 92fa 5f3e c875 933e 84f8 3e3e
000000c0: 16a8 0f3e 27d7 803e ce61 80be 3c31 023e
000000d0: 903b f8bd 31bd 173e 840f eebd 518e cb3d
000000e0: 63c0 30be fd39 3b3d 1a36 0a3e 314e 4b3e
000000f0: 698b 7cbd be50 183d 390d 383e 994f 953e
00000100: 03c5 173e c088 2fbe 0eed 5c3c 237e 9d3d
00000110: efe7 633e 4969 3d3e ecef 74be 71c4 9f3e
