EyeTrackingTest/Assets/Models/lr_xyz.onnx (onnx, 10704 bytes, 7 tensors)

fc.1.weight f4 [128, 9]
000000 e4 20 13 3c 48 0d 69 bd c2 9a 5a 3e 49 e9 68 be
       0.00898001 -0.05689743 0.21348098 -0.22745241
000010 6b 5c 62 3e d7 c9 d2 bd 15 1d b8 bd c2 29 69 3c
       0.22105567 -0.10292404 -0.08989922 0.014231147
000020 75 be 6a be 1f 6d 71 be d3 9f 77 be 95 56 6e bd
       -0.22924216 -0.23576783 -0.24182062 -0.05818804
000030 dd 1f 4d 3e 5f 92 0b be a6 08 62 3e de e6 d3 ba
       0.20031686 -0.13630055 0.22073612 -0.0016166826
000040 f2 39 ed bd eb 52 1a bd 15 0a 0b be fc e5 33 3c
       -0.11583318 -0.037676733 -0.13578065 0.0109801255
000050 eb bc 7d 3e ac 63 c7 bd 1c 07 9d 3e ac f3 9e be
       0.24779098 -0.09735808 0.30669487 -0.31045282
000060 de 78 56 be 76 d6 93 be ae eb b5 bd 40 9d 8c bd
       -0.20944545 -0.28874558 -0.08882843 -0.068659306
000070 50 72 b5 bd a5 03 83 be 1c be 60 be 5e d1 24 be
       -0.08859694 -0.25588718 -0.21947521 -0.16095492
000080 94 71 e9 bd b5 00 03 be 19 b5 ca bd 7f c8 0b be
       -0.113986164 -0.12793238 -0.09897823 -0.13650702
000090 03 88 d4 bd 0c 94 1d 3d 72 6a 1a 3e c8 ca d3 3c
       -0.10377505 0.038471267 0.15079668 0.02585353
0000a0 68 f5 8b 3e 99 12 28 3e 2f e1 c9 bc 62 21 a1 bc
       0.27335668 0.16413344 -0.024643509 -0.019669238
0000b0 97 b7 02 be 1f b7 db bd 29 1f 00 3e f7 e7 96 3e
       -0.12765346 -0.10728287 0.12511887 0.2947385
0000c0 aa 20 e7 bd 70 79 9d 3e 57 d0 40 3e e4 3b 98 be
       -0.11285527 0.30756712 0.18829475 -0.29733193
0000d0 84 3c 90 be ee 5d 6b 3e 0b fc 9d bd d8 60 3d 3e
       -0.2817117 0.2298505 -0.07714089 0.18493974
0000e0 bb 64 d6 bd ef ae 4e be cb 09 e4 3d 9d 4b 17 be
       -0.104684316 -0.2018392 0.1113468 -0.14774938
0000f0 42 0f 6f be a2 a1 63 3e 00 dc ee bd a6 59 a3 be
       -0.23345664 0.22229627 -0.116630554 -0.31904334
000100 04 fc b9 bd 20 07 b3 bd c3 e8 f8 3d ab d6 85 be
       -0.09081271 -0.08741593 0.12153771 -0.2614034
000110 f4 78 66 be 62 af 48 be 7a 41 c7 bc 12 3d ac bd
       -0.22507077 -0.19598153 -0.024323214 -0.08410086
000120 9f ff 97 be 98 d5 7e bd 39 da 88 be 24 eb 66 3e
       -0.2968721 -0.062215418 -0.2672899 0.22550637
000130 3c ac 49 3d df db 2b bd 25 31 6d 3e 57 fb 20 be
       0.04923652 -0.041957732 0.23163278 -0.15720879
000140 b2 e0 99 be 73 3b 23 be af 85 92 3e 7b 99 6d bd
       -0.3005424 -0.15940647 0.28617617 -0.0580077
000150 b9 d6 b5 3e 7d f6 97 3e ad d1 5c 3e cb d9 c7 3b
       0.35515383 0.29680243 0.2156436 0.006098961
000160 7c ac 73 3e 4f 0f 92 3e 21 6a 2a be 92 d4 99 3e
       0.23796266 0.28527305 -0.16642047 0.3004499
000170 b0 8f 07 3e d5 48 b6 bd 92 1c 4b 3e 16 c1 83 bd
       0.13238406 -0.0890061 0.19835117 -0.064333126
000180 fa 52 06 3e f0 02 7e be 5c c8 25 bd 12 49 a9 be
       0.1311759 -0.24805808 -0.04047428 -0.3306356
000190 e6 f5 89 3e 9e 7b 31 3e 29 97 b1 be 22 1f 3a 3c
       0.26945418 0.17332312 -0.3468564 0.011359962
0001a0 7f 4d 06 be 6e d6 88 bc 82 48 86 3e 00 38 1c 3d
       -0.131155 -0.01670381 0.26227194 0.038139343
0001b0 a6 b9 65 3e b7 e5 e3 ba b5 e7 14 3e 63 ad 87 3e
       0.224341 -0.0017387186 0.14541514 0.2649947
0001c0 5a 32 61 3e 34 eb 2f be 0b 86 4b 3d c6 62 45 3e
       0.21991864 -0.17179567 0.04968838 0.1927596
0001d0 68 22 a9 3e bb 62 7c be 82 3d 0b be 0a 5a 86 3e
       0.33034062 -0.24647038 -0.13597682 0.2624057
0001e0 75 3a 2c be cd ea a9 bc b4 ab 0c be e7 02 37 be
       -0.16819175 -0.020741845 -0.13737375 -0.17872201
0001f0 d1 33 2b 3e 4c 49 67 be 5b 58 98 be 96 0e 4b 3d
       0.16718985 -0.22586554 -0.2975491 0.049574457
000200 71 4a c6 3d d0 88 3b 3e 18 75 d8 3c 44 0e 45 3e
       0.09682167 0.18313909 0.026423022 0.19243723
000210 e0 d4 19 3e 6a 00 01 3e 88 b2 59 3d 67 d4 65 3e
       0.15022612 0.12597814 0.053148776 0.22444306
000220 c3 c0 9b 3e e9 90 8a 3e 40 ce 00 be 97 37 75 3d
       0.30420503 0.27063683 -0.12578678 0.059867468
000230 66 10 3a bd 2e d8 a6 be 96 a7 c6 3c 19 ea 97 3d
       -0.045425795 -0.32586807 0.024249833 0.074176975
000240 f5 65 48 3e fb 6c 07 be 18 20 89 3e 73 e9 92 3e
       0.19570144 -0.13225166 0.26782298 0.28693733
000250 ba 25 a7 3d 32 f5 81 be 2f c0 44 3e 9e e2 82 3d
       0.08161493 -0.25382382 0.19213937 0.0639088
000260 49 05 2a 3e 82 76 d1 bd 17 98 95 3e dc ae f6 3d
       0.16603579 -0.10227682 0.29217598 0.120450705
000270 27 bc 7c bc 4f 73 ae be be c4 a7 3e 60 b3 00 3e
       -0.015425718 -0.34072348 0.3276729 0.12568426
000280 9b 78 3d be c4 66 cb 3d 5b b1 d3 3d 93 b8 59 3e
       -0.18503039 0.0993171 0.10336562 0.21261816
000290 36 40 87 be fe 8d 22 3e 4f 6a 4c bd 74 46 72 be
       -0.26416177 0.15874478 -0.04990607 -0.23659688
0002a0 23 72 33 be aa 2a a2 bd f4 59 18 be 50 0f 7f 3e
       -0.17524008 -0.07918294 -0.14878064 0.24908185
0002b0 a0 f4 e8 bd 50 bb 1b be b7 9e ad bc 6c 58 83 bc
       -0.113747835 -0.15208173 -0.021193845 -0.016033374
0002c0 97 5d 3e 3d 7c 93 a7 3e 8b 14 45 3c 17 6b 89 be
       0.046475973 0.3272971 0.012028824 -0.26839516
0002d0 97 61 87 3e 4c ff 94 3e e6 ee 34 be ee 16 22 3e
       0.26441643 0.29101026 -0.17669258 0.1582906
0002e0 97 18 9d bd 88 85 3e be 05 77 7c be 3e 8e ee bc
       -0.07670706 -0.18605626 -0.24654777 -0.02912056
0002f0 55 22 97 3d 80 6c 7a be 28 4d 25 be 75 f7 1c 3e
       0.07379595 -0.24455452 -0.16142714 0.15328772
000300 81 85 46 be 94 97 87 3e 85 50 61 3e 4f 0e 95 be
       -0.19386865 0.26482832 0.22003372 -0.2911248
000310 8b 27 48 3e bd b3 6f 3e 8b 18 89 bd 32 f2 a1 3e
       0.19546334 0.23408408 -0.06694134 0.31630093
000320 e4 94 3a 3e d6 a0 29 bc 61 71 82 3e 4b 32 e6 3d
       0.1822086 -0.010353288 0.25477126 0.11240061
000330 9e c9 17 bd 83 d6 a6 be a5 71 32 be ac e0 45 3e
       -0.03705751 -0.32585534 -0.17426164 0.19323987
000340 bc 13 cf 3b ae 15 a1 3d 75 29 71 be 60 f4 b0 3e
       0.006319491 0.07865463 -0.23550971 0.34561443
000350 21 53 89 be fc d1 bd 3e eb 0b 4b bd 2d 68 c6 3d
       -0.26821235 0.37074268 -0.049571913 0.09687839
000360 fd b4 79 bc 03 98 a2 3d f1 18 a3 3e 7c 17 b8 be
       -0.015240905 0.0793915 0.31854966 -0.35955417
000370 e6 8a 35 3e 95 c4 69 be c4 72 00 be 67 f7 e7 bd
       0.17728767 -0.22828896 -0.1254378 -0.11326485
000380 7a 94 55 be a8 7a 99 3e ac f9 0c 3e 63 be 73 3e
       -0.2085742 0.29976392 0.13767117 0.23803096
000390 11 42 f0 3d 82 8a 8d 3e b8 ec b9 bd c2 32 18 be
       0.11731351 0.27644736 -0.09078354 -0.14863113
0003a0 b1 27 d7 bd 5a cf df bd a8 05 9d be 84 e0 dd 3d
       -0.105056174 -0.10928221 -0.30668378 0.108338386
0003b0 c4 e1 b5 bd 46 30 12 3e 44 7b a0 3e 3f 30 87 3d
       -0.08880952 0.14276227 0.31344044 0.06600999
0003c0 e2 44 00 3e 1f 10 a5 bd 7e 2b 13 be ee c2 72 3c
       0.12526277 -0.080597155 -0.1437206 0.014816983
0003d0 bb ae 20 be 23 32 36 be 25 ed 0e be 7a 4c 97 be
       -0.15691654 -0.17792563 -0.13957651 -0.29550534
0003e0 e5 09 8a be 96 36 82 3e 3d 53 e2 3d c2 03 ad 3e
       -0.26960674 0.2543227 0.11051033 0.3379193
0003f0 da 7d 24 3e d9 ab 2d 3e 55 b3 86 be e0 9f 86 be
       0.16063634 0.16960086 -0.26308694 -0.2629385

fc.1.bias f4 [128]
000000 eb 23 99 3e a2 13 86 be e2 88 9c 3e 16 05 50 3e
       0.29910216 -0.26186854 0.30573183 0.2031444
000010 15 72 96 3e f0 27 2d bd cc 19 1c 3e 63 8d a3 3e
       0.29383913 -0.042274415 0.15244216 0.31943807
000020 3e 3e 8d be 38 88 18 bd 3a 81 15 3e 64 9e a2 be
       -0.2758655 -0.037239283 0.14600077 -0.31761467
000030 d9 83 9c 3e 56 99 89 be 3a 48 bc 3d 19 78 78 be
       0.30569342 -0.268748 0.091934636 -0.24264564
000040 29 0d 7e 3e db 10 5e 3d 5b 90 7d be 76 30 b2 3d
       0.24809708 0.054215293 -0.24762098 0.087006494
000050 43 c3 80 3e a2 95 9f be 1e a5 3d 3e 7b 59 86 3d
       0.25148973 -0.31168848 0.18520018 0.06560036
000060 ae 7c 64 3e 86 60 7e be 62 59 cd 3d 22 51 06 3d
       0.22313187 -0.24841508 0.10026814 0.032792218
000070 24 fd 5a 3e 99 91 0f bc d6 c7 39 3d 4b 01 b1 3d
       0.21385628 -0.0087627405 0.045356594 0.08642825
000080 50 16 0a be 5c a5 14 3e 7a cd de 3d 35 91 3f 3d
       -0.13485074 0.14516205 0.10879035 0.04676934
000090 f5 31 08 be 88 14 9a 3e aa a3 5a be d6 cd c7 3d
       -0.13300307 0.3009379 -0.21351495 0.09756057
0000a0 7c 1a 96 be 1a 47 30 3d 50 fa 6a 3e 3c b2 92 3e
       -0.2931708 0.043036558 0.22947049 0.28651607
0000b0 c8 70 85 be 5e 5f 1a 3e 43 84 12 be 38 03 84 be
       -0.26062608 0.15075442 -0.14308266 -0.25783706
0000c0 86 16 5a 3e 6a 53 14 be db e9 11 be 10 9d 47 be
       0.21297655 -0.14484945 -0.14249365 -0.19493508
0000d0 c7 e9 39 be 80 e4 58 be aa 7b a1 be 2d a5 35 3d
       -0.18155585 -0.21180916 -0.3153966 0.044346977
0000e0 40 6e 4a bd 95 6e a2 bc 82 f0 a4 be 28 90 55 be
       -0.04942155 -0.01982812 -0.32214743 -0.20855772
0000f0 99 27 30 be 0c d1 de bd f9 0e a7 be 6e 48 94 3c
       -0.17202605 -0.10879716 -0.3262861 0.018100943
000100 45 18 72 bd 32 7b 1d 3e 5a bf 98 3e f8 ba 85 3e
       -0.059105176 0.15379027 0.2983349 0.26119208
000110 74 ec 3b be 17 7b e0 3d e8 f8 61 3e f3 cb 22 3e
       -0.18351918 0.109609775 0.22067606 0.15898113
000120 b1 85 98 be 30 f4 aa bd 11 f6 4b be fb e0 85 bc
       -0.29789498 -0.08347356 -0.19918086 -0.01634263
000130 c1 0b 28 be de 5b 38 3e 45 41 05 3c bd cf 19 bd
       -0.16410734 0.18003795 0.008133237 -0.03755163
000140 e2 d5 a8 bc 45 97 32 be ae a5 84 be 28 42 25 3e
       -0.0206098 -0.17440517 -0.25907654 0.16138518
000150 dd 99 79 3e ab 54 fd 3d c4 b7 37 be 42 eb a7 3e
       0.243751 0.12369665 -0.17941195 0.32796675
000160 a9 54 08 3e 46 aa 3f 3e c6 ac 49 3e a3 f2 14 be
       0.13313545 0.18717298 0.19694814 -0.14545684
000170 12 0c 07 3d d5 e4 95 be 7a 1a 44 3d 85 3b bb bc
       0.032970496 -0.29276147 0.047876813 -0.02285553
000180 c1 b5 b8 3d 0e dd 55 3d 0c 91 96 3d 7c f9 65 3e
       0.09019042 0.052212767 0.07351884 0.22458452
000190 19 53 da 3d 52 2d 2b be fe a0 0c 3e a1 e6 cf 3d
       0.10660381 -0.16716507 0.13733289 0.10151411
0001a0 5d 5f 66 be 61 15 f5 bd 4a 5d 7e be a3 95 0f 3e
       -0.22497316 -0.11966968 -0.24840274 0.14021926
0001b0 48 57 44 be 4d b4 8a be 68 74 a8 3e 05 cc 72 be
       -0.1917392 -0.27090684 0.3290131 -0.2371064
0001c0 b1 38 e6 3d 7b 7e 2d bd 24 f1 61 3e d2 55 59 3e
       0.11241282 -0.04235695 0.22064644 0.21224144
0001d0 04 2a a1 be 7e 82 9e be 7c 69 aa 3d 66 c4 e3 bd
       -0.31477368 -0.30958933 0.08320901 -0.111214444
0001e0 5f f9 a0 be 12 36 8a 3e d9 88 37 3e 3b 8b 82 3e
       -0.31440255 0.26994377 0.17923297 0.2549685
0001f0 de 6d 53 3e 54 d6 42 be d9 7c bd 3d 86 9d bf bd
       0.2064738 -0.19027072 0.092523284 -0.09356217

fc.3.weight f4 [3, 128]
000000 7d 58 f5 bc 9a 37 3d bd b9 7a 3d bd f6 95 0d bd
       -0.029949421 -0.046195604 -0.046259616 -0.034566842
000010 04 61 61 bd 3e c6 b0 3c 88 08 8b bd 4f 99 ac bd
       -0.055024162 0.021578904 -0.067887366 -0.08427679
000020 e1 45 f7 bb 77 af 82 3d 25 09 b5 bc 2f 3c 33 bd
       -0.007546172 0.063811235 -0.022099087 -0.043758567
000030 7d cb 10 3d bc df 6c 3c c9 9b 38 3d 1d c8 e3 3c
       0.03535031 0.014457639 0.045070443 0.027805382
000040 c9 af 0b 3c ae b7 9f 3d 2a 89 93 bd fd 44 33 bd
       0.008525797 0.07798706 -0.07203896 -0.043766964
000050 4f 70 1c 3c dd 69 96 3c 9f 4f a1 bd e5 e8 a5 bd
       0.009548261 0.018361026 -0.07876515 -0.08101062
000060 f8 e4 77 bc 99 73 82 bd a0 bd b9 3c cf dc 9a 3d
       -0.015130274 -0.06369705 0.022673428 0.07561647
000070 7d 15 1e bd fc 95 c4 3c 91 a5 05 3d 50 6a ae 3d
       -0.03859471 0.0239973 0.0326286 0.08516371
000080 ff ff c8 bd 7f 5e ed 3c 8f cd de 3c 20 1a ad 3c
       -0.098144524 0.028975723 0.027197627 0.021130621
000090 de 00 b7 3c eb b8 fe ba 8e 51 d6 bd 3b 79 9b 3c
       0.02233928 -0.0019433772 -0.10464774 0.018978706
0000a0 f9 20 b7 bd ef 26 9b 3c 73 a7 2a bd 07 6e cb bb
       -0.08941836 0.018939463 -0.0416636 -0.0062081846
0000b0 2e 81 b3 3c 08 6f b3 bc cb fa 80 3d 9d a7 82 3d
       0.021912184 -0.02190353 0.06297835 0.06379626
0000c0 e4 a9 ae 3c 12 75 21 bc 9f 64 df 3c 22 9c af bd
       0.021321245 -0.009854572 0.02726966 -0.08574702
0000d0 48 da 85 bc 9f 7b 55 3c ab 9c 93 bc 78 28 56 bd
       -0.016339436 0.013029962 -0.018019041 -0.052284688
0000e0 ce 3e ce bd 4f da 33 bc 54 51 9c 3d 52 30 16 3d
       -0.10070573 -0.010977342 0.076326996 0.036667176
0000f0 f0 83 0b bd f5 1b 8b 3d 75 20 76 bd 3b c4 be 3b
       -0.034061372 0.06792442 -0.060089547 0.0058217323
000100 44 8f d7 3d 40 e7 7b bd 33 ec 49 3d 9c 6f 02 3c
       0.105253726 -0.061499834 0.049297523 0.00796118
000110 83 cf bd 3d 27 6c 10 bd fd 69 31 bd 2c 62 7d bb
       0.09268095 -0.035259392 -0.04331397 -0.0038663251
000120 b3 93 00 3b 6c 63 4b bd c7 74 00 bd 7f 10 80 bd
       0.0019619286 -0.049655363 -0.031361368 -0.062531464
000130 59 13 1e 3d f7 fd 8e 3d 10 ff 93 bd 23 7a c5 3d
       0.03859267 0.06982034 -0.07226384 0.09642436
000140 76 50 c1 bc 87 85 3d 3d 91 93 cc 3d 17 20 cb 3c
       -0.023597937 0.04626992 0.099890836 0.024795575
000150 d0 4f e7 3d 21 d5 6b ba 04 6c 89 bc 37 1f f7 bc
       0.1129452 -0.0008996297 -0.016775139 -0.030166252
000160 c2 c5 ae bd 52 86 7e 3d b3 6c 00 bc 4d 9e 63 3d
       -0.08533813 0.062139817 -0.007838416 0.05557089
000170 4c 3c 6b 3d 9c 76 14 bd 6e 8e c6 3a a5 29 7e 3d
       0.05743055 -0.036245927 0.0015148649 0.062051434
000180 16 1c cb bc ac d3 2c 3d 61 6d 85 bd 1e 55 85 bd
       -0.024793666 0.042194054 -0.06515003 -0.065103754
000190 df ca d4 bd 18 4b fc 3b 62 09 42 3d 97 bd 44 bb
       -0.10390257 0.0076993816 0.04737223 -0.003002023
0001a0 bf 33 3d 3d 4a f4 8a 3d 75 16 9d bc 39 ad 75 bd
       0.046191927 0.06784876 -0.019175747 -0.05997965
0001b0 f1 0f 6b 3c 6f a1 0a bd d6 9d 4b 3d c1 13 04 bd
       0.014347062 -0.03384536 0.04971107 -0.0322454
0001c0 a2 83 75 3d 03 39 66 3c 96 05 87 bd db 85 87 bd
       0.059939988 0.014051679 -0.06592862 -0.06617328
0001d0 70 6f 89 3b 06 70 2e 3d df 5a ff bb fd 8e a8 3c
       0.0041941926 0.042587303 -0.007792815 0.020575995
0001e0 bb 2c 82 bd a6 db 7f 3c ca 62 ae bd a8 14 8c 3d
       -0.06356188 0.015616333 -0.08514936 0.06839877
0001f0 d1 54 6b bd 1d a4 4e bd 2a 5d 91 3c 67 ac 98 bc
       -0.057453934 -0.05044948 0.01774462 -0.018636895
000200 3e e6 d8 bc d5 a8 83 bd cf c4 85 3c 69 26 f3 bb
       -0.026476976 -0.064286865 0.016329197 -0.0074203503
000210 37 98 64 3d 1c 6d c4 3c 63 c8 9a bd b4 b9 70 3d
       0.055809226 0.023977809 -0.07557752 0.05877085
000220 c4 13 ff 3c 60 31 99 bd 57 5d a8 bd de a7 8b 3d
       0.031137355 -0.07480121 -0.08220928 0.068191275
000230 a6 55 70 bd 9f 05 8f bc 6e f5 40 3d 70 ca 84 bd
       -0.05867543 -0.017458735 0.04710906 -0.064839244
000240 ed e9 e4 bc e9 e8 4e 3d 65 e0 b1 bd fa b2 e0 3c
       -0.027943576 0.05051509 -0.08685378 0.027429093
000250 51 78 a4 bd d2 7e a7 3d 6e 8a 82 3c e4 10 f3 3c
       -0.08030761 0.08178486 0.015935149 0.02967114
000260 7e d7 86 3d 3a 27 40 3d 0a 81 02 bc d0 a5 a1 3d
       0.065840706 0.04691241 -0.007965336 0.07892954
000270 71 eb ae bc 77 ff 98 bd 73 71 a3 3b 14 5d 74 bd
       -0.021352502 -0.07470601 0.0049878894 -0.05965908
000280 bc 14 bb 3d b4 1c 8f 3d 22 46 0d bc 5e 3f f1 bc
       0.09134814 0.069878966 -0.008622678 -0.029449161
000290 32 fd 93 3b 89 b2 9b bd eb fd 4f bd 5c 52 59 bd
       0.004516267 -0.07602412 -0.050779264 -0.05305706
0002a0 f3 e5 18 bd 0f ec 18 bc d1 4e b4 bb 84 96 35 bd
       -0.03732867 -0.0093336245 -0.0055025597 -0.044332996
0002b0 3f 03 19 bd a6 cd 93 3d 08 aa 11 bb 3d 02 4c bc
       -0.03735661 0.07216959 -0.002222659 -0.0124517055
0002c0 b1 91 75 3d 2d 57 02 bd 59 d0 1b bd c6 74 58 bd
       0.059953395 -0.03182142 -0.038040493 -0.05284574
0002d0 d0 a7 ba b9 2b a6 9b bd 56 aa 3f bd 6d 5a 01 3d
       -0.00035601715 -0.076000534 -0.046793304 0.031580377
0002e0 7d ea b6 3b 9e a3 a8 3b 93 5c 9c bd 36 df 87 bd
       0.0055821524 0.005146458 -0.07634845 -0.06634371
0002f0 a1 d9 36 3d 51 68 13 3d 15 ac b4 3d 99 08 01 bd
       0.04464114 0.035988156 0.088218845 -0.03150234
000300 ec f8 1a bc 8f 32 ab bd 4f 54 cc bc 9e 9e 74 bd
       -0.009458762 -0.08359253 -0.024942545 -0.05972158
000310 88 cc 08 bd 2c 7d 39 3c bb ab f4 3c 54 1e a1 bd
       -0.03339818 0.011321347 0.029867044 -0.07867113
000320 8e 72 bf bd e0 d9 13 3d 07 b0 3c bc e4 2f 1f 3c
       -0.093480214 0.036096454 -0.011516578 0.009716008
000330 f7 66 d9 3c 91 a7 2d bd a1 6c 27 3d 3d ca 7c 3b
       0.026538355 -0.042396132 0.04087508 0.0038572692
000340 5b c7 30 bd f0 dc 13 3d ee e4 b8 3c 40 02 ed 3c
       -0.04315887 0.036099374 0.0225701 0.028931737
000350 b4 92 1f 3d 93 27 a5 bd c5 62 ef 3c 6a d9 14 bc
       0.038958266 -0.08064189 0.029221902 -0.009085039
000360 a2 6e 59 bd 6e 3c 95 bd 67 dc a0 ba 0f ef a3 3d
       -0.053084023 -0.07286917 -0.0012272716 0.08004581
000370 5a c2 e8 3a ca 85 a8 bd dc fc ea bc 7e f7 38 bd
       0.0017758117 -0.08228643 -0.028685026 -0.045157902
000380 69 01 b6 3b 6e a3 95 bc 84 e8 6f 3c 48 76 24 3d
       0.0055543673 -0.018266406 0.014642838 0.040151864
000390 f1 d7 c7 3d df f5 96 3c 07 bc 40 3d 5b 95 ca 3c
       0.097579844 0.018427787 0.047054317 0.024729421
0003a0 c9 4a 98 3d dc ac 6c bc a5 ea dd 3c ba e9 8e bd
       0.07436139 -0.01444551 0.027089426 -0.069781736
0003b0 c5 23 8f 3d 55 59 18 bd e1 5d 05 bd 0e df 38 bd
       0.06989244 -0.03719457 -0.032560233 -0.045134597
0003c0 47 1a 82 bd 25 e1 84 3b b5 a2 40 bd 40 03 69 bc
       -0.06352668 0.0040551596 -0.04703017 -0.014221966
0003d0 3f 9a 4d bc 37 f2 0d bd 4c 70 06 bd ad 1c 48 bd
       -0.012548982 -0.034654822 -0.03282194 -0.048855472
0003e0 ae b1 95 bd c2 9d 99 bd 6b 5c 08 bd 0d 81 16 bd
       -0.0730928 -0.07500793 -0.03329126 -0.036744166
0003f0 4e ca bb 3c 5b e0 f7 bc 4d 2a 86 bc 5f ac ad bd
       0.022923615 -0.030258348 -0.016377592 -0.08480143

fc.3.bias f4 [3]
000000 ff 87 de 3c 24 5a 4f bd 6c ef 75 3d
       0.027164457 -0.050623074 0.060042784

onnx::LSTM_95 f4 [1, 36, 9]
000000 90 6f 86 3c a4 6d 1e 3d db 75 29 3e 8d 45 38 3d
       0.016410619 0.03867878 0.16548865 0.044988204
000010 da 2f 98 3e 4f a1 86 bd 6c 80 13 3e 48 36 c0 bd
       0.29724008 -0.06573736 0.14404458 -0.09385353
000020 22 08 84 be b6 1b 81 3d 25 be 58 be 3f fc 0e 3e
       -0.25787455 0.063041136 -0.21166284 0.13963412
000030 d1 c2 98 be 47 f7 89 be a2 75 94 be 29 60 72 3e
       -0.29836133 -0.2694647 -0.28995997 0.23669495
000040 94 e1 2d be 3c c9 a2 3e f4 7f 63 3e c3 be 90 be
       -0.16980582 0.31794155 0.22216779 -0.2827054
000050 fc 00 53 3e 44 55 81 be cc c6 8f be f6 d0 2d be
       0.20605844 -0.25260365 -0.28081357 -0.16974244
000060 6d eb c1 bd 31 57 76 bd bc b6 9d be 45 15 93 3e
       -0.09468732 -0.060141746 -0.30803478 0.28727165
000070 e6 ad 85 3d a4 4f f9 bd cb dd 48 be 4c 1b 9c be
       0.06527309 -0.12173393 -0.19615857 -0.30489576
000080 4b c5 96 3e 6c f3 34 3e 60 4b 8f be 54 7a b4 3e
       0.29447398 0.17670983 -0.27987194 0.3524958
000090 36 b3 27 3e a1 8d 2b 3e 9f ac 5e bb 09 c1 9c 3e
       0.16376957 0.16753246 -0.0033977402 0.30616024
0000a0 2d 75 6d 3e 52 a5 25 3e 70 56 aa 3e 50 91 60 3e
       0.2318923 0.16176346 0.33269072 0.21930432
0000b0 9c f5 ae 3d fa 38 b8 3d 34 18 a7 be 64 5d b2 3d
       0.0854294 0.089952424 -0.32635653 0.08709219
0000c0 91 0a 82 be 84 2b 9e be 38 ec b4 3e 91 8e a1 3e
       -0.25398687 -0.30892575 0.3533647 0.31554082
0000d0 a6 b5 8a 3e d8 36 fa 3b a5 de 10 be ad 92 6b 3e
       0.27091712 0.0076359324 -0.14147432 0.23005171
0000e0 62 e3 52 3e 66 16 01 3e 5f 74 cc bd 38 d5 b3 bd
       0.20594552 0.126062 -0.099831335 -0.087809026
0000f0 7d 40 38 be 44 85 79 be 49 14 dc bd ff c8 15 bc
       -0.1799335 -0.24367243 -0.107460566 -0.0091421595
000100 ed 10 25 bd f1 24 ff 3c 2a aa db 3d c2 07 ab be
       -0.040299345 0.031145545 0.107258156 -0.33404356
000110 1c c2 fa 3d 44 29 7f be ba 00 23 3c 2c ff 78 3d
       0.12244055 -0.24918085 0.009948904 0.060790226
000120 d9 b6 ff bd 44 fc a5 3d 30 70 9f be 57 4d 33 3d
       -0.12486047 0.081047565 -0.3114028 0.04377493
000130 6c 68 91 be 90 a8 02 bd 17 be a9 3e 76 96 8f 3e
       -0.2839998 -0.031899035 0.3315284 0.2804448
000140 6c a2 77 be 84 6e a1 be 84 5e 19 3e e1 03 48 3b
       -0.24183053 -0.3152963 0.14977461 0.003051989
000150 31 5d 80 3c d3 2f 89 3b 06 49 8d be dc 64 9d bc
       0.015669437 0.0041866093 -0.27594775 -0.019213133
000160 8e c1 44 be a4 52 58 3e 0d 71 b1 be 06 f9 46 3c
       -0.1921446 0.21125275 -0.34656563 0.012144333
000170 2f a5 ac bb 5a a1 4c 3e a9 ff 06 be c5 42 a1 bd
       -0.005268715 0.19983426 -0.13183464 -0.078740634
000180 37 d6 57 be ed 14 96 be f4 78 48 3e 78 4f 30 3e
       -0.2107781 -0.2931284 0.1957739 0.17217815
000190 b1 7f 9a 3e 28 5a af bd ae 9f 7b be 29 29 95 3e
       0.30175546 -0.08562118 -0.24572632 0.29132965
0001a0 c7 ba 40 bd ec e9 34 3e e6 6d 5b 3e 03 d9 9e bd
       -0.047053125 0.17667359 0.21428642 -0.077562355
0001b0 84 a0 8e 3e 43 87 a9 be fc 90 8f 3d 97 ee 25 be
       0.2785684 -0.3311101 0.070100754 -0.16204296
0001c0 f3 f8 95 3e 40 84 40 be 97 3c 05 3d 02 93 0f be
       0.29291496 -0.1880045 0.032528486 -0.14020923
0001d0 53 62 53 be be b7 a3 be 9b ef bb 3c 5e 30 a7 3e
       -0.20642976 -0.31976122 0.022941401 0.3265409
0001e0 00 47 57 3e cc 72 b6 3d ab 5f 38 3e 9d 0f 74 3e
       0.21023178 0.089086145 0.18005244 0.23834081
0001f0 b7 f7 7b 3d da 35 7d 3d bf 48 29 be e0 42 ff 3d
       0.061515536 0.061818935 -0.16531657 0.12463927
000200 ec f2 b5 3e c3 7b 6e be 0e 23 1b 3c 62 17 64 3e
       0.35536897 -0.23289399 0.009468807 0.22274545
000210 70 24 ea bd c8 cc 00 be 32 b2 26 3d 2e c9 3e 3d
       -0.11432731 -0.12578118 0.040697284 0.04657858
000220 0d d9 30 be cb 9e 56 bd 94 00 fd bc 7b 18 e4 3d
       -0.17270298 -0.05239753 -0.030884065 0.11137482
000230 30 c2 62 3e c5 3b ac 3e ce fe 65 3c f2 d6 91 bd
       0.22144389 0.3363935 0.014037801 -0.07121076
000240 e9 b2 42 be f7 52 66 3d 2b 43 52 bd c4 c6 ff bc
       -0.19013561 0.056231465 -0.051333588 -0.031222709
000250 59 f3 ee bd 54 e2 5c 3d ea 21 a4 be 6b 64 8d be
       -0.11667509 0.05392678 -0.32057124 -0.27615675
000260 bb e7 0d bd ca 86 80 be 09 51 d1 3d 6b 2b 9e 3d
       -0.034644824 -0.25102836 0.10220534 0.07723125
000270 9c 16 90 3c 6e 66 89 3c 23 5b 53 be c0 16 ac 3e
       0.017588906 0.016772475 -0.20640235 0.33611107
000280 01 62 a1 3e 5a fb c5 3c f7 8d 96 3e 5c 71 ed bd
       0.31520084 0.024167705 0.29405186 -0.11593887
000290 cc 25 47 3e fd a7 15 3e fd 80 6f be fb 6b 2f 3e
       0.19448012 0.14614864 -0.23389049 0.17131035
0002a0 13 b6 54 3e 8c e4 45 be d4 ba 2c 3b c6 48 9b be
       0.20772581 -0.19325465 0.0026356475 -0.3032896
0002b0 0b f8 1c 3e d6 d8 b7 3c 8f c8 1e be 5f e9 ac be
       0.15328996 0.022442263 -0.15506195 -0.33771798
0002c0 9d a8 0f be 7f 21 2f be e7 5f b6 bd 9c c6 8b 3e
       -0.14029165 -0.17102621 -0.08905011 0.27299964
0002d0 86 d6 86 be 10 b1 87 3e 43 92 e9 3d 86 95 8c be
       -0.26335543 0.26502275 0.1140485 -0.27457827
0002e0 ca 60 c9 bc b3 2e db ba 93 52 56 3e 71 79 9d 3e
       -0.024582285 -0.0016722291 0.20929937 0.30756715
0002f0 b1 ea 30 3e db 6e 99 bd 01 9a 55 be 52 40 64 3e
       0.17277028 -0.07491847 -0.20859529 0.22290161
000300 56 5f 16 3e 20 83 7a 3e 47 11 63 be f2 94 dc bd
       0.14684805 0.24464083 -0.2217456 -0.107705966
000310 ea 27 95 3e 2c f8 ea 3d 42 8b 47 3e 23 f8 52 3e
       0.29132015 0.11473116 0.19486716 0.20602469
000320 f1 ec 29 be a0 72 91 3e ed f6 a8 be ae ac 8a be
       -0.16594292 0.28407764 -0.3300089 -0.2708487
000330 f4 82 e9 bc e4 42 52 3e 66 87 05 3e d9 7e 24 be
       -0.028504826 0.20533329 0.13039932 -0.16064014
000340 5b 20 52 3e f6 60 38 be 39 fa af 3e 11 94 4e 3e
       0.20520155 -0.18005738 0.34370592 0.2017367
000350 66 c4 0d 3e 40 da 49 be fc ec bc 3d 59 b3 ff 3d
       0.13844451 -0.19712162 0.09224889 0.1248538
000360 f1 e3 1a 3e 21 e4 23 3e d6 41 df 3c 58 5c a7 3e
       0.15126015 0.16004993 0.027253073 0.3268764
000370 5a 57 70 3e e6 9b a6 bc 08 e1 91 bc 95 3d 8e 3e
       0.23470822 -0.02033801 -0.017807499 0.27781358
000380 e8 48 db 3d d2 87 22 be e8 9a 57 be ef 03 3c 3e
       0.10707265 -0.15872124 -0.21055186 0.18360876
000390 e1 6e ca bc 4d 40 5e 3d fb 50 c7 bd db 06 a8 ba
       -0.024711074 0.05426054 -0.09732243 -0.0012819426
0003a0 29 66 dd bd b3 18 5d be de bc 92 be 67 3f 55 bc
       -0.10810501 -0.21591453 -0.2865972 -0.013015605
0003b0 df 48 6f bd 28 c8 c0 bc 15 ae e5 3d e5 2a 94 3e
       -0.058419105 -0.023532942 0.11214844 0.28938976
0003c0 09 29 f3 bd 29 c0 a7 be 9e 3e 5a bd 31 03 68 bb
       -0.11873061 -0.32763794 -0.053282373 -0.0035402293
0003d0 d5 c2 0b be 2f 0f 05 3d 17 67 a2 3e 61 b3 e1 bc
       -0.13648541 0.032485183 0.31719276 -0.027551355
0003e0 6a d6 88 be da be c2 bd 86 b8 8f be 71 02 9e be
       -0.26726085 -0.09509058 -0.28070468 -0.30861238
0003f0 a8 b2 b3 3d f4 f9 04 be 41 a1 a6 3e f6 f1 41 3e
       0.0877431 -0.12985975 0.32544902 0.18939957

onnx::LSTM_96 f4 [1, 36, 9]
000000 57 9b 7a 3e 94 26 06 be 84 18 75 be 64 1b 5a be
       0.2447332 -0.13100654 -0.23935133 -0.21299511
000010 0f 18 a9 be 57 49 ac bd ea b8 39 3e 30 91 94 bc
       -0.33026168 -0.08412426 0.18136945 -0.018135637
000020 3b c2 76 3e bd d4 ac 3e c2 d8 87 3e a4 c4 89 3c
       0.2409753 0.33756056 0.2653256 0.016817398
000030 12 ef 61 3d a3 2f 29 3d ac e6 40 3e 83 e2 70 3e
       0.055159636 0.041305196 0.18837994 0.23523907
000040 59 f0 bd 3d b9 46 db bd bd ff 43 be ac a8 85 be
       0.09274358 -0.10706849 -0.19140525 -0.2610525
000050 53 e2 99 3e fe 5b ca bd 7a 44 81 3e 0b 54 ee bd
       0.30055484 -0.09880827 0.25247556 -0.11637124
000060 43 32 36 be 59 51 65 3c 12 84 c0 bd 77 0b 3d bd
       -0.17792611 0.013996446 -0.094001904 -0.04615351
000070 9c 9c ac be 83 98 66 3e b1 c8 75 be 9f 38 3d bd
       -0.33713233 0.22519116 -0.24002339 -0.046196576
000080 88 19 9d be 7c c1 18 3e 54 cd 07 3e 2c d8 53 be
       -0.3068354 0.14917558 0.1326192 -0.20687932
000090 54 c2 0d 3e 98 b2 ec bc 74 30 15 3e 5a 47 27 be
       0.13843662 -0.028893754 0.14569265 -0.16335812
0000a0 24 b9 92 be 44 84 07 be cb 1a 4b 3e ef ee af 3e
       -0.28656876 -0.13234049 0.1983444 0.3436198
0000b0 77 e1 8e ba 95 d8 e1 3d af 23 28 3e 5c 44 c1 bd
       -0.0010900934 0.11027638 0.16419862 -0.09436867
0000c0 cf be 65 be 89 f4 66 3d 1f c6 43 3d fc 72 ac bd
       -0.22436069 0.05638555 0.047796365 -0.08420369
0000d0 f4 ef 92 be 43 29 b9 be 83 8f 6f bd ef 83 7a 3e
       -0.28698695 -0.36164293 -0.058486473 0.24464391
0000e0 e5 59 84 3d 35 16 aa bd bc 5d 76 bd 6f 3d 13 3d
       0.064624585 -0.08305017 -0.060147986 0.03594726
0000f0 a1 d6 49 be 1b ab a6 bd 79 41 d1 3d c5 d5 e6 3d
       -0.1971078 -0.081381045 0.10217566 0.11271242
000100 4c c5 81 3e 93 c1 49 3e 1b 76 8a 3d 0f 34 04 be
       0.25345838 0.19702749 0.06760808 -0.12910484
000110 44 9d 29 bd f5 56 96 3d 30 3c a5 be ae e9 8b 3d
       -0.041409746 0.073408045 -0.32272482 0.0683168
000120 23 69 c7 3d fa 30 bc bd 8d 19 30 3e 88 0a 06 be
       0.0973685 -0.09189029 0.17197247 -0.13089955
000130 33 55 23 3e 2a ba 60 be 46 45 eb bd 0a 53 32 be
       0.1595047 -0.21946016 -0.11487822 -0.1741449
000140 73 45 f0 3d d9 fd d3 3d 77 83 51 be d0 b8 16 3d
       0.117319964 0.10351152 -0.20460306 0.036797345
000150 16 4d 44 be de 84 82 3d 10 97 7a 3d 92 47 52 3d
       -0.19170031 0.06372999 0.06117922 0.051337786
000160 0a e2 5f 3e 2f ae a1 3e df a1 34 be 92 ac 1d 3c
       0.21863571 0.31578204 -0.17639874 0.0096236635
000170 9e a1 a1 bd 5d 74 1d 3d ea fa e2 bd 07 12 9b 3e
       -0.07892154 0.03844105 -0.11083014 0.3028719
000180 af 6b 85 be 1a bf 84 3e 5a 19 98 bd 4b a4 d3 3c
       -0.2605872 0.2592705 -0.074267104 0.025835177
000190 f1 23 92 3e 39 32 38 be 60 6d cc 3d f2 78 94 3e
       0.28543046 -0.17987908 0.09981799 0.28998524
0001a0 65 19 33 3d cf cd 21 be dd e5 77 be f7 16 54 bc
       0.04372539 -0.15801166 -0.2420878 -0.012944928
0001b0 19 d2 11 3e 5b ca 0e bd 7a 73 8d be ee 5d 6a 3e
       0.14240302 -0.03486095 -0.27627164 0.22887394
0001c0 8f ac 19 3e 35 00 8d 3c f0 68 4b be 21 81 51 3e
       0.15007232 0.017212013 -0.19864249 0.20459415
0001d0 a8 bb 13 bb 7f 86 d7 bd d5 a4 8b be b8 27 90 be
       -0.0022542272 -0.105237 -0.27274194 -0.28155303
0001e0 1e 3d 8c 3e 6c 41 90 be df 33 90 3d 86 b6 47 3d
       0.2739038 -0.28174913 0.070411436 0.048758052
0001f0 90 ad 4e 3d fd 22 a3 be 96 30 13 3b dd 3b a6 3d
       0.05045849 -0.3186263 0.002245938 0.08116887
000200 43 25 c3 bd 15 61 d0 3d f9 88 8c be 8b be 01 3e
       -0.095285915 0.10174767 -0.27448252 0.12670343
000210 0d 17 1b 3e 4b 1b 20 3e 5b 58 50 be e2 ad 7b be
       0.15145512 0.15635411 -0.20346205 -0.2457805
000220 cc 13 0f 3e 9e e7 0b be 9a 37 89 3e c6 08 ec 3b
       0.13972396 -0.13662574 0.26800233 0.0072031943
000230 22 de 32 be 6c 39 ab 3e 34 b6 66 be 2d 4d c4 bc
       -0.1746755 0.33442247 -0.22530442 -0.023962582
000240 37 d0 53 3e bc 73 26 bd d8 f0 0a bd 97 fe 70 3d
       0.20684896 -0.040637717 -0.033921093 0.058836546
000250 bc eb 7b 3e 3f 6d 71 3e e6 98 31 be a5 dc 11 3d
       0.24601644 0.2357683 -0.17343482 0.035610814
000260 11 a5 eb bd dc 03 4f 3e 33 43 d7 bc e1 07 90 3e
       -0.11506093 0.20216316 -0.02627716 0.2813101
000270 03 0a c9 bd 69 f4 14 be e5 a1 be bd 5a d3 f0 3d
       -0.09816363 -0.1454636 -0.09308223 0.11759062
000280 2f 59 67 be 1a 13 36 3e 19 7d 92 be cf a1 7e be
       -0.22592615 0.17780724 -0.28611067 -0.24866413
000290 4a 00 f4 bd fb eb 5e be 7b b2 ac bd ba c1 df bc
       -0.11914118 -0.21769707 -0.0843248 -0.027314056
0002a0 79 85 29 3e 09 94 27 be 3e 1d d8 bd 63 fd 00 bd
       0.16554822 -0.16365065 -0.105524525 -0.03149165
0002b0 7e 59 9e 3e db 89 cd 3d 5d b8 85 be 00 ba 08 3e
       0.30927652 0.100360595 -0.2611722 0.13352203
0002c0 b7 7c 96 bd 11 5a 56 3e 4d 2e 20 3d 63 11 a1 bd
       -0.07348006 0.20932795 0.039106656 -0.078646444
0002d0 17 66 8c 3e fd 56 01 be 75 68 77 3e 5f 17 df 3c
       0.27421638 -0.1263084 0.24160941 0.027232824
0002e0 c3 40 1d 3e a1 f0 58 3d 3e d1 00 be 24 4e 9b 3d
       0.15356736 0.052963857 -0.1257982 0.075832635
0002f0 3a 12 7d be 49 58 7f be e3 47 40 3e c5 37 54 be
       -0.24713984 -0.24936022 0.18777423 -0.207244
000300 30 cd 8c 3e 45 ac 86 be f8 7b a3 3e 9b 68 89 3d
       0.27500296 -0.26303306 0.31930518 0.06709405
000310 f9 31 4d be 53 c4 84 3e 88 8b fb 3d ba 1c a2 be
       -0.20038594 0.25931033 0.12282473 -0.31662542
000320 c0 9d 9b be a5 f1 48 be 76 de 8e bc 14 2e 79 3e
       -0.3039379 -0.1962343 -0.017440062 0.24333984
000330 c0 aa e5 3d f6 b0 9a 3e 11 04 9f 3e 1f ab 94 be
       0.112142086 0.30213135 0.3105779 -0.29036805
000340 c5 e9 1b be fd f5 fc 3d d4 dd 8c 3d 66 36 0b bc
       -0.15225895 0.12351606 0.06878248 -0.008496856
000350 40 86 b6 3e d5 e1 68 3e 59 4e c7 bd 44 19 c0 bd
       0.356493 0.22742398 -0.097317405 -0.09379819
000360 7f 60 84 be 82 ca aa bd a6 ca 55 be 20 dc d4 bd
       -0.2585487 -0.083394065 -0.20878085 -0.10393548
000370 37 53 15 3e c3 b6 04 3e 85 c6 cd bd f0 a0 2f be
       0.14582525 0.12960343 -0.1004763 -0.17151237
000380 8d 2b 99 be 08 70 87 be 64 65 52 3e 20 1a f7 3d
       -0.2991604 -0.2645266 0.2054649 0.1206553
000390 5c a0 9a be 2b 1e 3d be 1f fa 2c 3e 49 18 81 3e
       -0.3020047 -0.1846854 0.16892289 0.2521384
0003a0 e0 9c 7a be c9 b3 fb 3d 83 79 b7 bd 57 52 3c 3e
       -0.24473906 0.12290151 -0.089587234 0.18390785
0003b0 b6 86 93 3e 3d 86 4b bc 44 b9 52 3c cf a0 99 3e
       0.28813714 -0.012422142 0.012861554 0.300055
0003c0 f9 ea 64 3e ff 5c 6c bd 6b f4 95 3e 47 93 45 3e
       0.2235526 -0.057705875 0.2928804 0.19294463
0003d0 63 ca 45 3d 20 e0 5d be a3 6d 34 be 06 8c 27 be
       0.048288714 -0.21667528 -0.17619948 -0.16362008
0003e0 af b5 a6 3e 92 b6 26 be 8c d5 44 ba 89 10 99 be
       0.3256049 -0.16280583 -0.00075086276 -0.29895428
0003f0 5c 1d 1a 3e 9e 08 1c bc 38 b4 13 bd d3 62 68 be
       0.15050262 -0.009523539 -0.036060542 -0.22693948

onnx::LSTM_97 f4 [1, 72]
000000 4e 64 ae 3d 75 f2 96 be 87 9f 20 be f1 18 12 3d
       0.08515225 -0.29481855 -0.15685855 0.035668317
000010 b3 21 ec bd bc 20 a5 3d 5d fc 0e bd 6e c8 87 bc
       -0.11529865 0.08062884 -0.03490864 -0.016575065
000020 7f 3f 4d 3e 63 32 41 3e 25 c4 7f be ad 9a 9d 3e
       0.20043753 0.18866877 -0.24977167 0.3078207
000030 6a 8a 9f 3e ed b0 3b 3e 75 93 a8 3d 15 ff 8e be
       0.3116029 0.1832921 0.0823125 -0.27928987
000040 b1 fc 0f bd a2 ad 84 3e 0f 2e 65 3e fb f7 b7 bd
       -0.035153095 0.2591372 0.22380851 -0.089828454
000050 53 04 43 bd 6c df 86 3e 2a 84 f0 bd 74 a0 f9 3c
       -0.047611546 0.26342332 -0.11743958 0.030472018
000060 59 3a 3a be 83 d6 07 be 17 a3 81 be 47 c0 ac bc
       -0.1818632 -0.13265423 -0.2531974 -0.021087779
000070 24 1b db bd 30 27 06 bd 49 a9 cb bb 9a 45 09 3d
       -0.10698536 -0.032752216 -0.0062152487 0.033513643
000080 e9 b0 ca bd ea 06 72 3e 62 6a 53 3e 36 1f aa be
       -0.09897024 0.2363545 0.2064605 -0.33226937
000090 69 9a 08 3c 39 06 1b 3e a0 56 8a be 11 9c 4e 3e
       0.0083375955 0.15139093 -0.27019215 0.20176722
0000a0 26 5d 94 3e ef 33 2c bd 8c 3f 01 bd 18 08 3e 3e
       0.28977317 -0.042041715 -0.031554744 0.18557775
0000b0 1b 4b 0a be 1b 3c 2e 3e 3f 48 50 3e 2a 97 37 3e
       -0.13505213 0.17015116 0.2034006 0.17928758
0000c0 a1 21 50 be ba cc ae 3e c8 cf 79 be 25 ae fd 3d
       -0.20325328 0.3414057 -0.24395669 0.12386731
0000d0 6c 30 0f 3e 18 6e 88 3e ef 84 07 3b 50 5b 70 bd
       0.13983315 0.26646495 0.00206786 -0.058680832
0000e0 f1 b2 64 3e 38 e5 66 3d 83 2a 94 3e 9b 61 a1 3e
       0.22333886 0.056370944 0.28938684 0.3151978
0000f0 19 7e 6f 3e e6 13 24 be 2b c9 a2 be 90 27 aa bd
       0.23387946 -0.16023216 -0.31794104 -0.08308327
000100 8e 25 a2 bd 14 76 5e 3d 9f 5a 04 3e c8 11 0d be
       -0.07917319 0.054311827 0.12925194 -0.13776314
000110 38 14 89 3e ba 8b 1c be 2c 0e 2c bd c9 8e 9b be
       0.26773238 -0.15287676 -0.042005703 -0.30382374
