DataProcessing/best_val.pth (torch, 13346 bytes, 8 tensors)

weight_ih_l0 f4 [36, 9]
0	0xbe70842d	-0.23487921
1	0xbeaafd23	-0.33396253
2	0x3e9289ed	0.28620854
3	0xbe6092ba	-0.21930972
4	0x3b59911f	0.0033198071
5	0xbcd27766	-0.0256917
6	0x3e219016	0.1577762
7	0xbdb6e954	-0.089312226
8	0xbe4251a3	-0.18976454
9	0xbea861bf	-0.32887074
10	0xbea25552	-0.3170572
11	0x3e2a909b	0.16656725
12	0xbea56d1c	-0.32309806
13	0x3ea5f1ec	0.32411134
14	0xbded9097	-0.11599844
15	0xbe915495	-0.28384843
16	0x3cc45a54	0.023968853
17	0x3e6a93cc	0.22907943
18	0xbe53729e	-0.20649192
19	0x3e873cd5	0.264136
20	0x3e804168	0.250499
21	0x3df97c87	0.12181955
22	0xbb6b00c2	-0.0035858606
23	0x3e04e371	0.12977387
24	0x3d06e3ec	0.032932207
25	0xbc431f41	-0.011909307
26	0x3e97da3c	0.29658687
27	0x3ea3932a	0.31948215
28	0xbe4ae229	-0.19812836
29	0xbd9d8cd1	-0.07692874
30	0xbdd3520c	-0.103183836
31	0xbc3415c1	-0.010991515
32	0x3daf7bf8	0.08568567
33	0xbe20e9e8	-0.15714228
34	0x3e2c9b11	0.16856028
35	0x3e9cb6ea	0.30608302
36	0x3ea59099	0.32336882
37	0x3cb10630	0.021609396
38	0xbdfbfdca	-0.12304266
39	0xbe6113ef	-0.2198026
40	0xbd6f31da	-0.05839715
41	0x3b58e9b3	0.003309828
42	0x3e9c9401	0.30581668
43	0x3d94330e	0.072363004
44	0x3e8fae4f	0.28062674
45	0xbd9f4154	-0.07776132
46	0xbdc42198	-0.0957672
47	0x3de58c76	0.112084314
48	0xbea02f38	-0.31286025
49	0x3e8359dc	0.25654495
50	0x3eab57c5	0.334654
51	0xbb24edbb	-0.0025166112
52	0xbdc1506d	-0.09439168
53	0xbe865648	-0.26237702
54	0x3ea501e0	0.32227993
55	0x3eb11136	0.34583443
56	0xbe053a80	-0.13010597
57	0xbd9cd317	-0.0765745
58	0x3e3c18d8	0.18368852
59	0xbcc63bb7	-0.024198396
60	0x3c909f49	0.017654078
61	0xbcd4ebad	-0.025991285
62	0x3e84dc1e	0.25949186
63	0x3e796387	0.24354373
64	0xbe317923	-0.17331366
65	0xbe297a36	-0.16550526
66	0xbe985e25	-0.29759327
67	0x3d987b5d	0.07445405
68	0x3e89bdd0	0.26902628
69	0x3e91bd17	0.28464577
70	0xbe28599b	-0.16440432
71	0x3d4a30c1	0.0493629
72	0x3e41f58f	0.1894133
73	0xbdb03259	-0.08603353
74	0xbbc80c4a	-0.0061049806
75	0x3e1e5ad8	0.15464342
76	0x3e542d8a	0.20720497
77	0x3e12c16f	0.14331602
78	0xbe8acca9	-0.27109268
79	0x3c930421	0.017946305
80	0x3e942506	0.28934497
81	0x3e9a6fbb	0.3016337
82	0xbe9e515b	-0.30921444
83	0x3e81112d	0.25208417
84	0x3b86ab9a	0.004109812
85	0xbe51aaa2	-0.20475248
86	0x3e0e7e66	0.13915405
87	0xbe5091d9	-0.20368136
88	0x3e65cf8d	0.22442456
89	0x3e39bf4c	0.1813938
90	0xbe4644b0	-0.1936214
91	0xbea84ace	-0.3286957
92	0x3e49bff4	0.1970213
93	0x3e9d533b	0.30727562
94	0x3e12a277	0.14319788
95	0x3e5d0b4d	0.21586342
96	0x3e1ac92f	0.15115808
97	0xbe1b3f1a	-0.1516079
98	0xbe4bcf85	-0.19903381
99	0x3e8f0723	0.27935132
100	0xbd1ad1fc	-0.037797913
101	0x3ca9a892	0.020710263
102	0x3e48d06c	0.19610757
103	0x3ae59cfe	0.0017518101
104	0x3e773fa9	0.24145378
105	0xbe798e07	-0.24370585
106	0xbc3b8925	-0.011446272
107	0xbcb07aa1	-0.021542849
108	0x3e6e1c3c	0.23252958
109	0x3a68203f	0.00088549027
110	0x3e8b4e2f	0.27208087
111	0xbe8b9c96	-0.27267903
112	0xbe90cbf9	-0.2828062
113	0xbd23895a	-0.03992591
114	0xbe5206c6	-0.20510396
115	0x3d709a7b	0.058741074
116	0x3d9b3171	0.075777896
117	0xbe63aa8c	-0.22233027
118	0xbdeb67f6	-0.11494438
119	0xbe30505b	-0.17218153
120	0x3cc02abe	0.023457881
121	0x3c00b8c5	0.0078565525
122	0x3e4939ff	0.1965103
123	0x3d9b6644	0.07587865
124	0xbdfb3bb8	-0.1226725
125	0x3ca54ffb	0.02017974
126	0x3dcbe44e	0.09955655
127	0xbe6206fe	-0.2207298
128	0x3d06aae9	0.032877836
129	0x3e3ad211	0.18244196
130	0x3deda53a	0.1160378
131	0x3e54c6dd	0.20778985
132	0xbe88d0d7	-0.26721832
133	0x3d8ed2b5	0.06973783
134	0xbe04d7b0	-0.12972903
135	0x3e10a437	0.14125143
136	0xbd9f816a	-0.07788356
137	0x3e84c00c	0.2592777
138	0xbd97c5c6	-0.07410769
139	0xbe858d9b	-0.260846
140	0xbe848d98	-0.25889277
141	0xbe451b7d	-0.19248767
142	0x3ccb7ffc	0.024841301
143	0x3ea892a3	0.32924375
144	0x3e99811e	0.2998132
145	0x3e8d3599	0.27579954
146	0x3e505232	0.20343855
147	0x3eae565a	0.34050256
148	0xbe9191af	-0.2843146
149	0x3dba2c02	0.09090425
150	0xbdf9aea6	-0.12191515
151	0xbde49f6e	-0.11163221
152	0x3c44790f	0.011991753
153	0x3df21f0a	0.118223265
154	0x3e46a4dd	0.19398828
155	0x3d421cf1	0.047390882
156	0x3cdb14e4	0.02674336
157	0xbe98c2b7	-0.29836056
158	0xbdd5f0f6	-0.1044635
159	0xbe0e3a2c	-0.13889378
160	0xbe83123e	-0.25599855
161	0xbe4bd32d	-0.19904776
162	0xbdc93259	-0.09824056
163	0x3e30edf1	0.17278267
164	0xbde7e292	-0.11322512
165	0xbe28bc76	-0.16478142
166	0xbe4f4015	-0.20239289
167	0x3e8cf376	0.27529496
168	0x3c57c874	0.01317035
169	0xbe738943	-0.2378283
170	0xbdb4f9e3	-0.088367246
171	0x3e89e71e	0.2693414
172	0xbde8aeb4	-0.11361447
173	0xbde5248c	-0.111886114
174	0x3d714b2b	0.058909576
175	0x3e50e6dd	0.20400567
176	0x3e17fb4a	0.14841953
177	0x3e609932	0.2193344
178	0xbe37a255	-0.17933019
179	0xbdf11514	-0.117715985
180	0xbdb61280	-0.08890247
181	0xbdd0d52d	-0.1019691
182	0x3e8e198a	0.2775386
183	0x3dbe0aa0	0.0927937
184	0xbdd40387	-0.10352235
185	0xbe8d7e43	-0.27635393
186	0x3e91f089	0.28503826
187	0x3cece5b6	0.028918128
188	0xbe234de9	-0.15947689
189	0x3e2c6162	0.16834024
190	0xbe6a68d5	-0.22891553
191	0xbe42829e	-0.18995139
192	0x3e4de807	0.20108043
193	0xbe3781fd	-0.1792068
194	0xbe1a5968	-0.15073168
195	0xbb75f995	-0.0037532796
196	0x3c9ad82a	0.018901903
197	0xbea570bb	-0.3231257
198	0xbea5082e	-0.32232803
199	0xbe7919ee	-0.24326298
200	0xbe4ac511	-0.19801737
201	0xbd67eceb	-0.056622427
202	0xbe50391f	-0.2033429
203	0x3e2f0fa1	0.17095806
204	0xbeaa3dab	-0.33250174
205	0x3e9b035f	0.3027601
206	0x3e2d41a2	0.16919568
207	0x39c4db47	0.00037547408
208	0xbe5bfbf5	-0.21482833
209	0x3dfa9ad0	0.122365594
210	0xbe8eaf1b	-0.2786797
211	0x3e9a1423	0.30093488
212	0x3e2a355b	0.16621916
213	0xbe8dfdf7	-0.27732822
214	0x3db53769	0.08848459
215	0xbda54e2d	-0.080715515
216	0x3d552003	0.052032482
217	0xbd93faac	-0.07225546
218	0x3e5a9464	0.21345669
219	0xbe5c8312	-0.21534374
220	0x3df6fc1f	0.12059807
221	0xbe05cd12	-0.1306651
222	0xbe89775c	-0.26848876
223	0xbe6c4482	-0.23073009
224	0xbe4102ec	-0.18848771
225	0xbd23386a	-0.039848723
226	0x3de99e1a	0.114071086
227	0xbb91c8f5	-0.004449005
228	0x3e9eb46b	0.30997023
229	0xbe2e2983	-0.17008023
230	0x3e6c35e5	0.23067434
231	0xbdba094f	-0.09083807
232	0x3e4c3f35	0.19945987
233	0x3e7461a3	0.2386537
234	0x3e159648	0.14608109
235	0x3e9450d3	0.28967914
236	0xbd0d9546	-0.034566186
237	0xbe997b10	-0.29976702
238	0xbe4e471f	-0.20144318
239	0xbe3ca7ab	-0.18423335
240	0x3ea1a17b	0.31568512
241	0x3e11ca29	0.14237274
242	0x3e356be8	0.17716944
243	0x3e519a27	0.2046896
244	0x3e6fa296	0.23401865
245	0xbe4cf83d	-0.2001657
246	0x3e9b8c4c	0.30380476
247	0xbe9c5baa	-0.30538684
248	0x3d5e1d15	0.054226954
249	0xbe608167	-0.21924363
250	0xbc95f6e5	-0.018306205
251	0x3d083688	0.03325513
252	0xbe8af6f2	-0.2714153
253	0xbdff17f0	-0.124557376
254	0x3e832d9e	0.2562074
255	0x3cb0c436	0.021577936

weight_hh_l0 f4 [36, 9]
0	0x3ea16d25	0.31528583
1	0x3e4eb97a	0.20187941
2	0x3e0f2389	0.139784
3	0xbe792d08	-0.24333584
4	0xbe26dc93	-0.1629508
5	0xbe7382ce	-0.23780367
6	0xbe8a8f72	-0.27062565
7	0xbea1aa06	-0.3157503
8	0xbe99eeac	-0.30064905
9	0xbbf92e2f	-0.0076043825
10	0xbe1a0f7e	-0.15044972
11	0x3e283c74	0.16429311
12	0xbe96ef0d	-0.29479256
13	0x3e9b0671	0.30278352
14	0x3e544ba6	0.20731983
15	0x3e99d97e	0.30048746
16	0x3e10e605	0.14150245
17	0xbe26e2d8	-0.16297472
18	0x3da9bcf1	0.08287991
19	0xbde83308	-0.113378584
20	0xbdda489b	-0.1065838
21	0x3e7e5610	0.24837518
22	0xbe8d02ea	-0.27541286
23	0x3e91b1af	0.28455874
24	0x3db06a23	0.08613994
25	0x3e572f33	0.21014099
26	0x3e8aaa37	0.2708299
27	0xbd2a84d1	-0.04163057
28	0xbdeb826c	-0.114994854
29	0xbd1c8269	-0.038210306
30	0xbcff6656	-0.031176727
31	0x3e0301d4	0.12793666
32	0xbe3db84b	-0.18527333
33	0x3db00281	0.085942276
34	0x3dee502e	0.11636387
35	0xbe778664	-0.2417236
36	0x3e943dd0	0.2895341
37	0x3d874f98	0.06606978
38	0xbd1ea0cd	-0.03872757
39	0xbe05252b	-0.1300246
40	0x3d1bd5e6	0.038045786
41	0xbe6e0ff6	-0.23248276
42	0xbdbc0288	-0.0918017
43	0xbe1e6c24	-0.1547094
44	0xbe81bbdf	-0.25338647
45	0x3eb094ea	0.34488612
46	0x3e904422	0.2817698
47	0x3e996fb2	0.2996803
48	0x3e16ba41	0.14719488
49	0x3e78b3dd	0.24287362
50	0x3e3dd1ca	0.1853706
51	0xbe1006f3	-0.14065151
52	0x3db113a4	0.08646324
53	0x3e82fcc1	0.2558346
54	0xbd2e470a	-0.042548217
55	0xbea8886f	-0.3291659
56	0x3e6650b5	0.22491725
57	0x3e74eb24	0.23917824
58	0x396c7e05	0.0002255366
59	0x3e09dbdf	0.1346278
60	0xbd5d388e	-0.054009013
61	0x3d757b38	0.059931964
62	0x3b1674c1	0.0022957774
63	0x3e9a152d	0.3009428
64	0x3e11b2bd	0.1422834
65	0xbcc6e2b9	-0.024278032
66	0xbe9e80f5	-0.3095776
67	0xbd350ac3	-0.044199716
68	0x3e86135f	0.26186654
69	0x3e0b5c2d	0.13609381
70	0x3e0b6d72	0.13615969
71	0xbe7c7c92	-0.24656895
72	0x3e90ce9e	0.28282636
73	0x3dbeed58	0.093226135
74	0xbe61e45e	-0.22059771
75	0xbe2d7d97	-0.1694244
76	0x3e18f975	0.1493891
77	0x3e934154	0.2876078
78	0x3e94acbf	0.29038045
79	0x3d5d5ea5	0.05404534
80	0x3e4522b1	0.19251515
81	0x3e656c28	0.2240454
82	0xbe2c17eb	-0.16805999
83	0x3e0861a3	0.13318495
84	0xbd2d00af	-0.04223698
85	0x3e76a15f	0.24084996
86	0x3dcf2df6	0.10116188
87	0x3ea812a0	0.3282671
88	0x3defa779	0.11701865
89	0x3e911d6e	0.28342766
90	0x3dee213c	0.11627433
91	0x3ea00dae	0.31260437
92	0x3e04b424	0.12959343
93	0x3e541cd0	0.20714116
94	0xbe518d68	-0.20464098
95	0xbe88f1d8	-0.26747012
96	0xbe74d462	-0.23909143
97	0x3e47cbdd	0.19511361
98	0x3dde7d88	0.10863787
99	0x3e71efd9	0.23626651
100	0xbdacb05c	-0.084320754
101	0xbdd08978	-0.1018247
102	0xbc84f51a	-0.016230155
103	0x3d74e280	0.05978632
104	0xbc8f84f7	-0.017519457
105	0x3d50cbd0	0.05097562
106	0xbcbc4cdb	-0.022985866
107	0xbda7fdf6	-0.08202736
108	0x3ea1b716	0.31584996
109	0xbe68499a	-0.22684327
110	0x3e76c145	0.24097164
111	0xbd006891	-0.031349722
112	0xbc82ef87	-0.015983356
113	0x3b6d76ae	0.0036234069
114	0xbd951a18	-0.072803676
115	0xbd8a68a0	-0.06758237
116	0xbdd10826	-0.10206632
117	0xbe2ad820	-0.16684008
118	0x3e62d5a6	0.22151813
119	0x3d94b45e	0.07260965
120	0x3e09749a	0.13423386
121	0xbcad3873	-0.021145081
122	0xbcc9eefa	-0.024650086
123	0x3e1cfb76	0.153303
124	0x3b147627	0.0022653432
125	0xbe6af621	-0.22945453
126	0xbd2ab2a6	-0.04167428
127	0xbdc03001	-0.09384156
128	0xbe6d9f6d	-0.23205347
129	0xbda7fc6a	-0.08202441
130	0xbe2e90a0	-0.17047358
131	0x3e92dc79	0.28683832
132	0x3ea9c713	0.33159694
133	0xbe190b4f	-0.1494572
134	0x3e84f1f2	0.2596584
135	0x3e938cfa	0.28818494
136	0xbe39932e	-0.18122551
137	0xbe33958b	-0.17537515
138	0xbe2c454f	-0.16823314
139	0xbe76a8cc	-0.24087828
140	0xbdd74dd4	-0.105128914
141	0xbe505a24	-0.20346886
142	0xbdbeba86	-0.0931292
143	0x3dfa6657	0.12226551
144	0xbd733903	-0.059380542
145	0x3e3c60f0	0.18396354
146	0x3d95b033	0.07308998
147	0x3d926884	0.07148841
148	0xbe3e41aa	-0.18579736
149	0xbe7a6067	-0.24450837
150	0xbcf99688	-0.030467287
151	0x3e2cd7fd	0.16879268
152	0xbe1fe7c7	-0.1561576
153	0xbe713ba8	-0.23557913
154	0x3e24ffaa	0.16113153
155	0x3e142ed6	0.14470991
156	0x3e5e27a1	0.21694805
157	0x3e58fe54	0.21190768
158	0x3e11f0e3	0.14252047
159	0x3e2b3988	0.16721165
160	0xbeaed15a	-0.34144098
161	0xbda07436	-0.078346655
162	0x3e3bb8f6	0.18332276
163	0x3b2fb0ac	0.0026808186
164	0x3dfc981e	0.123337016
165	0x3e3e4e6e	0.18584606
166	0xbe89fceb	-0.26950774
167	0x3dcf8718	0.10133189
168	0x3d5d7bf0	0.054073274
169	0x3e6df641	0.2323847
170	0xbca10be9	-0.019659
171	0xbd91a6ea	-0.071119145
172	0xbe7971b2	-0.24359778
173	0xbe8d2830	-0.27569723
174	0xbe8c0bf7	-0.27352878
175	0xbea4deb3	-0.32201156
176	0x3e10decc	0.1414749
177	0xbea23a2a	-0.31685
178	0x3ea690de	0.325324
179	0xbe718e55	-0.23589452
180	0xbe31c302	-0.17359546
181	0xbe92de7a	-0.2868536
182	0x3c6a824a	0.01431329
183	0xbcac616f	-0.021042554
184	0xbe604eed	-0.21905108
185	0xbdd389c9	-0.10329015
186	0xbdc88540	-0.097910404
187	0x3d841a34	0.0645031
188	0x3e481860	0.19540548
189	0x3e3c2599	0.18373717
190	0x3df5020f	0.11963283
191	0x3ea573f8	0.3231504
192	0x3e94c78a	0.29058486
193	0xbc535540	-0.012898743
194	0x3c7f47e9	0.01558111
195	0x3e99d501	0.30045322
196	0x3db4f23b	0.08835264
197	0xbe248284	-0.16065413
198	0xbdc1fcd9	-0.09472055
199	0x3e3c8629	0.18410553
200	0x3d6e324e	0.058153443
201	0xbe56dee6	-0.20983467
202	0xbe45f2f9	-0.19330968
203	0xbd955134	-0.07290879
204	0x3d5546ff	0.05206966
205	0xbe9a2cea	-0.30112392
206	0xbdce0f9b	-0.1006157
207	0x3e9a9b85	0.30196777
208	0x3e8260f2	0.25464588
209	0x3e61cc24	0.2205053
210	0x3eb3f119	0.3514488
211	0x3e8af3ed	0.27139226
212	0xba828cc4	-0.0009960164
213	0x3eafe381	0.3435326
214	0xbda6edcf	-0.08150827
215	0xbe53a84c	-0.20669669
216	0x3e1feb6c	0.1561715
217	0x3e6b8f1c	0.2300381
218	0xbc3e38fa	-0.011610264
219	0x3e64d82e	0.22348091
220	0x3e4a96aa	0.19784036
221	0xbe06a507	-0.1314889
222	0x3e83fd08	0.25778985
223	0xbdfe15cd	-0.12406502
224	0x3d1eb944	0.0387509
225	0xbdb5763f	-0.08860444
226	0xbe93c8ea	-0.28864223
227	0x3e82b01d	0.2552499
228	0xbe032d1b	-0.12810175
229	0xbd21a5fe	-0.039464943
230	0xbe89bc2f	-0.26901385
231	0xbd15aae9	-0.036539946
232	0x3d03990a	0.03212837
233	0x3e587596	0.21138605
234	0x3e95a631	0.29228356
235	0xbe950fd8	-0.2911365
236	0xbe2a47b9	-0.16628923
237	0x3e34c733	0.17654113
238	0x3e3e7750	0.18600202
239	0x3d12d7fe	0.035850517
240	0x3e859d8d	0.26096764
241	0xbdeb155c	-0.11478683
242	0xbeaf0e57	-0.34190628
243	0x3d82bfd7	0.06384247
244	0x3e336a9b	0.17521136
245	0x3e9b5d36	0.30344552
246	0x3d52bc71	0.051449243
247	0xbea04727	-0.31304285
248	0xbe8e2cb9	-0.27768496
249	0x3e9bc2c4	0.30422032
250	0x3dde2d82	0.10848524
251	0x3daf6dd2	0.085658684
252	0xbeac440d	-0.3364567
253	0x3a86a93f	0.0010273828
254	0xbe9ae1d4	-0.30250418
255	0x3e189ca2	0.149035

bias_ih_l0 f4 [36]
0	0xbe87cc55	-0.2652308
1	0x3b4e4ce2	0.0031478931
2	0xbd1c635a	-0.038180687
3	0x3e32d3e5	0.17463644
4	0xbe12fb0c	-0.1435358
5	0x3d02d800	0.031944275
6	0xbe933135	-0.2874848
7	0xbe445ead	-0.19176741
8	0x3e9267d1	0.2859483
9	0x3e95784c	0.29193342
10	0x3e1e5f1a	0.15465966
11	0x3d0ff39a	0.035144426
12	0xbda11c35	-0.07866708
13	0x3d195489	0.037434135
14	0xbd7bc129	-0.06146351
15	0x3e0baf55	0.13641103
16	0xbe7ccf33	-0.24688415
17	0xbe673693	-0.22579412
18	0x3e78b3b1	0.24287297
19	0xbe849963	-0.25898275
20	0x3dd92c53	0.10604157
21	0x3e777c49	0.24168505
22	0x3e626f0d	0.22112675
23	0x3dc6ec3a	0.097130254
24	0xbde78954	-0.1130549
25	0xbe1f7138	-0.15570533
26	0x3e8c3596	0.27384633
27	0xbe8d6e91	-0.27623418
28	0xbd65878a	-0.056037463
29	0xbe23828d	-0.1596777
30	0x3e5c5a64	0.21518856
31	0xbe85bab2	-0.26119
32	0xbe73b543	-0.23799615
33	0x3c12173f	0.008916675
34	0xbe5bff3f	-0.21484087
35	0xbe41c990	-0.18924546

bias_hh_l0 f4 [36]
0	0x3e1aef34	0.15130311
1	0x3bb39332	0.0054801935
2	0x3e212e6a	0.15740362
3	0xbe45e097	-0.19323955
4	0x3dd327d4	0.10310331
5	0x3c9875df	0.018610893
6	0xbcf32d10	-0.029684573
7	0x3d1a2216	0.037630163
8	0x3e132a67	0.14371644
9	0xbdc3d4e8	-0.09562093
10	0x3daf2eed	0.08553872
11	0xbe8a38db	-0.26996502
12	0x3e75a5aa	0.23988977
13	0x3eaa261a	0.33232194
14	0xbd43cf08	-0.047804862
15	0x3e7d44bf	0.24733256
16	0xbd9b2fce	-0.075774774
17	0x3e84d9df	0.25947472
18	0xbe4b0626	-0.19826564
19	0xbe5caeeb	-0.21551101
20	0x3e2df5fc	0.16988367
21	0x3e913316	0.28359288
22	0xbd0ccbc7	-0.034374025
23	0x3a975c8f	0.001154797
24	0x3dce9a06	0.100879714
25	0x3e5c77d6	0.21530089
26	0xbb2d11ef	-0.0026408394
27	0xbddecd7c	-0.10879037
28	0xbcf9ac45	-0.030477652
29	0x3e986177	0.2976186
30	0x3ea1f88d	0.31634942
31	0xbe09a026	-0.13439998
32	0xbbc60a04	-0.0060436744
33	0x3ea63d28	0.32468534
34	0xbdebab8f	-0.115073316
35	0x3e9b13f5	0.30288664

weight f4 [128, 9]
0	0xbe34ec76	-0.17668328
1	0x3e3d941f	0.18513535
2	0x3dc09703	0.09403803
3	0x3e9be316	0.3044669
4	0x3e21711f	0.15765809
5	0x3d1ac17b	0.037782174
6	0x3e1abbb0	0.1511066
7	0x3ea4ad82	0.32163626
8	0x3d160412	0.036624976
9	0xbe80d61d	-0.25163355
10	0x3ea4e6f1	0.32207444
11	0x3df00bf0	0.11721027
12	0x3e38904c	0.18023795
13	0xbe637c7e	-0.22215459
14	0xbd7ea18f	-0.062165793
15	0x3e994f2c	0.29943216
16	0xbdf33960	-0.11876178
17	0xbe27e334	-0.16395265
18	0x3e2943bc	0.16529745
19	0x3d0a6e17	0.033796396
20	0xbe9daafd	-0.30794516
21	0x3e0f1f64	0.13976818
22	0x3de48ec3	0.11160042
23	0x3d6a7ba5	0.057246823
24	0x3d1da32e	0.0384857
25	0x3ddded6f	0.108363025
26	0x3e23737c	0.15962023
27	0x3e65cdeb	0.22441833
28	0x3eaa5ef7	0.33275577
29	0xbe9ea525	-0.3098537
30	0x3d365cab	0.04452197
31	0x3cae8aae	0.021306362
32	0x3e2e620c	0.1702959
33	0x3e065ec1	0.13122083
34	0x3e17d8a0	0.1482873
35	0xbc050c1d	-0.008120564
36	0x3ea0ae85	0.31383148
37	0x3e56221a	0.20911446
38	0xbe4d906c	-0.20074624
39	0xbd498a79	-0.049204323
40	0x3d4813b7	0.048846927
41	0x3d9255bc	0.07145259
42	0xbe992f68	-0.2991898
43	0xbeae8ca8	-0.34091687
44	0x3e7d6f3f	0.24749468
45	0xbe2a4345	-0.16627224
46	0x3e1af6ce	0.15133211
47	0xbe613d69	-0.21996082
48	0xbcbd6315	-0.023118535
49	0x3c7048cc	0.014665794
50	0x3d8766ec	0.06611428
51	0xbe095247	-0.13410293
52	0xbe3c5cda	-0.18394795
53	0x3b35c7e3	0.002773755
54	0xbe00b509	-0.1256906
55	0x3e9634d1	0.2933717
56	0xbe4450fd	-0.1917152
57	0xbe9db822	-0.30804545
58	0xbc6f7a44	-0.014616553
59	0xbe9db1e0	-0.3079977
60	0x3eacafec	0.33727968
61	0xbe63772b	-0.22213428
62	0xbea15a88	-0.31514382
63	0xbd90825a	-0.070561126
64	0x3de5f899	0.11229057
65	0xbcf002e5	-0.029298255
66	0x3d9af7d7	0.07566803
67	0x3e3c2f41	0.18377401
68	0x3dbc6a90	0.09200013
69	0xbd03b23f	-0.03215241
70	0x3e9b9890	0.30389833
71	0xbe48c555	-0.19606526
72	0x3e79bee1	0.24389221
73	0x3ddc623c	0.10760924
74	0xbda057d9	-0.078292556
75	0x3e978af0	0.29598188
76	0xbea34854	-0.3189112
77	0xbe448932	-0.19192961
78	0xbe2316df	-0.15926693
79	0xbe66012b	-0.22461383
80	0xbe8a1273	-0.269672
81	0xbe3e9b9e	-0.18614051
82	0x3e988ae5	0.29793468
83	0xbc4dde9a	-0.012565279
84	0x3c0de9e2	0.008661719
85	0xbd9994ea	-0.07499106
86	0xbe39913f	-0.18121813
87	0xbdb0974c	-0.086226076
88	0xbd221528	-0.039570957
89	0x3e8b6dae	0.27232116
90	0x3e626d9c	0.22112125
91	0xbe811a21	-0.25215247
92	0xbcaef547	-0.021357192
93	0xbd7d60b4	-0.0618598
94	0x3e6cb53c	0.2311601
95	0x3e06be50	0.13158536
96	0x3d3f5587	0.046712425
97	0x3e1103a3	0.14161544
98	0x3db33733	0.08750763
99	0xbe04547a	-0.1292285
100	0x3e4178e8	0.18893778
101	0x3d933d98	0.071894825
102	0x3e971746	0.29509944
103	0xbe080de1	-0.13286544
104	0xbe634de6	-0.22197685
105	0x3c496f4f	0.012294604
106	0x3d6a73e2	0.05723942
107	0x3e3b6b41	0.18302633
108	0x3e2f23a5	0.17103441
109	0x3e4f7b4f	0.20261882
110	0xbe53b5b6	-0.20674786
111	0xbe85e1e7	-0.26148912
112	0xbde4bd40	-0.11168909
113	0x3c5f46b5	0.013627698
114	0xbdf80f5d	-0.12112305
115	0x3e26a688	0.16274464
116	0x3e4f0959	0.2021841
117	0x3e7ce0c5	0.24695118
118	0x3e759fe4	0.23986775
119	0xbe4b9cfc	-0.19884104
120	0x3e457f50	0.19286847
121	0x3eacc70f	0.3374562
122	0x3c8809b4	0.01660619
123	0xbe869a83	-0.26289758
124	0xbe963917	-0.2934043
125	0x3dbd8827	0.092544846
126	0xbc3adb24	-0.011404786
127	0x3e8c805f	0.2744169
128	0xbe25063c	-0.1611566
129	0x3e3b56cc	0.18294829
130	0x3ddf0bec	0.10890946
131	0xbea37454	-0.3192469
132	0x3e0ba057	0.13635384
133	0xbd327588	-0.043569118
134	0xbe7638d0	-0.2404511
135	0x3e8c0398	0.27346492
136	0x3c476ab9	0.012171441
137	0x3d404165	0.046937365
138	0x3e003cea	0.12523237
139	0x3ea1f366	0.3163101
140	0xbc8e92e1	-0.017404022
141	0x3d2bd323	0.041949403
142	0xbe08268b	-0.13295953
143	0xbe58f4df	-0.21187161
144	0xbe9f61b1	-0.3112922
145	0x3e511c48	0.20420945
146	0xbdcda406	-0.100410506
147	0x3dd8ae3a	0.10580106
148	0xba81511f	-0.0009866095
149	0xbe8ec471	-0.27884248
150	0x3e617e5e	0.22020862
151	0x3e2df1a6	0.16986713
152	0xbde1ae94	-0.11019626
153	0x3d7aea0c	0.06125836
154	0x3d86f5f5	0.06589881
155	0xbe064fde	-0.13116404
156	0x3e56b299	0.20966567
157	0x3d66fbab	0.056392353
158	0x3ddfb816	0.109237835
159	0x3e73336e	0.23750088
160	0x3e064f19	0.13116111
161	0xbe119913	-0.1421855
162	0x3e9c40ef	0.3051829
163	0x3e4f198c	0.20224589
164	0xbe0eb11e	-0.13934752
165	0x3dc832f8	0.097753465
166	0x3e859954	0.26093543
167	0x3e90417a	0.28174955
168	0xbe28e8df	-0.16495083
169	0x3ea496ac	0.32146204
170	0x3e3800bf	0.17969035
171	0x3e8c382d	0.2738661
172	0x3d3fcab3	0.04682417
173	0x3e8528bf	0.2600765
174	0xbd92f1d2	-0.0717503
175	0x3e4194ab	0.18904369
176	0xbe675a48	-0.22593033
177	0x3e5c72ec	0.21528214
178	0x3e9afdee	0.30271858
179	0x3ea09e0b	0.31370577
180	0x3d370fd4	0.04469283
181	0xbe24fa27	-0.1611105
182	0xbdceab21	-0.10091234
183	0xbc4ad200	-0.012379169
184	0xbe2f9d73	-0.17149906
185	0x3dd9d517	0.10636347
186	0xbd1aa694	-0.037756518
187	0xbe092cc2	-0.1339598
188	0xbbc79a7d	-0.0060914145
189	0x3e53ba86	0.20676622
190	0x3e6bed83	0.23039822
191	0xbe8a5d30	-0.2702422
192	0xbe8b67a2	-0.27227503
193	0xbdf8a194	-0.121401936
194	0xbd96ed0c	-0.07369432
195	0x3c8a3662	0.016871635
196	0x3ea39432	0.31949002
197	0xbe1a0ce8	-0.15043986
198	0x3e7b6391	0.245497
199	0x3e7616c1	0.24032117
200	0x3d602289	0.054720435
201	0x3eab79a8	0.33491254
202	0x3e67afa5	0.22625597
203	0x3da3e4c2	0.080026165
204	0x3dfbb01f	0.12289452
205	0xbe074b85	-0.13212402
206	0xbe90ab0d	-0.282555
207	0xbe517587	-0.2045499
208	0x3e97abaf	0.29623172
209	0xbe4f1948	-0.20224488
210	0xbcbe42a3	-0.023225134
211	0xbd297b9d	-0.041377652
212	0x3d919025	0.071075715
213	0x3c6fae17	0.014628909
214	0x3e937f7c	0.288082
215	0x3e01bdab	0.12670009
216	0x3ddd6d2e	0.1081184
217	0xbe668b7c	-0.22514147
218	0xbb3f1686	-0.0029157712
219	0xbe1ab217	-0.15106998
220	0x3e7ccd6a	0.24687734
221	0xbe00edf4	-0.12590772
222	0x3e1d08b2	0.15335348
223	0x3c835d47	0.016035689
224	0xbe3666b6	-0.17812619
225	0xbe664e25	-0.22490747
226	0xbe842b4d	-0.25814286
227	0xbe9892ec	-0.29799592
228	0x3d8cfdce	0.06884347
229	0xbe3eeb53	-0.18644457
230	0xbcb9e785	-0.022693405
231	0xbea60bc6	-0.32430857
232	0xbc09f35a	-0.008419836
233	0xbe8d253f	-0.2756748
234	0xbd622e38	-0.05521986
235	0xbc44c23e	-0.012009202
236	0x3d8c5157	0.06851452
237	0xbdef35ae	-0.116801605
238	0x3ddb879a	0.10719223
239	0x3e97ac94	0.29623854
240	0xbe4b7b8c	-0.19871348
241	0xbcfe8e07	-0.031073583
242	0x3d00c1f3	0.031434964
243	0xbda95232	-0.08267631
244	0x3c2b4b5a	0.010454977
245	0xbe679cf3	-0.22618465
246	0xbe0ece09	-0.13945784
247	0xbe82e688	-0.25566506
248	0xbe4ca893	-0.19986181
249	0x3d4a06ca	0.04932288
250	0xbe7477b1	-0.23873784
251	0xbe5531c4	-0.20819765
252	0x3e9fe1d9	0.31226996
253	0xbd024175	-0.031800706
254	0x3e92a98d	0.28644982
255	0x3d867a93	0.06566348

bias f4 [128]
0	0xbd21346b	-0.03935663
1	0xbe852b02	-0.26009375
2	0x3e3a8fbb	0.18218891
3	0xbe9b54d2	-0.3033815
4	0x3e96c708	0.29448724
5	0x3bccbb68	0.0062479265
6	0x3e801f28	0.2502377
7	0xbd748fe2	-0.05970753
8	0x3e8fb70b	0.28069338
9	0xbb911432	-0.0044274563
10	0xbe374b6a	-0.17899862
11	0x3e2301e2	0.15918687
12	0x3e7329af	0.2374637
13	0xbe0d7767	-0.1381508
14	0xbea05ad3	-0.31319293
15	0x3db676d0	0.089093804
16	0xbea5846a	-0.32327586
17	0x3e45cdb0	0.19316745
18	0x3d5f3654	0.05449517
19	0xbe91b4e5	-0.28458324
20	0xbdcb9093	-0.09939685
21	0xbea7b2ef	-0.32753703
22	0xbdd9ec3b	-0.106407605
23	0x3dcf9eac	0.10137686
24	0x3e698a9c	0.22806782
25	0x3d6aa378	0.057284802
26	0xbe625701	-0.22103502
27	0x3e8bd806	0.2731325
28	0xbe6aa488	-0.22914326
29	0xbdf28053	-0.11840882
30	0x3e3be6f9	0.18349828
31	0xbe5b675d	-0.21426149
32	0x3dc9a673	0.09846201
33	0x3e4db06e	0.20086834
34	0x3e2ac0fd	0.16675182
35	0xbdf74cbb	-0.12075182
36	0x3d6d1295	0.05787905
37	0xbe5cdf30	-0.21569514
38	0xbe9856fc	-0.29753864
39	0x3d9d7412	0.07688154
40	0x3d9630fa	0.0733356
41	0xbdb7a068	-0.08966142
42	0x3ea7185d	0.32635775
43	0x3d0d3457	0.034473743
44	0xbda28b8c	-0.07936773
45	0xbe9e829e	-0.30959028
46	0x3da508e3	0.08058336
47	0xbe201076	-0.1563128
48	0xbd396d51	-0.045270268
49	0xbe94c110	-0.29053545
50	0x3e8bad28	0.27280545
51	0x3e9dddbb	0.3083323
52	0xbcbbd422	-0.022928301
53	0x3e9fd634	0.31218112
54	0xbe0bc5bd	-0.1364965
55	0x3e8f6e1e	0.280137
56	0xbde88902	-0.11354257
57	0x3e85fbfa	0.26168805
58	0xbd943073	-0.072358035
59	0xbe1ceed9	-0.15325488
60	0x3db082cf	0.086187
61	0x3e4e1550	0.20125318
62	0x3e59b066	0.21258697
63	0x3d82a861	0.06379772
64	0x3e60dc53	0.21959047
65	0xbe4fbe42	-0.20287421
66	0x3dbce9cf	0.09224283
67	0x3dd72eb3	0.10506954
68	0x3e1a9552	0.15096024
69	0xbda0aaf9	-0.078451104
70	0xbe3703b2	-0.17872503
71	0xbd3b9e71	-0.0458054
72	0x3d0cdd5d	0.034390796
73	0x3e4195c1	0.18904783
74	0xbd81104c	-0.063019365
75	0xbe80950c	-0.25113714
76	0xbc31b867	-0.010847188
77	0xbb90a99e	-0.004414751
78	0xbe255a3a	-0.161477
79	0x3e3ebbf7	0.1862639
80	0x3d3e3b12	0.046443053
81	0x3ea56188	0.32300973
82	0xbdf11540	-0.11771631
83	0xbea6d134	-0.32581484
84	0x3e72062a	0.23635164
85	0x3e17f9b3	0.14841346
86	0x3e277727	0.16354047
87	0x3e334b5b	0.17509215
88	0xbe303049	-0.1720592
89	0xbdbe2c67	-0.09285813
90	0xbd1e4905	-0.038643856
91	0xbe2a4518	-0.1662792
92	0x3dc63b7e	0.09679316
93	0xbdd326cc	-0.10310134
94	0x3e6755e0	0.22591352
95	0xbe716a33	-0.23575668
96	0x3e79d75c	0.2439856
97	0xbe7dd814	-0.24789459
98	0xbe72449c	-0.23658985
99	0x3ce2a66e	0.02766725
100	0xbe8904d0	-0.26761484
101	0xbea3bca5	-0.31979862
102	0x3bd7056f	0.006561927
103	0x3e9f65f5	0.31132475
104	0x3d55623b	0.052095633
105	0x3e4af8c0	0.19821453
106	0x3dfc0018	0.123047054
107	0xbd8bce0a	-0.06826408
108	0xbe5dbf62	-0.21655038
109	0xbea22f5d	-0.3167676
110	0x3c9ff39c	0.019525342
111	0x3c4eca33	0.01262145
112	0xbe815fc3	-0.25268373
113	0xbd3d2c6b	-0.04618494
114	0xbe914254	-0.28370917
115	0x3e3863fa	0.18006888
116	0x3e839620	0.25700474
117	0xbe6e4dd5	-0.23271878
118	0x3e8788ba	0.26471502
119	0xbe812e94	-0.2523085
120	0x3ea264f6	0.31717652
121	0xbe5c71f4	-0.21527845
122	0xbdbc4c51	-0.09194244
123	0x3e594b58	0.21220148
124	0xbe252f30	-0.16131282
125	0xbce5a760	-0.028033912
126	0xbe96b4e7	-0.29434893
127	0xbcac1fd8	-0.021011278

weight f4 [3, 128]
0	0x3cebe08a	0.028793592
1	0x3cc91c32	0.024549577
2	0x3db1b41b	0.086769305
3	0xbd3304b6	-0.043705665
4	0xbd30534d	-0.04304819
5	0xbc7c95ec	-0.015416604
6	0x3c28ae58	0.010295473
7	0x3aeaff5b	0.0017928885
8	0x3bfb597f	0.007670581
9	0xbd18e716	-0.037329756
10	0xbdc48fb6	-0.09597723
11	0xbb92fb0e	-0.0044854945
12	0xbd6d77cc	-0.057975575
13	0xbdb9b033	-0.090668105
14	0x3d87435b	0.06604644
15	0xbd705050	-0.058670342
16	0xbd7bc16e	-0.061463766
17	0x3a2aca9c	0.00065151765
18	0x3cc0d1c0	0.023537517
19	0x3ce8694d	0.028370524
20	0xbb769ec1	-0.0037631246
21	0x3d925ca4	0.07146576
22	0x3d2535d3	0.040334534
23	0x3d314b75	0.043284852
24	0xbd00cf4a	-0.031447686
25	0xbd4a86f3	-0.049445104
26	0x3d6e9a5c	0.058252677
27	0x3db698d1	0.08915866
28	0xba4f9b4e	-0.00079195655
29	0x3b097641	0.0020975026
30	0xbcb9b610	-0.022669822
31	0xbd826b5e	-0.06368135
32	0xbd6dc1b2	-0.05804605
33	0x3c58a855	0.013223727
34	0x3c1f1f9d	0.009712127
35	0x3cd20597	0.025637431
36	0xbb5c5c33	-0.003362429
37	0x3d6fec22	0.058574803
38	0x3d93d2da	0.07217951
39	0xbd62e149	-0.05539063
40	0x3c5e776e	0.013578279
41	0x3d19f7e6	0.03758993
42	0x3d99974a	0.07499559
43	0x3caf0fab	0.021369776
44	0x3d0c25f3	0.03421588
45	0x3cfc4010	0.030792266
46	0x3db5a305	0.08868984
47	0xbd00af0a	-0.03141693
48	0x3cad1dbe	0.021132346
49	0xbc330a1e	-0.010927705
50	0xbd39eee1	-0.04539383
51	0x3d875ded	0.06609712
52	0x3d4469aa	0.04795233
53	0xbd81abfc	-0.063316315
54	0x3d2f2549	0.042760167
55	0x3c1b6182	0.009483697
56	0xbc89a1dc	-0.016800813
57	0xbd88f349	-0.06687028
58	0xbd8a5b2d	-0.06755672
59	0xbc95dba6	-0.018293213
60	0x3db5bd63	0.08874013
61	0xbd74a9c7	-0.059732225
62	0x3d879655	0.066204704
63	0x3d6f3272	0.058397718
64	0xbc4b0527	-0.012391365
65	0xbd89e089	-0.0673228
66	0x3d3edd98	0.046598047
67	0x3ba81bef	0.005130283
68	0xbd5dc599	-0.054143522
69	0x3d578068	0.052612692
70	0x3cc0b1b9	0.023522245
71	0x3d564b38	0.052317828
72	0xbd08a6e3	-0.03336228
73	0x3c904b17	0.01761393
74	0xbda8f3a2	-0.08249594
75	0xbdbc010c	-0.09179887
76	0x3cdf0007	0.027221693
77	0x3dcf4f2d	0.101225235
78	0xbd912c2e	-0.07088505
79	0xbbc1143f	-0.005892306
80	0xbcf9514d	-0.030434275
81	0xbd5e37c8	-0.054252416
82	0xbcab82e5	-0.020936439
83	0xbd767b68	-0.060176283
84	0x3cf13d62	0.029448215
85	0xbd9c81be	-0.07641934
86	0x3d2c6b10	0.04209429
87	0xbce34ce9	-0.027746635
88	0xbdcddb9a	-0.10051651
89	0xbcaad29a	-0.020852376
90	0xbbefcdca	-0.007318233
91	0xbc5f401b	-0.013626124
92	0x3c3e16f3	0.011602151
93	0xbd2b31da	-0.04179559
94	0x3dbc44c2	0.09192802
95	0xbc70d2f7	-0.014698735
96	0x3d4627b0	0.048377693
97	0x3d91e122	0.07123019
98	0xbd472cae	-0.048626594
99	0x3c138bba	0.009005481
100	0xbd9c893c	-0.07643363
101	0xbd20181d	-0.039085496
102	0x3d53bece	0.051695637
103	0x3d276ce7	0.04087534
104	0xbdb39828	-0.08769256
105	0xbb561bcf	-0.0032670384
106	0x3c5f0836	0.0136127975
107	0x3d127bfc	0.035762772
108	0x3a85e936	0.0010216597
109	0x3d893813	0.067001484
110	0x3d9038a5	0.07042054
111	0xbc86e32f	-0.016465751
112	0xbd834d57	-0.06411236
113	0xbda23565	-0.079203404
114	0xbd8a5b1b	-0.06755658
115	0xbd82081c	-0.06349203
116	0xbc8ac2b5	-0.016938547
117	0x3d81a024	0.063293725
118	0x3dc554c1	0.09635306
119	0x3d4a8f80	0.04945326
120	0x3c865bb4	0.01640115
121	0xbc403789	-0.011731991
122	0x3b5e7d7e	0.003394931
123	0xbd5bf32f	-0.053698715
124	0xbd981f9f	-0.07427906
125	0xbd52ff9c	-0.0515133
126	0xbd491300	-0.049090385
127	0xbd7553ff	-0.059894558
128	0xbdae7346	-0.085180804
129	0x3d0f2bca	0.03495387
130	0xbd916cda	-0.0710084
131	0x3ba64307	0.0050739083
132	0x3cd9c078	0.026581034
133	0xbd50bb9b	-0.050960165
134	0xbd201304	-0.039080635
135	0x3d16ee20	0.036848187
136	0x3c03168c	0.008000981
137	0xbd837ec4	-0.06420663
138	0x3d6e86dc	0.05823408
139	0x3da4cfd1	0.0804745
140	0xbd62a279	-0.055330727
141	0xbdad01d6	-0.08447616
142	0xbd8d5e54	-0.06902757
143	0x3cdf97df	0.027294097
144	0xbd950cbf	-0.07277822
145	0xbd4de6d5	-0.050268967
146	0xbd7a3509	-0.061085735
147	0x3c83ce58	0.016089603
148	0xbd7a4c83	-0.061108124
149	0x3d83956b	0.064249836
150	0xbdac16db	-0.08402797
151	0xbcc2bbe1	-0.023771228
152	0xbae3ead0	-0.0017388705
153	0x3da1ce0e	0.0790063
154	0xbdac062c	-0.08399615
155	0x3cbd3e55	0.023101011
156	0xbdb19ee3	-0.08672883
157	0x3d2c5e44	0.042082086
158	0xbd021bd6	-0.031764828
159	0x3cded4a6	0.027201008
160	0xbd3a96ab	-0.045553844
161	0x3d6dbf81	0.05804396
162	0xbac7dafc	-0.0015247758
163	0x3d7f9a91	0.062403265
164	0x3d06f478	0.032947987
165	0xbd83caee	-0.0643519
166	0x3d1bf45d	0.03807484
167	0xbd504d24	-0.050854817
168	0xbc5d9831	-0.013525055
169	0xbc4278d8	-0.011869632
170	0xbb12cea8	-0.0022401009
171	0xbd890ddb	-0.06692096
172	0xbc15d2c7	-0.0091444915
173	0x3c58cde3	0.013232681
174	0xbcde5b12	-0.027143035
175	0xbd59f509	-0.0532122
176	0x3d841316	0.06448953
177	0x3d7ade34	0.061247066
178	0xbd28900c	-0.041153
179	0x3cbe94d2	0.023264322
180	0x3ca8e30e	0.02061608
181	0xbd03a356	-0.03213819
182	0x3ca20e7b	0.019782295
183	0xbd4bbde9	-0.04974166
184	0xbd4e0515	-0.050297815
185	0x3d4ec9fa	0.05048559
186	0xbd9dcdff	-0.07705306
187	0xbd9f64f3	-0.077829264
188	0x3c09fb04	0.008421663
189	0xbc80a3e8	-0.015703157
190	0x3d876787	0.06611543
191	0xbc37971b	-0.01120546
192	0x3d9d340f	0.07675945
193	0x3d0e5ef7	0.034758534
194	0xbbbcbf89	-0.0057601375
195	0x3d7b2400	0.06131363
196	0x3d8b40b6	0.06799452
197	0x3bf73fa7	0.0075454297
198	0x3d80b3e2	0.0628431
199	0xbd7b7aaf	-0.061396297
200	0x3d815be3	0.06316354
201	0xbcd91b2c	-0.026502214
202	0x3db08343	0.08618786
203	0x3c81ce04	0.015845306
204	0xbd767929	-0.06017414
205	0x3cdf1c89	0.027235286
206	0xbcb5208c	-0.022110246
207	0xbd8b3f5d	-0.06799195
208	0x3d848bb4	0.06471959
209	0x3cdb590b	0.026775857
210	0x3ce7fe7f	0.028319595
211	0x3d1c055f	0.03809106
212	0x3d79d99d	0.060998548
213	0x3dc0dc67	0.094170384
214	0x3d2b90c4	0.041886106
215	0xbd3e592a	-0.046471752
216	0x3d05df72	0.032683797
217	0xbc3d9180	-0.011570334
218	0x3cebc51a	0.028780509
219	0x3cb9d1ec	0.022683106
220	0xbbef7f0d	-0.007308847
221	0x3d5d5dfb	0.054044705
222	0x3d0887bc	0.03333257
223	0x3d3a233d	0.045443762
224	0xbb134820	-0.002247341
225	0xbc4d70c7	-0.012539095
226	0xbd04dda4	-0.032437935
227	0xbca224ce	-0.01979294
228	0x3cae0743	0.021243697
229	0xbd02efa7	-0.03196683
230	0x3d9c3e32	0.0762905
231	0x3bf95749	0.007609282
232	0x3dcb08df	0.099138014
233	0x3d680b2e	0.056651287
234	0x3c692dc4	0.014232103
235	0x3bc18cad	0.0059066624
236	0xbdaa75c7	-0.083232455
237	0xb9a8c984	-0.00032193598
238	0x3c831a9a	0.016003896
239	0xbd98e9e1	-0.07466484
240	0x3d614abf	0.055002924
241	0xbcc406a9	-0.023928957
242	0xbd9ce82e	-0.07661472
243	0xbd0c015e	-0.03418099
244	0x3c7eb54e	0.015546156
245	0x3dae1b52	0.08501305
246	0xbd83f37d	-0.06442926
247	0xbd4da213	-0.050203394
248	0xbc6283dd	-0.013825384
249	0x3d16d19b	0.03682099
250	0xbd97dc7b	-0.074151
251	0xbd0c67d5	-0.03427871
252	0xbd5e8fbf	-0.054336306
253	0xbc7bdb7d	-0.015372154
254	0xbd5afe8b	-0.053465407
255	0xbcea2c72	-0.028585646

bias f4 [3]
0	0xbd26c4db	-0.04071508
1	0xbd9d3145	-0.07675413
2	0xbcadc1f3	-0.021210646
