DataProcessing/best_val.pth (torch, 11477 bytes, 8 tensors)

lstm.weight_ih_l0 f4 [27, 9]
000000 a4 b0 91 be 6f d2 16 be 6b 77 db 3d a1 c3 8b 3e
       -0.2845508 -0.14728712 0.107161365 0.2729769
000010 14 f6 5d 3e 18 c4 90 3e d1 6f f5 bd 2b 82 ad be
       0.21675903 0.28274608 -0.11984218 -0.33888373
000020 2e ca 58 3e 6b 08 4b 3d 82 bf 31 be f7 2d cd bc
       0.21170875 0.049568575 -0.1735821 -0.025046332
000030 47 f0 1f bd 21 f8 59 3e 6b 1b 69 3e 47 c4 8e be
       -0.039047506 0.2128606 0.22764365 -0.27884123
000040 68 b2 90 bc 7d af 7a be d3 1f a0 3e 34 df 90 be
       -0.017663196 -0.24481006 0.3127428 -0.2829529
000050 d3 48 5e bc e4 57 5c be d4 85 4d 3e bf d3 7e be
       -0.013567167 -0.21517903 0.20070583 -0.24885462
000060 6d 53 31 3e 58 45 82 3e 68 b5 7a 3e d1 68 c6 bd
       0.1731698 0.2544353 0.24483263 -0.09687961
000070 78 9d 6e 3e 5b e0 94 be 32 d0 47 3d 9b f4 c6 3d
       0.23302257 -0.2907742 0.048782535 0.097146235
000080 d5 e7 69 3e 1b 91 a7 3e 21 f7 26 3d 8c 24 05 ba
       0.22842343 0.32727894 0.040763024 -0.0005078993
000090 36 fd 42 3e b2 b9 84 be 1e ca ed 3d 33 9c 7a 3e
       0.19041905 -0.25922924 0.116108164 0.24473648
0000a0 c8 8b 2b 3e 64 3b 0a 3c 6f ab 0f 3e 65 93 4e be
       0.16752541 0.008437011 0.1403024 -0.20173414
0000b0 b6 d6 af 3e c9 26 9f be 1b 2a b7 bd 4c 80 43 3e
       0.343435 -0.31084278 -0.08943578 0.1909191
0000c0 ba 2f 60 3b 23 09 2c 3e 14 3a 1d 3e c0 f5 55 bd
       0.0034208135 0.1680036 0.15354186 -0.05223632
0000d0 91 85 a1 3e 2b 34 a3 3d c5 8f 38 3e 63 30 d9 bd
       0.31547216 0.079689346 0.18023594 -0.10604932
0000e0 47 d1 42 bd 10 55 b9 3b 21 54 94 bd 3d 9a ac 3c
       -0.047562864 0.005655892 -0.07242609 0.02106964
0000f0 07 b2 5a 3e 06 1f 58 3e cd 19 48 3e bc 3c 77 be
       0.21356975 0.21105585 0.19541092 -0.24144262
000100 b0 7d 0a be 41 1e 86 3e 51 df b7 3d 9a 0f 5b 3d
       -0.13524508 0.26194957 0.08978141 0.053481676
000110 e3 78 56 be 3d c7 3b 3e 30 45 4f be d8 c5 aa 3e
       -0.20944552 0.18337722 -0.20241237 0.33354068
000120 cf 73 65 3e ec 1e 88 bd a0 86 57 3d 9c ef 27 be
       0.22407459 -0.06646523 0.052618623 -0.16399997
000130 86 7f b4 3e 5b 9d 07 bd 78 28 7d 3e 4e b4 79 3e
       0.35253543 -0.03310905 0.24722469 0.24385187
000140 e9 31 a8 3e 45 b7 7e bd df 7c 49 3e 15 1a 33 3d
       0.32850578 -0.0621865 0.19676541 0.043726046
000150 18 08 b3 bd bd cc 5a 3e 74 0d 94 3e 11 6b 84 be
       -0.08741778 0.21367164 0.28916514 -0.25862935
000160 4d 69 aa bd 6d 58 8b be 72 4b e9 3c ac a0 8d be
       -0.08320866 -0.272159 0.028478358 -0.27661645
000170 01 df 2d be 8e 14 36 be 67 0b 37 3b b1 01 8f be
       -0.169796 -0.17781278 0.002793038 -0.27930978
000180 ea 73 5a 3e 60 e7 a8 3e 4f 8f 9d 3d 7a 5b fa bd
       0.2133328 0.32989025 0.076933496 -0.12224479
000190 3b 33 b5 be 82 09 60 3e c1 3e 47 3e 8f 96 1c bd
       -0.35390648 0.21878627 0.19457532 -0.03822952
0001a0 53 44 9c bc dc 83 96 3d ea b4 30 3e d2 a5 0e 3e
       -0.019075548 0.07349369 0.17256513 0.13930443
0001b0 65 fa b3 be 71 ae e6 3d 6f dd 54 3d 32 ce 89 3d
       -0.35151973 0.11263741 0.051968988 0.06728782
0001c0 b5 eb 06 3e 9a 8b a8 bd 61 32 99 3e 00 ee e8 3d
       0.13175853 -0.08229752 0.2992125 0.1137352
0001d0 b6 05 04 be d4 c5 39 3e 78 a9 94 3d 54 a6 f7 3d
       -0.12892804 0.18141872 0.07258886 0.120922714
0001e0 7c cd 80 3d b8 4c 39 be 94 3a a6 3e e4 f5 5b be
       0.06289193 -0.18095672 0.32466567 -0.21480519
0001f0 54 04 6b be ad 91 ea 3d c0 0f 8a be 3e 5e 91 3e
       -0.2295087 0.11453567 -0.2696514 0.28392214
000200 5c 65 b0 be 28 50 da bd 20 7e 28 3e f1 c2 ec bd
       -0.3445233 -0.1065982 0.16454363 -0.115606196
000210 7e e5 18 be 43 6f 83 3e 76 53 f5 3c 25 41 b4 3e
       -0.14931294 0.25670823 0.029947024 0.3520595
000220 5e 27 d9 3d 5b a8 8e 3e bc 66 23 bd 89 51 58 be
       0.10603212 0.2786282 -0.039892897 -0.21124853
000230 09 f6 88 3e 58 38 3d bd 9f 1a 31 be d5 ba 80 be
       0.2675021 -0.04619631 -0.17295311 -0.25142542
000240 74 07 30 3e 5b 5d 63 be 10 21 8e be 32 fa 84 3e
       0.17190343 -0.22203581 -0.277596 0.25972134
000250 41 46 27 be 94 a4 4f be ed 96 c4 3d fa ea 29 be
       -0.16335393 -0.20277625 0.09599099 -0.16593543
000260 bb 9a 85 3a b5 f7 2a 3e c0 b3 6f be de df 86 bd
       0.0010193208 0.16696055 -0.23408413 -0.06585668
000270 6e a6 54 3e 32 78 60 3e 5a df aa be ff 4f 9a be
       0.20766613 0.21920851 -0.3337353 -0.30139157
000280 20 b5 d3 3d 6d b1 d5 bd 4d 94 4c 3d 59 33 4b be
       0.10337281 -0.10434232 0.04994612 -0.19843806
000290 0d a5 a3 3e 61 f5 75 3e 46 bc 8a 3e 9d b2 84 3e
       0.3196186 0.24019386 0.27096766 0.2591752
0002a0 b5 b0 22 be 4d 9d b2 3e f7 60 ac 3e e9 76 9b be
       -0.15887721 0.34885636 0.33667728 -0.3036416
0002b0 34 93 45 3e 0b fd 30 3e 1a f0 1c 3c db 37 ae bd
       0.19294435 0.17284028 0.009578729 -0.08506747
0002c0 c5 43 3f be 13 61 63 3e 44 e9 87 be c0 33 7f 3e
       -0.18678196 0.22205 -0.26545155 0.24922085
0002d0 4f c0 9c be 48 06 9b 3d d3 ad a3 bd f9 38 a7 3d
       -0.3061547 0.075695574 -0.07992139 0.081651635
0002e0 50 58 3c 3e 20 59 aa 3e d4 0e 84 be cf bb e7 3d
       0.18393064 0.33271122 -0.25792563 0.113151185
0002f0 81 b7 5f be 79 d3 ad be 42 e4 ca 3d 28 66 99 3e
       -0.21847345 -0.33950403 0.09906818 0.29960752
000300 92 ae 9c bd cb 75 82 3e 1c a3 27 be d1 e0 9f 3b
       -0.07650484 0.25480494 -0.16370815 0.004879095
000310 4c 51 f4 bd 20 67 84 be 53 b5 69 3e 5e 87 92 3e
       -0.11929569 -0.25859928 0.22823076 0.28618902
000320 b1 72 03 3e d2 c9 28 3e 5a 06 78 be 4c 09 57 3e
       0.1283672 0.16483238 -0.24221173 0.2099964
000330 3c 6b 19 3d 4f bb 60 3e 2e 75 2b 3e fa ef 88 be
       0.037455782 0.21946453 0.16743919 -0.26745588
000340 4b 03 16 be 4c 69 47 3d 3a e1 81 3d 75 61 7d 3e
       -0.14649694 0.048684403 0.06341787 0.24744208
000350 09 fe 4a be a3 82 ad 3e dd 4b 6d 3e 43 da 2d be
       -0.19823469 0.3388873 0.23173471 -0.16977791
000360 31 26 68 3e b3 e9 bd 3d 93 54 0d be b8 6a 6f be
       0.22670819 0.0927309 -0.13801794 -0.23380554
000370 13 61 f1 3d 07 14 92 3d ee 78 6c 3e cb 36 c6 bd
       0.117860936 0.07132726 0.23093006 -0.0967842
000380 b7 c1 6d be b1 dc 41 3e ca c1 35 be a0 47 8d 3e
       -0.23218428 0.18931843 -0.17749706 0.27593708
000390 dd 28 9d be 7c d4 61 3e d1 87 4f 3e fe 32 7e 3b
       -0.3069524 0.22053713 0.20266654 0.0038787718
0003a0 23 a2 93 3e 41 29 05 bd a2 74 ff 3d a8 22 a6 3c
       0.28834638 -0.032510046 0.12473418 0.020280197
0003b0 d5 89 7b 3d 7f 34 59 be c9 87 2e 3e 86 de e8 3c
       0.061410744 -0.21211432 0.17043985 0.02842642
0003c0 be ab 0a be dc 4f 82 3d 71 b9 8f be
       -0.13542077 0.06362888 -0.28071168

lstm.weight_hh_l0 f4 [27, 9]
000000 2e e2 d5 bb 74 0f 27 be 36 ee 25 3e c4 fa 5c be
       -0.006527207 -0.16314489 0.16204152 -0.21580034
000010 72 4f 5e bd 05 83 95 bd e6 ab 11 3c 14 c5 87 3e
       -0.054274984 -0.073003806 0.008891081 0.26517546
000020 2c fd 8b bd 1b b8 87 be 98 4f a9 3e 5c 4f 76 bc
       -0.06835398 -0.2650765 0.33068538 -0.015033569
000030 51 da 3c be 17 68 85 be c7 95 03 3e e5 97 31 bd
       -0.18442656 -0.26055977 0.12850104 -0.04335775
000040 0a 90 93 3e 79 e0 23 3e 86 91 0e be 48 67 5e 3e
       0.2882083 0.16003598 -0.139227 0.21719086
000050 f0 7d 0e be 9a 3d 54 be 40 cb 9a be 35 a5 bc 3d
       -0.13915229 -0.20726624 -0.30233192 0.09211198
000060 7c e2 84 3e 7c 12 0c 3d 9d 50 44 3d 8a 34 98 3e
       0.25954044 0.034197316 0.04792844 0.29727584
000070 1a 34 c6 bd bc 72 3e be 72 27 32 be cf d8 db bd
       -0.09677906 -0.18598455 -0.1739786 -0.10734712
000080 46 1f c6 3e 3e bf 61 be 3a 08 7f be 8c ab 7a be
       0.38695735 -0.2204561 -0.24905482 -0.24479502
000090 5b 8c b8 3d 3f 93 8b 3e 96 9f 38 be 5b da 3c be
       0.09011146 0.27260777 -0.18029627 -0.18442671
0000a0 c1 46 ff bd c1 40 94 be 7a cc 9b be 09 f8 e2 3d
       -0.12464667 -0.28955653 -0.3042944 0.11082465
0000b0 90 d9 ea 3d b5 0f d2 3d 41 f6 96 3e cf aa b5 3e
       0.11467278 0.10256902 0.29484752 0.3548188
0000c0 31 89 33 bd d6 04 80 be 9a 31 63 be 96 c5 20 bd
       -0.043832008 -0.2500369 -0.2218689 -0.039250933
0000d0 8a 22 7d 3e ce 9a e0 bc 25 b6 81 be 3d ec 3a bd
       0.24720207 -0.027417567 -0.25334278 -0.04563545
0000e0 16 01 20 3e 0a a4 56 be 8f 11 40 be ac e6 37 3e
       0.15625414 -0.20961013 -0.18756698 0.17959088
0000f0 3c af 2d 3e 24 c9 85 3e 08 25 80 be f5 63 bf 3e
       0.16961378 0.2613002 -0.25028253 0.3738095
000100 7f 41 f8 bd 13 2b 9f 3e 1b 46 87 3e b8 c7 4a bd
       -0.121218674 0.3108755 0.26420674 -0.049506873
000110 62 d2 5c be 6f 7b 86 be 25 34 c7 bc b7 09 0f be
       -0.2156463 -0.26266047 -0.024316857 -0.1396855
000120 45 ce 2c be c4 80 3e be b6 04 29 bd 78 16 0c 3e
       -0.1687556 -0.18603808 -0.04126426 0.13680446
000130 83 54 8d 3d 0d 6c 06 3e 47 19 1c 3d f9 68 76 be
       0.06900885 0.13127156 0.038110044 -0.24063481
000140 65 56 29 3e 88 2d a5 3d ff cd 71 3e a0 54 2d 3e
       0.16536863 0.08065325 0.23613738 0.16926813
000150 5f 83 b6 3d b4 c9 9a bd 5c be a3 3e 9a 02 8e 3e
       0.08911776 -0.07558003 0.3198117 0.2773636
000160 8e bb 83 3e 62 5b 85 be 35 e0 53 3e ec 4b 01 be
       0.2572903 -0.26046282 0.20690997 -0.12626618
000170 06 89 3e be dc 04 2b 3e 3e df c0 bd c9 33 8f be
       -0.18606958 0.16701072 -0.0941758 -0.27969196
000180 00 75 e3 3c 2d fa 80 3d f0 d1 93 bb 18 ac 85 be
       0.02776575 0.06297717 -0.0045111105 -0.2610786
000190 02 63 02 3e c9 38 84 be ae aa 3e 3e c5 43 c4 bd
       0.12733081 -0.25824574 0.18619797 -0.095832385
0001a0 59 0d ab 3d 6f 54 03 3e 4b 1c 65 3e 13 c8 97 be
       0.08352155 0.12825178 0.22374074 -0.29644832
0001b0 46 7d 7c 3e 17 ad 90 be d9 70 75 3d c2 59 2e 3d
       0.24657163 -0.28257057 0.059922073 0.04256607
0001c0 be 72 28 bd 95 f4 a4 be a1 01 2c be 01 8a 9c be
       -0.04112505 -0.3221785 -0.16797496 -0.3057404
0001d0 17 d8 a3 be a4 8f 87 be 65 3d 0d be 14 07 d9 bd
       -0.320008 -0.26476777 -0.13792951 -0.10597053
0001e0 06 a6 06 3d 27 3e 02 3d 61 5b 5c be d0 05 d6 bd
       0.032873176 0.031797554 -0.21519233 -0.104503274
0001f0 e0 cc 7a be 6f a6 8f be da fe 54 be 1d 89 8b bc
       -0.24492216 -0.28056666 -0.20800343 -0.017033154
000200 65 d4 de bb 0f ef 78 bd 98 51 f1 3c 42 f4 a2 be
       -0.0068002217 -0.06077486 0.029457852 -0.3182698
000210 6d c4 a4 be a2 76 af be b4 04 e8 3d 99 ca bf bd
       -0.3218111 -0.34270197 0.11329022 -0.09364814
000220 11 13 44 3e 97 93 64 3e 0e ac 70 3d a2 d8 04 be
       0.19147898 0.22321926 0.058757834 -0.12973264
000230 8e 34 76 3e 8a e7 21 be 48 13 8d 3e ca d8 8d be
       0.24043486 -0.15810981 0.27553773 -0.2770446
000240 15 30 00 3e a8 08 65 3d b5 d6 5f 3e 76 7f 2f 3e
       0.12518342 0.05591646 0.21859248 0.17138466
000250 5b ab 7a be 55 aa d0 bd e3 86 35 3e 59 e7 31 be
       -0.2447943 -0.10188738 0.17727236 -0.17373408
000260 9f 89 04 3c 40 14 59 3d 1e c9 c2 bd 0e b1 2d 3d
       0.008089452 0.052997828 -0.09511016 0.04240518
000270 ea 29 8c 3e e5 c9 9c be d0 d7 64 be 6e 56 c7 3c
       0.27375728 -0.30622783 -0.22347951 0.024333205
000280 36 eb ad be 29 c4 72 be 7e 0a 03 bc 05 a1 54 bd
       -0.33968514 -0.23707642 -0.007998107 -0.051911373
000290 3d 4d ae 3e 30 d3 36 3e 50 9b 26 be ac c0 f9 bc
       0.34043303 0.17853999 -0.16270185 -0.03048738
0002a0 1c 58 42 3e 1a 75 8a be c3 4b 8a 3e bd 22 b6 be
       0.18978924 -0.27042466 0.27010927 -0.35573378
0002b0 79 57 44 be 85 ae b5 3d f0 be 0a 3e bf a1 a6 be
       -0.19173993 0.088711776 0.135494 -0.32545277
0002c0 76 07 b0 bc f4 bb fe 3d 74 d0 77 bd 8e 32 7e be
       -0.021487933 0.12438193 -0.06050153 -0.24823973
0002d0 e7 e4 66 bd ac 63 ee bc 04 91 9e 3e 94 12 42 be
       -0.056370642 -0.029100262 0.30970013 -0.189524
0002e0 70 fa 68 bd 22 79 7d 3e 13 c1 49 3e 48 25 16 bd
       -0.05687946 0.2475324 0.19702558 -0.036656648
0002f0 ac 3e c3 bc b8 bb 28 be 3c 10 81 3e 9e 0f b8 3e
       -0.023833595 -0.16477859 0.25207698 0.35949415
000300 56 d1 ce bd e2 f1 52 be fd 54 ae 3e ff 8d d9 bd
       -0.100985214 -0.20600083 0.34049216 -0.10622787
000310 a1 b5 a5 3e 5b 03 5a be 49 8b 16 be 64 b6 9a 3d
       0.32365134 -0.21290343 -0.1470157 0.075543195
000320 ee 57 ab be 94 71 93 be 93 72 c0 3e 10 20 94 3e
       -0.33465523 -0.2879759 0.37587413 0.28930712
000330 63 f3 b5 3d 9e 20 6d be 8b 10 a0 3e f4 62 89 3e
       0.08884313 -0.23156974 0.3126262 0.26833308
000340 b0 e0 b5 3d 71 64 0e 3e 5b 0b ad 3d 9f d4 4f be
       0.08880746 0.13905503 0.084494315 -0.20295952
000350 4d b1 d1 bd 37 27 45 be d8 71 88 3e 06 4e bf 3e
       -0.102388956 -0.1925324 0.26649356 0.37364215
000360 06 c7 ae 3e fb cb 82 be 60 a9 90 3e 53 ca 45 be
       0.34136218 -0.2554625 0.28254223 -0.19315462
000370 04 4b c6 3b a8 fe f9 bd ad d5 a6 3d ef 7c 4a be
       0.006051423 -0.12206775 0.08146224 -0.19774221
000380 a1 fb 53 3d 4a 28 b5 be 53 1c bb be bb f0 4e 3e
       0.051753644 -0.353823 -0.36545047 0.20209019
000390 a6 55 8d bd 74 46 af be dd a8 65 be 6a 3e fa bd
       -0.06901102 -0.3423344 -0.22427697 -0.12218936
0003a0 25 6d c5 3b f9 86 b7 3d 07 38 85 be 73 38 b4 be
       0.006024974 0.08961291 -0.26019308 -0.35199317
0003b0 0f a5 74 be 2f f1 b1 be d5 79 96 be 1f cf 64 3e
       -0.2389109 -0.3475432 -0.29389825 0.22344635
0003c0 69 c4 c3 bd f5 02 8d 3e c4 f4 85 3e
       -0.09558947 0.2754132 0.26163304

lstm.bias_ih_l0 f4 [27]
000000 da bf a7 be 54 f9 85 be 48 93 23 bc 30 1c 04 3e
       -0.3276356 -0.26166785 -0.009983845 0.12901378
000010 65 7b b7 3c 1c e6 29 be 2a 66 f7 3c 01 ae 44 bd
       0.022397706 -0.16591686 0.030200083 -0.048017506
000020 f9 f4 32 3e 76 84 26 be c5 51 62 bd 2f 96 ac 3e
       0.17476262 -0.16261467 -0.055253763 0.3370833
000030 8f e9 31 3e ff a1 7a 3c d8 68 00 bc 84 72 b0 be
       0.17374252 0.015297412 -0.007837497 -0.34462368
000040 19 bf 95 bb bb 57 77 be dd 05 0f be d4 4d 1a 3c
       -0.0045698998 -0.2415456 -0.1396708 0.00941797
000050 1a 1f 8f 3e d9 50 2e 3e 2b c6 5d 3e b2 c4 5a be
       0.27953416 0.17023028 0.21657626 -0.21364096
000060 95 c2 8f 3e 17 09 e6 bd da 8f 77 3e
       0.28078142 -0.112322025 0.24175969

lstm.bias_hh_l0 f4 [27]
000000 fa 83 8c 3d 5d fe 82 be da 40 ad be 23 3a 2c 3e
       0.0686111 -0.2558469 -0.3383854 0.16819052
000010 93 12 72 bd 39 a5 58 bd be 40 85 3e 95 4e de bd
       -0.059099745 -0.052891944 0.26025957 -0.10854832
000020 3f 7e 51 be 60 6d 98 bd 25 f8 a9 be 10 20 4d be
       -0.20458315 -0.074427366 -0.33197132 -0.20031762
000030 3b 86 66 3e 44 3c 93 bb 3f ae 7c be 1a df a0 3d
       0.22512142 -0.004493268 -0.24675845 0.07855053
000040 b3 43 59 bd a0 61 64 be 02 91 dd 3d 27 d6 9d 3e
       -0.05304308 -0.22302866 0.10818674 0.30827448
000050 1c 44 16 be ed 87 5f 3e 24 8b 80 3e 99 64 a0 3e
       -0.14674419 0.21829195 0.25106156 0.3132675
000060 38 db 89 bd 73 56 26 3e 7d 48 46 38
       -0.06731266 0.16243915 4.727439e-05

fc.1.weight f4 [128, 9]
000000 08 aa 97 3a 08 eb 61 bd bc 2e d6 bd 9a 41 6f be
       0.0011571059 -0.055155784 -0.104581326 -0.23364869
000010 b4 78 bc 3d 77 9b 87 be 6f 38 85 be d7 cf 36 3d
       0.0920271 -0.26485798 -0.26019618 0.044631805
000020 f1 88 8f 3e b8 f4 07 be 33 32 a6 be 05 b8 95 be
       0.28034166 -0.13276947 -0.32460174 -0.29241958
000030 07 04 1e be 61 c9 a0 3e 60 d6 90 be 57 be 5b 3e
       -0.15431224 0.3140364 -0.28288555 0.21459328
000040 b2 2f 50 3d c6 2a 9c bc 02 0c 6d 3e aa 05 38 be
       0.050826736 -0.019063365 0.23149112 -0.1797091
000050 e3 ac 73 3e 86 52 2a 3d b7 2b 58 3e 4d dd 2d bc
       0.2379642 0.041582607 0.21110426 -0.010611844
000060 75 b6 93 be 40 86 93 be 17 b1 cd bb 93 56 8b be
       -0.2885014 -0.28813362 -0.0062772143 -0.27214488
000070 ec d7 a9 3e 7d cf 14 bd 33 79 9c 3e 3f a4 54 bd
       0.33172548 -0.03633069 0.30561218 -0.05191445
000080 aa 61 91 3e ba 62 9d bc fb 32 9b 3e 59 d7 b7 3c
       0.28394824 -0.019212116 0.30312333 0.022441553
000090 ef ab 7d 3e f8 41 20 be ef c4 8a be 2c f0 9c 3e
       0.24772619 -0.15650165 -0.27103373 0.30651987
0000a0 db 15 1e be 31 58 9c 3e 74 1a 43 be ba 85 b8 3e
       -0.15438025 0.30536035 -0.1905306 0.36039525
0000b0 5b f2 a9 3d cc fc e4 bd bb 44 3d bd df 0b 9d 3d
       0.08298179 -0.1118103 -0.046208125 0.0766828
0000c0 92 81 ce bd 35 fe 5b bd a8 b1 cf bd fb 61 bd be
       -0.10083307 -0.053709228 -0.10141307 -0.36988816
0000d0 5a f6 81 3c 26 a1 96 bd af c7 0b 3d be ba 33 be
       0.01586454 -0.073549554 0.03412598 -0.17551705
0000e0 ef d8 01 3e 43 68 34 3e d5 40 de bd 7a 10 b7 3e
       0.1268041 0.17617898 -0.108522095 0.35754758
0000f0 5e c0 59 be fc 5a f3 3d 38 9b a3 3e b9 49 80 3d
       -0.21264789 0.11882588 0.3195436 0.062640615
000100 e2 68 d7 bb 2c fc 97 3c f0 2d a7 3c 71 10 41 3e
       -0.0065737823 0.018552862 0.020407647 0.18853928
000110 43 22 72 be f6 d5 d9 bd 35 fb 88 bd b8 d4 62 3e
       -0.23645882 -0.10636513 -0.06688539 0.22151458
000120 c8 2a 08 3e b0 8f d6 bd 28 0f d1 3d 3f 76 48 be
       0.1329757 -0.10476625 0.10207969 -0.19576357
000130 cb 7e 2b bd 3b c9 95 be 7f 66 42 3d 55 dc 90 be
       -0.041868966 -0.2925509 0.04746103 -0.282931
000140 e2 fc 01 bd fb 6e 14 be 24 f2 3b bd 8d fa 17 be
       -0.03173531 -0.1449546 -0.04588522 -0.14841671
000150 ce 83 ab 3e ff 54 11 3e e4 89 60 3c 31 06 9a be
       0.33498996 0.1419258 0.013704751 -0.3008285
000160 26 1f 65 3e 0a 6d 29 3d 0b ac 1c 3e 2c 1c 85 3e
       0.22375163 0.041363753 0.15300004 0.25998056
000170 da 6c b0 be b6 31 69 be dd 1b 72 3d d3 1d c4 bd
       -0.34458047 -0.2277287 0.059108604 -0.09576001
000180 40 28 1e bd 62 e2 44 3e 45 43 0d bd 62 e1 fc bd
       -0.038612604 0.19226983 -0.03448798 -0.12347676
000190 60 d4 a4 3e a8 bc 8f 3d eb cf c0 be ad 94 74 3e
       0.3219328 0.07018405 -0.3765863 0.2388484
0001a0 87 42 c7 bd c6 ad 3f bd 2e 89 8b 3e f5 58 04 be
       -0.09729486 -0.046796583 0.27253097 -0.1292456
0001b0 0b ed 9c 3e 23 22 88 bd 07 55 85 3a 77 fc 80 be
       0.306496 -0.06647136 0.0010172435 -0.25192615
0001c0 f8 0b f1 bd d8 8c f1 bd e8 db 46 be 64 9b 08 be
       -0.11769861 -0.11794442 -0.19419825 -0.13340527
0001d0 a7 52 d4 ba e4 f5 70 be ad a2 81 3e ac 31 6d be
       -0.0016198949 -0.235313 0.25319424 -0.2316348
0001e0 00 6f 00 3c aa 30 8c 3d 4c c1 a0 3e b6 70 96 bd
       0.007838964 0.068452194 0.31397474 -0.07345717
0001f0 1e a2 5c be d1 2b ac 3e 29 ec 4f bd a9 02 43 be
       -0.21546218 0.3362718 -0.05076233 -0.19043984
000200 c3 40 e5 bd 7a 03 6a 3e c5 43 44 3e 4a e0 07 be
       -0.11193993 0.22852889 0.19166477 -0.13269153
000210 92 53 97 be cc 42 50 3e d2 7b 96 3e 25 b0 74 3c
       -0.29555947 0.20337981 0.29391342 0.014934574
000220 2a 5c 96 be 6d 2f b6 3e 8f 72 f2 bd 89 42 74 3e
       -0.2936719 0.35583058 -0.118382566 0.23853506
000230 2f cb a5 be 3c 95 aa bd 4d b8 a0 3e 9e 58 d6 bd
       -0.3238158 -0.083292454 0.3139061 -0.10466121
000240 d5 ae 8e be 37 e4 85 be 22 2f d1 3a 63 89 65 3d
       -0.2786776 -0.26150677 0.0015959481 0.056039225
000250 2d 68 f2 3d 50 02 4a 3d 9d bc a0 be 7c 0d 23 3b
       0.11836276 0.04931861 -0.313939 0.0024879863
000260 79 24 c1 3d db 7e f1 3d 31 ae a6 bd 60 a6 b7 bd
       0.09430785 0.11791774 -0.08138693 -0.089672804
000270 c6 ed 8d be b2 7f 9d 3e be 42 79 be 11 dd b3 3d
       -0.2772047 0.30761486 -0.24341866 0.087823994
000280 5b 3c 8c bd 31 c6 37 3e 96 d5 d5 3d db 67 91 be
       -0.068474494 0.17946698 0.10441129 -0.28399548
000290 16 b7 84 be fa aa 3f 3c 38 38 69 3e 20 60 39 be
       -0.25920933 0.011698479 0.22775352 -0.18103075
0002a0 e8 e8 cd bc 9a 96 41 be 28 56 79 be b3 60 a4 3e
       -0.025135472 -0.18905106 -0.24349272 0.32105026
0002b0 c6 cf 10 be 08 b0 83 3e 42 33 e5 3b 66 05 3f be
       -0.1414176 0.2572024 0.006994636 -0.18654403
0002c0 31 19 9a be 15 b5 66 3d 96 dc 30 3e 25 a5 05 be
       -0.30097345 0.056325037 0.17271647 -0.13051279
0002d0 1f cb 7d 3d 7e d5 21 3c 5d 38 89 3e 06 fb 89 3e
       0.06196129 0.009877561 0.26800814 0.26949328
0002e0 09 8c 54 3d b2 9d 64 bd 42 79 84 3e 88 40 cf bd
       0.05189136 -0.055814452 0.25873762 -0.1011973
0002f0 5f 5e 7c 3d 12 ef 9a be ed 16 81 3d 3f 26 f4 3d
       0.061613437 -0.3026052 0.06303201 0.11921357
000300 12 14 55 3e 7f bf b4 bd 03 d4 0a 3e f6 72 67 be
       0.20808437 -0.088255875 0.13557439 -0.22602448
000310 78 79 82 bd 05 85 11 3e 81 85 4f be 31 d3 57 be
       -0.063708246 0.14210899 -0.20265771 -0.21076657
000320 22 f4 5f 3b 6b 44 8f 3e fe 57 47 3e 46 f4 a5 be
       0.0034172614 0.27981886 0.1946716 -0.32412928
000330 ef d0 07 be df 7b 37 bc 94 2f e1 3c 03 50 ff 3c
       -0.13263296 -0.011198967 0.027488507 0.031166082
000340 eb 61 e6 3d 02 1c f0 bd c2 c0 23 3e 9a 7b 80 3e
       0.11249145 -0.11724092 0.159915 0.250943
000350 b5 d8 85 bd af fb b6 be df dc 8c be ba fb 1e 3e
       -0.06535474 -0.35738894 -0.2751226 0.15525714
000360 79 92 b8 3d 70 e9 8d 3d f9 02 b5 be 17 eb 97 3d
       0.090123124 0.0692929 -0.3535383 0.07417887
000370 86 e7 52 be 56 b0 6f be 0a a4 5a 3e e1 66 80 be
       -0.20596132 -0.2340711 0.21351638 -0.2507849
000380 b2 87 0c be ba 55 21 3e 43 aa 74 3e bc 20 96 3e
       -0.13723639 0.15755358 0.23893075 0.2932185
000390 25 46 c6 bd 10 57 9a 3e e5 c3 ef bd 3b ae 26 3e
       -0.09681348 0.30144548 -0.11707286 0.16277401
0003a0 eb b5 64 3d e7 2a 3b bd 32 1a 1a 3e f8 c9 a0 be
       0.055837553 -0.04569521 0.15049055 -0.3140409
0003b0 d1 a0 cb bd 90 bd a2 3e 66 d5 41 3e d0 0f da 3d
       -0.09942783 0.3178525 0.18929061 0.10647547
0003c0 a2 37 17 3e 95 97 7f be 47 26 ea bd 7a 40 1c be
       0.14767316 -0.24960168 -0.11433082 -0.15258971
0003d0 86 5e 7a bd 0a 66 af 3e 97 02 b1 3c b2 84 38 be
       -0.0611253 0.34257537 0.02160768 -0.18019369
0003e0 62 17 a0 3e 21 17 00 be 7e e3 91 be da 82 93 3e
       0.3126784 -0.12508823 -0.28493875 0.2881077
0003f0 31 ef bd 3d c8 74 36 be be a2 97 be 9e 00 69 3d
       0.09274138 -0.17817986 -0.2961635 0.056885354

fc.1.bias f4 [128]
000000 e7 5b 88 3c aa 73 55 be 95 bf 86 bd 08 2d 37 3e
       0.016645385 -0.20844904 -0.0657951 0.17888272
000010 a6 01 61 3e d0 ea ab 3e a1 55 af 3e 1c 6b 83 bd
       0.21973285 0.33577585 0.34245017 -0.06416914
000020 a8 81 b5 3d 73 64 f2 bd 3d 1a 3a 3c 4e e3 de 3c
       0.088626206 -0.118355654 0.011358795 0.027207997
000030 5c 48 9b bc 77 92 72 be 53 dd 53 be 83 a0 8a be
       -0.018955402 -0.23688684 -0.20689897 -0.27075586
000040 8b d2 1b be 2a 9d 86 3e 03 72 9a bd 99 ff 85 3d
       -0.15217035 0.26291782 -0.07541277 0.06542892
000050 cf ad 93 3e 21 64 b9 bd 34 42 ab bd 14 e7 2b be
       0.28843543 -0.09052301 -0.083622366 -0.16787368
000060 98 d2 11 be e5 86 34 3e 90 fb 09 3e 43 aa 8b 3e
       -0.14240491 0.17629583 0.1347487 0.27278337
000070 de 50 a3 3d cc 68 1d 3e 06 1f a9 3e ec 38 55 be
       0.079744086 0.15372008 0.33031482 -0.20822495
000080 f7 f3 9b be dc fe 8a 3e ea 7e 82 3e 12 8c 8e 3e
       -0.30459568 0.27147567 0.25487453 0.2784124
000090 ca 68 37 be dc d3 31 bd 09 a3 2e be 7e d8 9f 3e
       -0.17911068 -0.043414935 -0.1705438 0.31219858
0000a0 82 d4 88 3e 30 e5 ab 3e ca e6 0c 3b 59 15 5b bd
       0.2672463 0.33573294 0.0021499866 -0.053487156
0000b0 70 1b 88 3e 51 16 5b be d1 8b 9a be 65 5a 47 3d
       0.26583433 -0.21395232 -0.30184796 0.04867019
0000c0 50 bc ec 3d 91 47 cd 3d dd 73 cd 3d cd 74 39 be
       0.11559355 0.10023416 0.10031865 -0.18110962
0000d0 26 dd 4f 3e b9 6d 1b 3e 90 3b 92 be 72 67 da 3d
       0.20299205 0.15178575 -0.28561068 0.10664262
0000e0 14 6c 0b 3e 1d ca 00 3e 6b 37 df bd ef b9 42 3e
       0.13615447 0.125771 -0.10899242 0.1901624
0000f0 a5 5d 8e 3d a0 b1 ce bd 4e 88 d0 bd 76 40 5a be
       0.06951455 -0.10092473 -0.10182248 -0.21313652
000100 50 29 ab be dc 38 a1 be 9c 2f 3a bc 4b 9b 71 3e
       -0.33429956 -0.31488693 -0.01136389 0.23594396
000110 d1 66 52 3e e6 48 b0 be ba b8 4b 3e 51 ca 71 bc
       0.20547034 -0.34430617 0.19894686 -0.014757709
000120 50 e6 69 3e b9 71 95 be 57 ff 62 bd fb 54 3b bd
       0.22841763 -0.29188326 -0.055419292 -0.04573534
000130 ad 46 86 be 85 31 87 3e 09 bc 49 3c ad 7f 93 bc
       -0.26225796 0.26404968 0.0123128975 -0.018005216
000140 e4 1c 1c 3e ce 9d 44 bd 3a ec 76 3e 0d e3 8c bd
       0.15245396 -0.048002057 0.24113551 -0.06879244
000150 93 4d 2b be c2 c7 61 bb 74 e5 23 3e d6 c7 83 be
       -0.16728811 -0.003445134 0.16005498 -0.257384
000160 61 29 49 3e ba dc 05 bd b7 91 db bd c3 32 dd 3d
       0.19644691 -0.032681204 -0.10721152 0.10800698
000170 2b 8d d8 bd a1 d5 30 3e 96 07 a1 bd df 70 98 3e
       -0.10573801 0.17268993 -0.07862775 0.29773614
000180 4b 35 8f 3e b3 4b 8d be ef 6d 6f 3c 7f ff 5e 3e
       0.27970347 -0.27596816 0.014613613 0.21777152
000190 c8 66 86 be 0c b4 77 3d 5d b7 63 be 08 3b b2 3e
       -0.2625029 0.06047444 -0.22237916 0.34810662
0001a0 95 45 aa be d9 b4 37 3d 98 ba 92 3e f9 d7 ac 3e
       -0.33256212 0.044850204 0.28657985 0.33758524
0001b0 8a bc 61 3e fa 3d a4 3e 3d e3 6f be 90 d1 f6 3d
       0.22044578 0.32078534 -0.23426528 0.120516896
0001c0 9f 31 64 bd 26 c4 14 3d 92 08 ae 3d 4b 94 95 3e
       -0.055711385 0.036319874 0.084977284 0.292147
0001d0 92 a7 03 3e 7e de 9e be fb fd 5c be be 24 91 3e
       0.12856892 -0.31029123 -0.21581261 0.28348345
0001e0 e8 d8 80 be 3f 30 be 3d 44 c3 8c be f5 5a 43 3e
       -0.25165486 0.09286546 -0.27492726 0.19077666
0001f0 80 07 00 3e 7d 43 5d 3e fe 2b 33 3e c3 26 f7 bd
       0.12502861 0.21607776 0.1749725 -0.1206794

fc.3.weight f4 [3, 128]
000000 d1 99 d5 bc e7 17 e9 3d ae 67 c0 bc 1f 58 e1 bd
       -0.026074322 0.11381512 -0.023486938 -0.11003136
000010 96 12 10 bb e7 76 0b 3d 91 8f e4 bd 12 d0 35 bc
       -0.0021983734 0.03404894 -0.111601956 -0.011096971
000020 d0 70 bd 3d 8f 67 f2 bd 64 de 9d 3c 16 42 64 3c
       0.09250033 -0.118361585 0.019271083 0.013931772
000030 d6 ab be 3d 40 53 7d bd 7c 94 56 bc 04 2e 8e 3d
       0.09310119 -0.06184697 -0.013096925 0.069423705
000040 2e e0 32 bd b6 81 05 3d 6a 17 c9 3d b1 6a f2 3c
       -0.043670826 0.032594405 0.09818919 0.02959189
000050 c4 c8 dd bb b5 f7 3c bd 4a de 0e 3d 4a 02 62 bd
       -0.006768318 -0.04613467 0.03487996 -0.055177964
000060 67 a1 02 bd 02 b4 29 3d b5 5d b8 3c ca 9f 44 bc
       -0.031892207 0.041431434 0.02250562 -0.012000987
000070 86 0c a7 3c 19 e2 f8 3d f3 0b 5c 3c e4 f3 16 3c
       0.020391714 0.121525 0.013430583 0.0092134215
000080 51 7e 5e bd bf 7c bd bd f3 1c 42 bd 50 49 2f bc
       -0.054319683 -0.09252309 -0.04739089 -0.010698631
000090 06 60 3b 3c 94 69 2f bd 09 a9 93 3c bd 26 56 bd
       0.011436468 -0.042825297 0.018024938 -0.052283037
0000a0 92 40 61 3d 21 fb 6a ba 29 62 86 bd 47 e8 43 3d
       0.05499322 -0.0008963813 -0.06561691 0.04782894
0000b0 34 6a 43 3d 98 6f 74 3c 68 d4 17 3d 05 b2 10 3d
       0.047708705 0.014919184 0.0370678 0.035326023
0000c0 c2 e5 be 3c 3c fe 54 3c 86 53 fd 3d 48 bb 40 bd
       0.023302916 0.013000067 0.123694465 -0.047053605
0000d0 74 76 03 3d 85 4a 0f 3d 67 18 02 ba d3 94 89 bd
       0.032095388 0.034983177 -0.00049627427 -0.06717839
0000e0 77 76 aa 3d 12 b2 df 3c b2 c4 42 bd f0 1f 1c bb
       0.083233766 0.02730659 -0.047550865 -0.0023822747
0000f0 48 ee ce 3c bb 4e 16 3d 5b 6e 4d 3d ed 23 f1 3d
       0.025260106 0.036696177 0.05015407 0.117744304
000100 4e 95 45 3d 50 86 d3 3c 15 54 c0 bd 29 76 8a bd
       0.04823809 0.025820881 -0.093910374 -0.067608185
000110 46 1b 53 3d 84 fb ab 3d c7 5c cc bd f7 0f d6 3d
       0.05153968 0.08397582 -0.099786334 0.10452264
000120 6b 46 5c 3d c1 d9 26 bd e6 91 d9 bc 75 12 d0 3d
       0.053778093 -0.04073501 -0.026558828 0.101597704
000130 8a f3 f9 bd 9f 1b 5d 3d 4d ca 63 3d 0d 15 99 bd
       -0.122046545 0.05398142 0.05561285 -0.07474718
000140 52 60 4e bd 1c 9b cd bd c0 8b 46 bd 0b e2 8f 3d
       -0.050384827 -0.100393504 -0.04847312 0.07025536
000150 39 ba 40 bc a3 be 88 bd 70 48 da 3a 65 eb a0 3d
       -0.011763149 -0.06676986 0.0016653668 0.07857398
000160 e1 15 f3 3c e4 46 28 3d 0a a5 6c 3d 06 3a c2 3c
       0.029673519 0.04108323 0.05777458 0.023709308
000170 a2 9d 3a bd 93 02 a8 bd f9 d2 2e 3d 19 fc 7e 3d
       -0.045560487 -0.08203616 0.042681668 0.062252138
000180 d8 2c ab bd 3b 73 19 3d 2f f2 24 3b 47 82 ad 3c
       -0.08358163 0.037463408 0.0025168767 0.021180285
000190 64 c0 f6 bc 92 e7 cc 3d c4 43 17 bd a8 ca 2c 3d
       -0.030121036 0.10005106 -0.03692986 0.042185456
0001a0 33 92 b1 3d 21 3e 1a 3c 7c da bf bc ce 08 84 bd
       0.086704634 0.009414227 -0.023419611 -0.06446992
0001b0 21 dd 65 3d 94 73 d9 bd f4 5b d2 3c 6c e6 ae bd
       0.056119088 -0.10617748 0.025678612 -0.08540043
0001c0 79 ee 50 3d c4 59 cf 3c 7c 76 4d bc 18 83 16 bd
       0.051008675 0.025311358 -0.012540456 -0.036746114
0001d0 4b 8a 48 3d 61 4e 2c bd bc 48 a8 3c 30 55 02 3d
       0.04896001 -0.042066935 0.020542495 0.031819522
0001e0 cd 7c 74 3d cb c9 d1 bd 49 e3 15 3d ed dd 9b bc
       0.05968933 -0.10243567 0.03659371 -0.01902672
0001f0 37 19 0b 3d 3b cb d7 bd 93 02 51 3d 66 71 44 bd
       0.033959594 -0.1053681 0.051027846 -0.047959708
000200 cd 3e e8 3b 31 4c c8 bd b0 b2 46 bd c2 67 93 3d
       0.0070875646 -0.09780157 -0.048510253 0.071975246
000210 b4 b3 42 3a dd 39 cc bd 0b de ff 3d 25 da dd 3c
       0.00074272905 -0.09971974 0.12493523 0.027081558
000220 9f 75 25 bd 49 08 bb bd 5c b1 d6 bd f1 9b d9 bd
       -0.040395375 -0.0913244 -0.10483047 -0.106254466
000230 e3 c5 ae bd 8b b4 0a 3d 27 ec 67 bb ef 6b 64 3d
       -0.08533838 0.033863585 -0.003538856 0.055766996
000240 aa 4e d2 bd 29 1d 35 bb 22 b0 f3 3c e8 00 87 bc
       -0.1026891 -0.002763579 0.029747073 -0.016479924
000250 94 be 04 3e 87 de 0a 3b e9 0c 29 3d d3 30 46 bd
       0.12963325 0.0021189766 0.041272078 -0.048386406
000260 d4 aa bb bd d6 14 4c 3d 34 e9 83 3d e6 d9 e4 3d
       -0.09163442 0.04982456 0.06440964 0.11174373
000270 42 74 8a bc 38 52 c9 bd 4e fd d3 bd 2a 18 9c bc
       -0.01690114 -0.09830135 -0.103510484 -0.019054491
000280 6e 90 f6 3c 37 f5 c2 3d 20 cc 77 3c 58 cc bb 3c
       0.030098166 0.09519427 0.015124351 0.022924587
000290 a2 1e d0 ba ad c0 b6 3d 9d 97 a8 bb a5 f5 2b bd
       -0.001587827 0.08923469 -0.005145027 -0.04198231
0002a0 69 1b 96 bc 0a f6 ac 3c 48 e9 87 3d e1 e5 a0 3d
       -0.018323617 0.021113414 0.06636292 0.07856346
0002b0 c8 ee 32 3d 1d b0 c8 bd 1b 1c e5 bb 41 94 09 bd
       0.04368475 -0.09799216 -0.006991876 -0.03358865
0002c0 47 52 8e 3d 13 b6 fe 3b 33 0d 0a be 0e 8c a4 3c
       0.06949287 0.00777317 -0.13481598 0.020086315
0002d0 4b 64 b3 3d 8d 0d 81 3d 3b 29 75 bd f5 2c 5c 3d
       0.08759364 0.06301413 -0.059853774 0.053753812
0002e0 6e a0 58 3d 76 3f 36 bc b6 d8 40 bd bd 66 c2 bd
       0.052887373 -0.011123529 -0.04708167 -0.09492252
0002f0 32 fa de bc 6e 61 d1 bd ba ba dd 3d 3f b3 4b bd
       -0.027218912 -0.10223661 0.10826631 -0.04973149
000300 28 c3 c6 bd 03 8e 41 bc d8 b8 e6 3d f9 39 0c 3d
       -0.09705192 -0.011813643 0.11265725 0.034234975
000310 14 89 e8 3b aa ef 27 bc 77 69 be 3d 99 db 00 bd
       0.007096419 -0.010250011 0.092974596 -0.031459425
000320 0c 40 47 3d 5d a2 a9 3c d6 fd 4f bd df 0b 9e bc
       0.048645064 0.020707304 -0.050779186 -0.01929277
000330 77 d1 2f bd e1 e4 75 bd 78 1c 8a bd ce 04 d1 bd
       -0.04292437 -0.06003273 -0.06743711 -0.102059945
000340 19 84 9e bc bf a2 45 3d a3 19 cb bb 08 f0 e2 bc
       -0.019350098 0.04825091 -0.0061981245 -0.027702346
000350 45 92 1b 3b bb 66 7b bd 8b be 95 ba a8 97 65 bc
       0.0023738306 -0.06137727 -0.0011424584 -0.014013208
000360 35 02 8f 3d 7a 97 1a bd fa 12 50 3d fc dc 9b bc
       0.06982843 -0.037742116 0.050799347 -0.019026272
000370 b0 46 02 3c 7f 59 8b 3b 71 90 09 bd 64 b7 96 3d
       0.0079514235 0.004252612 -0.033585016 0.07359198
000380 3a c6 b3 bc 06 22 fd bc 4b e6 c1 3d 93 64 6e 3d
       -0.021945108 -0.030900013 0.09467753 0.058201384
000390 6e bd 82 3d a2 ad 97 3c fe 56 dc 3d df 33 0b 3d
       0.06383787 0.018515412 0.1075878 0.033985015
0003a0 0e 42 71 bd f2 8e 95 3c e0 f9 fc bd 4f ed e0 bd
       -0.058900885 0.018256638 -0.123523474 -0.10982763
0003b0 8f 60 b3 bd 90 92 bd bd 5a 88 93 3d 1b 88 3e bd
       -0.087586515 -0.0925647 0.07203741 -0.04651652
0003c0 16 72 34 bc 86 84 c6 3c ac 80 09 3d 37 0b 08 3e
       -0.011013528 0.024233114 0.033569977 0.13285528
0003d0 cc 62 13 3d 58 de c2 3d 5d 40 6f 3d 50 16 f6 bc
       0.035982892 0.09515065 0.05841099 -0.030039936
0003e0 ac 48 27 bd 83 06 13 bb e9 ba 49 bd 5c be 2c 3d
       -0.04084079 -0.0022434301 -0.049250517 0.04217373
0003f0 80 17 41 3c f9 07 46 bd 16 ae 1e bd 67 b9 d3 3b
       0.011785388 -0.048347447 -0.03874024 0.0064613107

fc.3.bias f4 [3]
000000 92 26 a7 3c d8 1b c7 bd 70 44 9c 3d
       0.020404134 -0.09722108 0.07630241
