DataProcessing/lr_xyz.onnx (onnx, 10704 bytes, 7 tensors)

fc.1.weight f4 [128, 9]
0	0xbc26f1d1	-0.010189489
1	0xbe8eea2c	-0.27913034
2	0x3de8efea	0.11373885
3	0xbe1a9fbb	-0.15099995
4	0x3e0685a0	0.13136911
5	0x3e9bc1a1	0.30421165
6	0xbcf8653d	-0.030321712
7	0xbe989104	-0.29798138
8	0x3dff16a2	0.12455489
9	0xbe61e503	-0.22060017
10	0x3e8d17f4	0.27557337
11	0x3db62fec	0.08895859
12	0x3ea3ef3e	0.32018465
13	0xbe868a08	-0.26277184
14	0xbe6b2dbb	-0.22966664
15	0xbe85641b	-0.26052937
16	0x3e286298	0.1644386
17	0xbd0a3d16	-0.033749662
18	0x3e534a0c	0.20633715
19	0xbead1a08	-0.33808923
20	0x3e1de1e3	0.154182
21	0xbde9874f	-0.11402761
22	0x3dfe32ea	0.12412055
23	0x3dce193e	0.10063408
24	0x3deb001b	0.114746295
25	0xbe3bbe0c	-0.18334216
26	0xbe67b33d	-0.22626968
27	0xbc729b0f	-0.014807477
28	0x3cf97c19	0.030454682
29	0xbe406acd	-0.18790741
30	0xbe69bec8	-0.22826684
31	0x3e5cdb86	0.21568117
32	0x3eb0434a	0.34426337
33	0x3e91fb09	0.28511837
34	0xbe8b31dc	-0.27186477
35	0x3e974ef8	0.29552436
36	0xbe81aa38	-0.2532518
37	0xbe8d61b8	-0.27613616
38	0x3e5b254d	0.21400948
39	0x3e897410	0.2684636
40	0xbd2fd042	-0.04292322
41	0x3bdf8e92	0.0068224156
42	0xbdb42ba8	-0.08797389
43	0xbcd5f7f3	-0.026119208
44	0x3dcf9300	0.1013546
45	0xbdf295ca	-0.11844976
46	0x3d0ac7e9	0.033882055
47	0xbd839265	-0.06424407
48	0xbe17c216	-0.14820132
49	0x3db291f9	0.08719248
50	0x3ea482a8	0.32130933
51	0xbe34b7eb	-0.17648284
52	0x3e89fd74	0.26951182
53	0x3d7dc8fe	0.06195926
54	0xbe8e010c	-0.27735174
55	0x3d9e43e7	0.07727795
56	0xbe5e2350	-0.21693158
57	0xbe175696	-0.14779124
58	0x3e2e3886	0.1701375
59	0x3b8cf9ae	0.004302225
60	0xbc953211	-0.01821235
61	0x3dba49a6	0.090960786
62	0xbeac0bbc	-0.33602703
63	0x3e444791	0.19167925
64	0x3dfd32d3	0.123632096
65	0xbeaba44c	-0.33523786
66	0x3e8c996d	0.27460805
67	0xbd9dc135	-0.07702867
68	0x3dee65d1	0.11640514
69	0x3cd1a540	0.025591493
70	0xbc826b10	-0.015920192
71	0xbd2e8ded	-0.04261582
72	0x3e10222c	0.14075536
73	0x3ec5745a	0.38565332
74	0x3e3fb778	0.18722332
75	0x3e1d76a8	0.15377295
76	0x3e6d639e	0.23182532
77	0x3d56518a	0.052323855
78	0xbe51df54	-0.20495349
79	0x3e7a4451	0.24440123
80	0xbe227db0	-0.15868258
81	0x3c61fdde	0.013793437
82	0x3d7da485	0.061924476
83	0x3dd5f55b	0.104471885
84	0x3d53b0b5	0.051682193
85	0x3de281e6	0.110599324
86	0x3eaf2b04	0.34212506
87	0x3df72e70	0.12069404
88	0xbd87f1b9	-0.06637902
89	0xbe08ed35	-0.13371737
90	0xbd9a71d5	-0.07541243
91	0xbb832398	-0.004002046
92	0xbe37ea67	-0.17960511
93	0xbd882c38	-0.06649059
94	0x3d16e5f3	0.03684039
95	0x3df885ee	0.1213492
96	0xbe4b8cee	-0.19877979
97	0x3da506fb	0.08057972
98	0x3e358303	0.17725758
99	0x3e0d8646	0.13820753
100	0xbe6f395b	-0.23361723
101	0xbdf39aaa	-0.11894734
102	0xbe2b8cc6	-0.1675292
103	0x3df74a4e	0.12074719
104	0x3cab3315	0.020898381
105	0x3e8aca2d	0.27107373
106	0x3e6397a0	0.22225809
107	0xbe61795c	-0.22018951
108	0xbe8109f4	-0.25202906
109	0xbd643fd9	-0.055724952
110	0xbde0c4f3	-0.10975065
111	0xbeabacaf	-0.33530185
112	0xbe330a13	-0.17484312
113	0x3dd43fd4	0.10363737
114	0x3e621246	0.22077283
115	0x3e87f525	0.26554218
116	0x3dcc055f	0.09961962
117	0x3e352351	0.17689253
118	0x3deb8041	0.11499072
119	0xbab11040	-0.0013508871
120	0x3e4dfeae	0.20116684
121	0xbd5dac39	-0.054119322
122	0x3ddc616c	0.10760769
123	0x3e48f0ec	0.19623154
124	0x3e2866d0	0.1644547
125	0xbe0c558e	-0.13704512
126	0x3eac98b6	0.3371026
127	0x3da68b61	0.08132053
128	0xbd6c2f0e	-0.057662062
129	0xbe81932b	-0.25307593
130	0xbea3855b	-0.3193768
131	0x3e7071d3	0.2348092
132	0xbe1adf18	-0.15124166
133	0xbe884cca	-0.26621085
134	0x3e9369dc	0.28791702
135	0xbe76a3e1	-0.24085952
136	0x3d21d323	0.039507996
137	0x3d4b5521	0.049641732
138	0xbe9e2add	-0.30892077
139	0x3ea597c5	0.32342353
140	0x3eb326bf	0.34990498
141	0x3e175fe1	0.14782669
142	0xbdeb6b2a	-0.11495049
143	0xbe828ce2	-0.2549811
144	0x3e996064	0.29956353
145	0xbeb55f53	-0.3542429
146	0xbe7f3827	-0.24923764
147	0x3ce810cd	0.028328324
148	0xbe85cb5c	-0.26131713
149	0x3e23c811	0.15994288
150	0xbe687d1f	-0.2270398
151	0xbd26c6ee	-0.040717058
152	0x3d88afc3	0.06674149
153	0xbea67a90	-0.32515383
154	0xbe86b52a	-0.26310092
155	0x3e124e93	0.14287786
156	0x3e78cdfb	0.24297325
157	0xbdb67de3	-0.0891073
158	0xbbaf1a1c	-0.0053436887
159	0x3e9dfcf5	0.30857053
160	0x3dd1893e	0.10231255
161	0xbdefaebf	-0.11703252
162	0x3ce60217	0.028077168
163	0xbe55cce8	-0.20878947
164	0xbdb18833	-0.08668556
165	0xbeab5f13	-0.33470973
166	0xbe4fbc6d	-0.20286722
167	0x3e81d188	0.25355172
168	0x3ea63037	0.3245866
169	0xbd809761	-0.06278873
170	0x3e63e661	0.22255851
171	0x3e199d16	0.1500133
172	0xbd6eb37a	-0.05827663
173	0x3e7e9b8a	0.24864021
174	0x3e38f3ca	0.18061748
175	0x3ea339da	0.31880075
176	0xbe954daa	-0.29160815
177	0xbe60c982	-0.21951869
178	0x3e60030f	0.21876167
179	0xbe96c8ff	-0.29450223
180	0xbdc55f4d	-0.09637318
181	0xbccf34a9	-0.025293665
182	0xbe128700	-0.14309311
183	0xbe76cef3	-0.24102382
184	0x3c99b4bf	0.018762944
185	0xbd54806b	-0.05188028
186	0x3d43ab58	0.047770828
187	0xbe3edde2	-0.18639329
188	0xbdc6c02f	-0.09704625
189	0x3e5567e7	0.20840417
190	0xbd83a172	-0.064272776
191	0xbe7f642f	-0.24940561
192	0x3e2ee90f	0.17081092
193	0x3d9ab808	0.075546324
194	0xbe54125d	-0.2071013
195	0x3d56a8e4	0.05240716
196	0xbe776470	-0.24159408
197	0xbe44643b	-0.1917886
198	0x3e89f0dc	0.26941574
199	0xbe305783	-0.17220883
200	0xbe2d0154	-0.16895038
201	0xbe9156e2	-0.283866
202	0xbe847599	-0.2587097
203	0x3d983133	0.07431259
204	0x3e5c3ac6	0.21506795
205	0xbe3a961b	-0.18221323
206	0xbdfb4d64	-0.122706205
207	0x3cbe4db0	0.023230404
208	0x3d8fdd54	0.07024637
209	0xbc2e238f	-0.010628595
210	0xbe129ccb	-0.14317624
211	0xbdaa22fc	-0.08307454
212	0x3d570b96	0.052501284
213	0x3d0a64cf	0.033787545
214	0x3e45db08	0.19321835
215	0xbd8f31bb	-0.06991907
216	0x3d466de8	0.04844466
217	0x3d993bc1	0.074821
218	0xbe541968	-0.20712817
219	0xbe627e3a	-0.22118464
220	0xbddbc921	-0.10731722
221	0x3e0d5489	0.13801779
222	0x3e03e13b	0.12878887
223	0x3e2dcefa	0.16973487
224	0x3e1d7e1a	0.15380135
225	0x3e71f269	0.23627628
226	0xbe6490b1	-0.2232082
227	0xbe1ac147	-0.15112792
228	0xbe9243b9	-0.28567293
229	0xbcccb310	-0.024987727
230	0x3ea6d0f8	0.32581306
231	0xbea961d6	-0.33082455
232	0xbe8c4aa1	-0.27400687
233	0xbe52304f	-0.20526241
234	0x3d005457	0.031330433
235	0xbea9fcae	-0.33200592
236	0xbca6254d	-0.020281458
237	0x3e9b5838	0.30340743
238	0x3befe0b5	0.0073204883
239	0x3d958bc1	0.073020466
240	0xbe1227d5	-0.14273007
241	0xbd10a08b	-0.035309356
242	0xbdbb4404	-0.09143832
243	0xbe8fc133	-0.28077087
244	0xbdc061e4	-0.09393671
245	0xbe23360b	-0.15938585
246	0xbe986977	-0.29767963
247	0xbdec73e4	-0.11545542
248	0x3e2095da	0.15682164
249	0x3eb87535	0.36026922
250	0x3e10cc52	0.14140442
251	0xbd28e866	-0.041237257
252	0x3e2bc9dc	0.16776222
253	0x3e50d4bf	0.20393656
254	0x3e2df278	0.16987026
255	0x3e538f9c	0.20660251

fc.1.bias f4 [128]
0	0xbe761f82	-0.24035457
1	0xbd91a3ec	-0.07111344
2	0x3d837312	0.06418432
3	0x3c67d8f6	0.014150849
4	0x3dbd7ac6	0.09251933
5	0x3c467bde	0.012114493
6	0x3d93e1ce	0.07220803
7	0x3e0bf7d1	0.13668753
8	0xbe75799c	-0.23972172
9	0x3dd9ba9a	0.106312945
10	0xbe82ec68	-0.2557099
11	0xbe61e06e	-0.2205827
12	0x3e520648	0.20510209
13	0x3da8caf6	0.08241837
14	0x3ea89c9c	0.32931983
15	0xbcd764e1	-0.02629322
16	0x3e1b6e7c	0.15178865
17	0x3ddf9f82	0.109190956
18	0xbe861931	-0.26191095
19	0xbe33bf0c	-0.17553347
20	0xbe8a03bd	-0.26955977
21	0xbdd3bc9c	-0.10338709
22	0x3cc1549a	0.023599911
23	0x3e872539	0.26395586
24	0x3e16e8d7	0.14737259
25	0x3d72e91a	0.059304334
26	0xbdd5c96a	-0.10438807
27	0x3d8d2bd2	0.06893124
28	0x3d8adaa4	0.06779984
29	0x3ea53e17	0.32273933
30	0xbdc7960d	-0.09745417
31	0x3de0f7a1	0.109847315
32	0x3e51153d	0.20418258
33	0xbc78f8bc	-0.015196022
34	0x3e8d1113	0.2755209
35	0xbdae15b7	-0.085002355
36	0xbe679e5c	-0.22619003
37	0x3e88f333	0.26748046
38	0x3e996a8d	0.29964104
39	0x3e9e93d0	0.30972147
40	0xbe185d9b	-0.14879458
41	0xbe56c8d8	-0.20975053
42	0xbd1df595	-0.038564283
43	0x3e1a0919	0.15042533
44	0xbe825a63	-0.25459585
45	0x3e464f35	0.19366153
46	0xbe22c9a7	-0.15897237
47	0x3c74c078	0.014938466
48	0xbcf6f452	-0.030145798
49	0x3e1106a2	0.14162686
50	0x3e76b320	0.24091768
51	0x3d1fa068	0.038971335
52	0xbe86c20f	-0.2631993
53	0x3e682242	0.22669318
54	0xbe21edaf	-0.15813325
55	0xbe002588	-0.12514317
56	0x3d6a69a0	0.057229638
57	0xbd0dcda7	-0.034619953
58	0x3d4ca9c4	0.04996659
59	0x3e6f28ad	0.2335536
60	0x3ead1d26	0.338113
61	0xbe3c267a	-0.18374053
62	0xbc4a49f1	-0.012346731
63	0x3e212c60	0.15739584
64	0xbe84c401	-0.2593079
65	0xbd77ef72	-0.060531087
66	0xbe65ee09	-0.22454084
67	0xbe93fa8e	-0.28902096
68	0xbd78d3f7	-0.06074902
69	0x3d80dc3b	0.06292006
70	0x3d0264bf	0.03183436
71	0x3e0cbf5e	0.13744876
72	0xbe8394ac	-0.25699365
73	0x3e647e6b	0.2231385
74	0x3e4876d7	0.19576584
75	0x3e4f2a8a	0.20231071
76	0x3e8e7d73	0.27830085
77	0xbd20483e	-0.039131396
78	0xbc8c33a3	-0.017114466
79	0x3e54b8a7	0.20773564
80	0xbd4bba64	-0.049738303
81	0xbe99881c	-0.29986656
82	0xbe8f51ac	-0.27991998
83	0xbe0e2512	-0.13881329
84	0xbd9ff830	-0.0781101
85	0xbcb4d2e1	-0.022073211
86	0x3dd86086	0.105652854
87	0x3e438406	0.19093332
88	0xbe8816c9	-0.26579884
89	0x3c7cf9ad	0.015440387
90	0xbdd573f0	-0.10422504
91	0xbc162014	-0.009162921
92	0x3eabf4c1	0.3358517
93	0xbe84b1bb	-0.25916848
94	0x3ccdaac5	0.025105843
95	0x3de8fb7d	0.113760926
96	0x3e6441d5	0.22290738
97	0xbe3b0093	-0.18261938
98	0x3dcb104f	0.0991522
99	0xbe74096b	-0.23831718
100	0x3ea6d988	0.32587838
101	0x3e4d9951	0.20078017
102	0xbd98b099	-0.07455558
103	0x3e9e9ba4	0.3097812
104	0x3e59ad20	0.21257448
105	0xbccbbf89	-0.024871605
106	0xbe2b49e5	-0.16727407
107	0xbddcb670	-0.10776985
108	0xbea699b0	-0.3253913
109	0x3e2c753f	0.16841601
110	0xbce5b61e	-0.028040942
111	0xbce480ca	-0.027893443
112	0x3d41232e	0.04715269
113	0xbe8e26dc	-0.27764022
114	0x3e5c42a2	0.21509793
115	0xbd344c6b	-0.04401819
116	0x3e2f554c	0.17122382
117	0x3e2c4d8f	0.16826461
118	0x3dcbb3e8	0.09946424
119	0x3c94e0bf	0.018173574
120	0xbe09b1c8	-0.13446724
121	0x3d833ebf	0.06408452
122	0xbe1ce5a8	-0.15321982
123	0xbd1dc5d5	-0.038518745
124	0xbe04b2b6	-0.12958798
125	0x3e87d7b9	0.2653177
126	0xbdf4c940	-0.11952448
127	0x3dd77d28	0.105219185

fc.3.weight f4 [3, 128]
0	0x3dacf764	0.084456235
1	0x3d3601ae	0.044435196
2	0x3d8be55f	0.068308584
3	0xbcee9672	-0.029124472
4	0x3dabe9ae	0.0839418
5	0xbc863d5f	-0.016386686
6	0x3c5d1755	0.013494332
7	0x3d562ef9	0.05229089
8	0xbdb66c40	-0.08907366
9	0xbd5eba57	-0.054376926
10	0xbd5e7fa8	-0.05432096
11	0xbd79f7da	-0.061027385
12	0x3d81c470	0.063362956
13	0xbdaa059a	-0.0830185
14	0x3d2ef41a	0.042713262
15	0xbd8cf8d4	-0.06883398
16	0x3cccf8e5	0.025021026
17	0x3ce87dae	0.028380241
18	0x3db089f6	0.08620064
19	0xbcfa32a4	-0.030541725
20	0xbd7937e1	-0.060844306
21	0x3db0f600	0.08640671
22	0x3d8887e9	0.06666548
23	0x3d0dcd04	0.034619346
24	0x3c016523	0.007897648
25	0x3d3a2501	0.045445446
26	0x3dede962	0.1161678
27	0x3d08cb44	0.033396974
28	0xbc796cf4	-0.01522373
29	0xbd6e4a05	-0.05817606
30	0xbd4d9fe8	-0.050201327
31	0x3db3e0bc	0.08783099
32	0x3c67b03b	0.014141138
33	0xbd99a2d5	-0.07501761
34	0x3d382899	0.044960592
35	0x3c5e6c3f	0.013575613
36	0xbdb58dd7	-0.088649444
37	0xbdbcedad	-0.092250206
38	0xbcd90477	-0.026491387
39	0x3d060366	0.032718085
40	0xbc9ff418	-0.019525573
41	0xbd7af81e	-0.06127178
42	0xbde4d818	-0.11174029
43	0xbde4c4b7	-0.11170333
44	0xbd52a52f	-0.051427063
45	0x3db7523a	0.0895123
46	0x3d486e0c	0.048933074
47	0x3b5de265	0.0033856865
48	0xbdc35e4f	-0.09539472
49	0xbd8d1367	-0.06888466
50	0x3cf01982	0.029309038
51	0xbb83c27d	-0.0040209875
52	0xbc612865	-0.013742541
53	0x3d331e0f	0.043729838
54	0x3dacc235	0.084354796
55	0x3b0cf777	0.0021509805
56	0xbd858ee7	-0.06521397
57	0xbd703b8e	-0.058650546
58	0x3d4731b2	0.048631378
59	0xbd54df47	-0.051970746
60	0x3d107a47	0.035272863
61	0x3dc3bd86	0.09557633
62	0xbd1c269c	-0.03812276
63	0xbce1a882	-0.027546171
64	0x3cd08773	0.025455212
65	0x3dd48d74	0.103785425
66	0x3c8eac1b	0.01741605
67	0x3c8c4aaf	0.017125456
68	0xbd5b5a6f	-0.05355304
69	0x3c4c58bb	0.012472327
70	0xbdeaa33d	-0.114569165
71	0xbc357a93	-0.011076587
72	0xbd4e1ef9	-0.050322507
73	0x3d8db6a0	0.069195986
74	0xbd534fef	-0.051589902
75	0xbba0aa8c	-0.0049031433
76	0xbc7d587b	-0.01546299
77	0x3c8c9a19	0.017163323
78	0x3d8792e8	0.06619817
79	0x3d7cca98	0.061716646
80	0x3d0fec04	0.03513719
81	0xbdba0abc	-0.09084079
82	0x3dc034c6	0.09385066
83	0xbda1ea8d	-0.07906065
84	0xbc55e454	-0.013054926
85	0xbdd93d75	-0.10607425
86	0xbb4d5ba8	-0.003133515
87	0xbdc0e318	-0.09418315
88	0xbdabe750	-0.08393729
89	0xbb7ccd33	-0.0038574457
90	0x3c597bcf	0.013274147
91	0x3d945611	0.07242978
92	0xbd47807a	-0.04870651
93	0x3c2fcab5	0.0107294815
94	0x3d59f373	0.053210687
95	0x3d7b0edd	0.06129347
96	0x3dc93b94	0.09825817
97	0x3c7ed815	0.015554448
98	0xbd2e4d49	-0.042554174
99	0x3d6cc335	0.05780335
100	0x3da5da02	0.08098222
101	0xbce1fcde	-0.027586397
102	0x3c4f63bf	0.012658059
103	0x3d4119ea	0.047143854
104	0x3d4e3e30	0.050352275
105	0x3cb7ae7e	0.022422072
106	0xbcd8b07b	-0.02645134
107	0xbcf21abc	-0.029553764
108	0xbd0f399a	-0.034967043
109	0xbd87c4cf	-0.06629335
110	0x3cde2225	0.02711589
111	0x3de20916	0.11036889
112	0x3d5c972e	0.053855114
113	0xbc8dee5f	-0.017325578
114	0xbd7f1b27	-0.062281754
115	0xbd451f50	-0.048125565
116	0x3c7b9546	0.015355414
117	0x3c4f8c17	0.012667677
118	0xbd2d852f	-0.042363342
119	0x3d84dea4	0.06487778
120	0x3d5698ad	0.052391697
121	0x3d8e0490	0.06934464
122	0xbd818645	-0.06324438
123	0xbb983a5a	-0.004645628
124	0xbd313922	-0.043267377
125	0xbdaaf989	-0.08348376
126	0xbd2b7ced	-0.041867185
127	0x3ce2bb14	0.027677096
128	0xbd1658af	-0.03670567
129	0xbddd693b	-0.10811087
130	0x3d9b5483	0.07584479
131	0x3db2b973	0.08726778
132	0xbd8ec436	-0.06971018
133	0xbc1bd1a4	-0.009510431
134	0xbb8380e9	-0.00401317
135	0xbe031815	-0.12802155
136	0x3d303ac0	0.04302478
137	0x3cb5d37c	0.02219557
138	0x3bd77b8b	0.0065760068
139	0x3d0375d3	0.032094788
140	0x3d323b58	0.043513626
141	0xbcaaed30	-0.020865053
142	0xbd1a3c9a	-0.03765545
143	0x3d9cc9f7	0.07655709
144	0xbdbb8780	-0.09156704
145	0xbd00734b	-0.031359952
146	0xbcedaa6d	-0.02901193
147	0x3dcd9e9d	0.10040019
148	0x3d9e061c	0.07716009
149	0x3d9db2bd	0.07700107
150	0xbd5d3098	-0.05400142
151	0xbdb42978	-0.08796972
152	0xbd3fc6ee	-0.046820574
153	0x3db19149	0.08670289
154	0xbdb85bba	-0.090018705
155	0xbdc86558	-0.09784955
156	0x3ab073f1	0.0013462288
157	0xbd3fd509	-0.046834026
158	0xbe0bad5b	-0.13640349
159	0xbd755fd4	-0.059905842
160	0x3de2723a	0.11056943
161	0x3cf225cd	0.02955904
162	0xbda25266	-0.079258725
163	0xbd860de1	-0.06545616
164	0x3d4dc7e3	0.050239455
165	0x3d173cb6	0.036923133
166	0x3d8b78a1	0.068101175
167	0x3d7bfc7d	0.06152009
168	0x3d83bf16	0.06432931
169	0x3dec833c	0.115484685
170	0xbe0381c1	-0.12842466
171	0xbc311526	-0.010808265
172	0xbd0bdd9e	-0.034146897
173	0xbd81a13a	-0.0632958
174	0x3af0d2a4	0.0018373323
175	0xbd2079a8	-0.03917852
176	0xbd72bff3	-0.05926509
177	0x3c6571b7	0.0140041625
178	0x3d225216	0.039629065
179	0x3e0b4b68	0.13602984
180	0x3dd93f2d	0.10607753
181	0x3d5836d8	0.052786678
182	0xbe14b00e	-0.14520285
183	0xbd94348e	-0.072365865
184	0xbdedb802	-0.11607362
185	0x3c683dd5	0.014174898
186	0x3dc42c3c	0.095787495
187	0xbd6eef6b	-0.058333796
188	0xbd1ae7d6	-0.037818752
189	0x3ce7efd8	0.028312609
190	0x3c567622	0.0130896885
191	0x3d1c4a5c	0.038156852
192	0xbd41fb11	-0.047358576
193	0xbdb69ee7	-0.08917027
194	0x3d121bb6	0.03567096
195	0x3d3b3352	0.04570324
196	0x3e1cc400	0.15309143
197	0xbc111fa0	-0.008857638
198	0xbe25d6e9	-0.16195263
199	0xbd00485a	-0.031319
200	0xbd5ef6da	-0.054434635
201	0x3c983017	0.018577619
202	0x3d5dd981	0.054162506
203	0x3db3577e	0.08756922
204	0xbd02d672	-0.031942792
205	0x3cbf5097	0.023353858
206	0xbd2bbd89	-0.0419288
207	0x3d68a05b	0.056793552
208	0x3c9cd51d	0.01914459
209	0x3c8f2aa4	0.017476387
210	0x3d884d48	0.06655365
211	0x3d900609	0.07032401
212	0x3cfed2b1	0.031106325
213	0xbcbdf476	-0.023187857
214	0x3d919e2d	0.07110248
215	0x3d321ee8	0.043486506
216	0xbd8497c2	-0.06474258
217	0x3d1a9cb4	0.0377471
218	0xbdb96821	-0.09053064
219	0x3cafd5ae	0.021464195
220	0x3cf70897	0.030155463
221	0xbd6d4c5b	-0.057934146
222	0xbdb7b89c	-0.08970758
223	0xbe1b2edc	-0.15154594
224	0xbd19fb67	-0.03759327
225	0xbcf57f50	-0.029967934
226	0xbd35e61f	-0.044408914
227	0x3c76346f	0.01502715
228	0xbcc1d144	-0.023659356
229	0x3de7623a	0.11298032
230	0xbb26fe0d	-0.0025481016
231	0x3d8fa693	0.070141934
232	0x3d613b3e	0.05498814
233	0xbdc17966	-0.09446983
234	0x3d1c61e1	0.038179282
235	0xbc4f4d25	-0.01265267
236	0xbd40513f	-0.046952482
237	0x3dafb44e	0.08579312
238	0xbd61ec94	-0.05515726
239	0xbcde335f	-0.027124105
240	0x3cf36b3e	0.029714223
241	0x3dceb8a6	0.10093813
242	0xbdc21c1b	-0.09478017
243	0xbcd5b54b	-0.026087424
244	0x3d017310	0.031603873
245	0xbdfe225d	-0.12408898
246	0xbdeba649	-0.11506326
247	0xbd8a41a0	-0.06750798
248	0xbd07a343	-0.033114683
249	0x3bcd22fe	0.006260275
250	0xbd95ebe1	-0.07320381
251	0x3c48db4b	0.012259315
252	0xbd265c95	-0.040615637
253	0x3cf411d5	0.02979366
254	0x3cf4fe90	0.029906541
255	0xbc3b1431	-0.011418388

fc.3.bias f4 [3]
0	0x3cdaec53	0.026724016
1	0x3c7859e3	0.015158149
2	0xbcb54de0	-0.02213186

onnx::LSTM_95 f4 [1, 36, 9]
0	0x3e80b4d6	0.25137967
1	0xbebd7e8f	-0.3701062
2	0xbe437fbc	-0.19091696
3	0xbd8d6593	-0.06904139
4	0xbde43642	-0.11143161
5	0x3c271e1d	0.010200051
6	0xbe3d2f60	-0.18475103
7	0x3e5477ad	0.20748778
8	0xbd28af88	-0.041183025
9	0xbe6c0dee	-0.23052189
10	0x3daa6e1b	0.08321782
11	0x3e0fd454	0.1404584
12	0x3d2744a6	0.040836953
13	0x3e5a1410	0.21296716
14	0xbb7106ca	-0.0036777728
15	0x3d71aea1	0.05900443
16	0x3d776e2c	0.060407802
17	0x3e934a04	0.28767407
18	0xbe8e9705	-0.27849594
19	0x3dd1d8da	0.10246439
20	0xbb018018	-0.0019760188
21	0x3e44b5c6	0.19209966
22	0x3df54bde	0.11977361
23	0xbda86162	-0.08221699
24	0xbe8a5c43	-0.27023515
25	0x3c2c6363	0.0105217425
26	0x3e84fd30	0.25974417
27	0xbda1333c	-0.078711
28	0x3dd36ad4	0.1032311
29	0xbe935418	-0.28775096
30	0x3df1c2d6	0.1180474
31	0xbd8cce21	-0.068752535
32	0x3e4dc2ab	0.20093791
33	0x3e470d27	0.19438611
34	0x3ea862bb	0.32887825
35	0x3d736287	0.059420135
36	0xbdd31930	-0.103075385
37	0xbebbb7ba	-0.3666361
38	0x3e84d77f	0.2594566
39	0x3e2a6103	0.1663857
40	0xbe71718f	-0.23578475
41	0xbd2d1c01	-0.042263035
42	0x3df0cc1a	0.11757679
43	0x3d01632f	0.03158873
44	0x3e8f524c	0.27992475
45	0xbe39d43a	-0.18147364
46	0x3e8ef488	0.27920938
47	0xbc5a59ea	-0.013327101
48	0x3e78d007	0.24298106
49	0x3e763bc9	0.24046244
50	0x3d225930	0.039635837
51	0xbd97bbb0	-0.074088454
52	0x3e8b8981	0.27253345
53	0x3ea3691d	0.31916133
54	0xbe5043c3	-0.20338349
55	0xbe5fd12c	-0.21857136
56	0x3dc7b8fd	0.097520806
57	0xbe5dec54	-0.21672183
58	0x3e800567	0.25004122
59	0xbe936aaa	-0.28792316
60	0x3cb1bb68	0.021695808
61	0x3e95ad05	0.29233566
62	0xbe5d7299	-0.21625747
63	0xbd7d66e4	-0.061865702
64	0x3db481b8	0.088138044
65	0xbe604a89	-0.21903433
66	0xbd934d6e	-0.07192503
67	0x3df9a4a7	0.12189608
68	0xbd392527	-0.045201447
69	0x3e039008	0.12847912
70	0xbd591359	-0.052996967
71	0x3d35bd37	0.044369902
72	0x3e75fcad	0.2402217
73	0xbea21b8c	-0.31661642
74	0xbdf9dcc4	-0.12200311
75	0xbe7328da	-0.23746052
76	0x3de126e0	0.10993743
77	0x3e86c7a4	0.2632419
78	0x3d8b4b3d	0.0680146
79	0x3e989f24	0.29808915
80	0x3d10f04d	0.03538542
81	0xbe393d66	-0.18089828
82	0x3e000a7c	0.12504
83	0x3e5e466a	0.21706548
84	0x3e15502e	0.14581367
85	0xbccb916c	-0.024849616
86	0xbddb6509	-0.1071263
87	0x3b6c31db	0.0036040458
88	0xbc940c22	-0.018072192
89	0xbcf9aebe	-0.030478831
90	0x3d294c7e	0.041332714
91	0x3e4d4c71	0.20048691
92	0xbe4728a8	-0.19449103
93	0xbe3a15f8	-0.18172443
94	0x3d1ee221	0.038789872
95	0x3e8172ca	0.2528289
96	0x3e9b480f	0.30328414
97	0x3e1b853e	0.15187547
98	0x3e46ebf4	0.19425946
99	0x3d99bdb4	0.07506886
100	0xbd35dbd4	-0.044399098
101	0x3e52cab9	0.20585145
102	0xbe1451a4	-0.14484268
103	0xbe3ec9ac	-0.18631619
104	0xbe2a9d34	-0.1666153
105	0xbe32f7f2	-0.17477396
106	0xbd4dc543	-0.05023695
107	0x3e02a742	0.12759116
108	0x3e0969b2	0.13419226
109	0xbde81472	-0.11332025
110	0x3ea52b2c	0.322595
111	0x3dbcb03b	0.09213301
112	0x3e636d6e	0.22209713
113	0xbdac73a1	-0.08420492
114	0xbe67e8fa	-0.22647467
115	0x3e821bca	0.25411826
116	0x3e6358e3	0.22201876
117	0xbe91ed9e	-0.285016
118	0xbe5f9296	-0.21833262
119	0x3d1c0c34	0.038097575
120	0xbd88ad97	-0.06673735
121	0xbe30e591	-0.17275073
122	0x3d86f357	0.06589382
123	0x3eb9b24e	0.36268848
124	0x3e563bc2	0.20921233
125	0x3e06b544	0.13155085
126	0xbe9696fb	-0.29412064
127	0x3e20f079	0.15716733
128	0x3ddfd152	0.109285966
129	0x3df95e17	0.12176149
130	0xbe4cb77a	-0.19991866
131	0x3ea14ed5	0.31505457
132	0x3d7afdb7	0.061277118
133	0xbddf5b01	-0.109060295
134	0xbe61943f	-0.22029208
135	0xbca283ed	-0.019838298
136	0x3e18d224	0.14923912
137	0x3e374375	0.17896827
138	0x3d84a14c	0.064760774
139	0x3e4057b7	0.1878346
140	0xbe2192c3	-0.15778641
141	0xbe9556e3	-0.29167852
142	0x3e0bf404	0.13667303
143	0x3e6d78d1	0.23190619
144	0xbe4497d8	-0.19198549
145	0xbe900870	-0.28131437
146	0x3eb7fbc2	0.35934263
147	0xbe05f854	-0.13083011
148	0x3e32aa6f	0.17447828
149	0xbce3e70e	-0.027820136
150	0x3e24b87b	0.16085999
151	0x3e0ed910	0.1394999
152	0xbe30a081	-0.17248727
153	0x3e90165f	0.28142068
154	0xbe29fefd	-0.16601177
155	0x3dcfe240	0.10150576
156	0xbd12ede3	-0.035871398
157	0xbe66aee3	-0.22527651
158	0x3d0d4e33	0.034498405
159	0xbdb422eb	-0.087957226
160	0xbe9e8d5b	-0.3096722
161	0xbc4c5087	-0.012470371
162	0xbd4af520	-0.049550176
163	0x3e01a219	0.12659492
164	0x3ce07426	0.027399134
165	0xbe5dd1da	-0.21662083
166	0xbe5f11fe	-0.21784207
167	0x3e4edc92	0.20201328
168	0xbca6a986	-0.020344507
169	0x3db2c399	0.087287135
170	0xbcc80e69	-0.024420934
171	0xbca977dd	-0.020687038
172	0xbe6c439f	-0.2307267
173	0x3ea48435	0.32132116
174	0x3e6647eb	0.22488372
175	0xbe8fc413	-0.2807928
176	0x3e621d08	0.22081387
177	0x3d34fd43	0.04418684
178	0x3e946516	0.28983372
179	0x3ea34667	0.3188965
180	0xbeb53212	-0.35389763
181	0x3c5a1614	0.013310928
182	0xbe55fa72	-0.20896319
183	0xbe23e569	-0.16005482
184	0xbc836f17	-0.016044183
185	0x3ea077c9	0.3134139
186	0xbe96a997	-0.29426262
187	0x3eb5a965	0.354808
188	0x3dc7dc7e	0.097588524
189	0x3ea801d0	0.32813883
190	0x3dd07c3d	0.101799466
191	0xbe79a1dc	-0.2437815
192	0xbdf97109	-0.12179763
193	0x3e052f84	0.13006407
194	0x3e005736	0.12533268
195	0x3e88c9e3	0.26716527
196	0xbe31a482	-0.17347911
197	0x3e766907	0.24063502
198	0x3e83e981	0.25764087
199	0xbe985aea	-0.29756862
200	0xbd88d58b	-0.06681355
201	0xbe7b9a67	-0.24570619
202	0xbd24a84d	-0.040199567
203	0xbe1b436d	-0.1516244
204	0x3e94c536	0.2905671
205	0xbd9d2d0b	-0.07674607
206	0xbe75433e	-0.23951432
207	0xbe065dd6	-0.13121733
208	0xbdb97027	-0.090545945
209	0xbc45d39f	-0.01207438
210	0xbe954f2a	-0.2916196
211	0x3e590daa	0.21196619
212	0x3ea091ee	0.31361336
213	0xbe9a722a	-0.30165225
214	0xbe4d708e	-0.20062467
215	0x3e512464	0.20424038
216	0x3d500217	0.050783243
217	0xbd9e14ac	-0.077187866
218	0x3e184b7a	0.14872542
219	0x3e227704	0.15865713
220	0xbd071394	-0.032977656
221	0xbdef4ea0	-0.116849184
222	0xbe69c5c7	-0.22829352
223	0xbdc30f62	-0.095244184
224	0xbe7d300e	-0.24725363
225	0x3e0c1e6c	0.1368348
226	0x3df5616e	0.11981474
227	0x3e8d7b70	0.27633238
228	0x3c4d63e8	0.012536027
229	0xbe2f669d	-0.17128988
230	0x3ca2b281	0.019860508
231	0x3ba2f896	0.0049734814
232	0xbc8644c2	-0.016390208
233	0xbe7fdbcf	-0.24986194
234	0x3e4d9f54	0.2008031
235	0x3e1fb4c1	0.15596296
236	0xbddb560a	-0.1070977
237	0x3ea0cdb7	0.31406948
238	0x3e04de41	0.12975408
239	0xbe5da590	-0.21645188
240	0xbe752750	-0.23940778
241	0x3e3246d0	0.17409825
242	0xbd200d60	-0.039075255
243	0xbdcc519c	-0.09976503
244	0x3bad79b4	0.005294049
245	0x3d946064	0.072449476
246	0xbcd1d864	-0.025615878
247	0xbdca3ee4	-0.09875277
248	0xbe0d00c7	-0.13769828
249	0x3e0bb631	0.1364372
250	0x3d5e67b0	0.054298103
251	0xbe257f64	-0.16161877
252	0xbede34f2	-0.4339977
253	0xbea3923f	-0.31947514
254	0x3d572f40	0.052535295
255	0xbe8a60f5	-0.27027097

onnx::LSTM_96 f4 [1, 36, 9]
0	0xbe73f49f	-0.23823784
1	0xbdd9a1a4	-0.10626534
2	0x3de7be1e	0.11315559
3	0x3c901f60	0.017593086
4	0xbe924d0e	-0.28574413
5	0x3e102129	0.1407515
6	0xbb562aa4	-0.0032679224
7	0x3ea1c0c7	0.3159239
8	0xbe8adacc	-0.27120054
9	0x3eaddda7	0.3395817
10	0x3cebe471	0.028795453
11	0x3ea22ea4	0.3167621
12	0xbe870d48	-0.2637732
13	0xbe336bd5	-0.17521603
14	0xbe170b19	-0.14750327
15	0xbe9c3e8e	-0.30516475
16	0x3b967e73	0.0045927106
17	0xbec6e216	-0.38844365
18	0xbe8ddc93	-0.27707347
19	0x3ea0baf1	0.31392625
20	0xbd06f875	-0.03295179
21	0x3d887a5d	0.06663964
22	0x3e312393	0.17298727
23	0xbe873848	-0.26410127
24	0xbe335803	-0.17514043
25	0x3e5f3bd3	0.21800165
26	0xbeb37e8d	-0.35057488
27	0x3e15756c	0.14595574
28	0x3e8f7300	0.28017426
29	0xbde8f68c	-0.1137515
30	0xbe7dd710	-0.24789071
31	0xbd3ccb36	-0.046092235
32	0xbe0ff93e	-0.14059922
33	0x3ea09464	0.31363213
34	0xbe8d0f93	-0.27550945
35	0xbe97c84f	-0.2964501
36	0xbe293840	-0.16525364
37	0xbe873884	-0.26410306
38	0x3e6f90db	0.23395102
39	0x3dbf7e51	0.09350265
40	0x3dc4bd10	0.09606373
41	0xbe05e932	-0.13077238
42	0x3e99ad7f	0.3001518
43	0xbd5dc608	-0.054143935
44	0xbc9ec23b	-0.019379726
45	0x3d44422a	0.04791466
46	0x3e83f2e1	0.2577124
47	0x3e75e1f6	0.24011979
48	0xbaab7fa6	-0.0013084307
49	0xbe856d90	-0.26060152
50	0xbd94d046	-0.072662875
51	0x3d97643b	0.07392164
52	0xbd38eabf	-0.045145746
53	0xbe797583	-0.24361233
54	0xbe8ce78d	-0.2752041
55	0x3e9cd24a	0.30629188
56	0xbe7114fc	-0.23543161
57	0xbd9fc81e	-0.07801841
58	0x3dcabf0e	0.09899722
59	0xbdbc2648	-0.09186989
60	0x3d848fd9	0.06472749
61	0xbdff3f59	-0.124632545
62	0xbe8e3c14	-0.2778021
63	0x3e6e0ef8	0.23247898
64	0x3ec300e0	0.38086605
65	0xbe39a552	-0.18129471
66	0xbe4e494a	-0.20145145
67	0x3dcd520a	0.10025413
68	0xbe1b8814	-0.15188628
69	0xbc354280	-0.011063218
70	0xbe9aecd2	-0.30258805
71	0x3e715832	0.235688
72	0xbe291165	-0.16510542
73	0x3e565ef1	0.20934655
74	0xbe80e220	-0.2517252
75	0xbdbfac2e	-0.093590125
76	0xbe03152f	-0.1280105
77	0x3e034abb	0.12821476
78	0xbe72dabe	-0.23716256
79	0xbce6aca5	-0.028158495
80	0x3e94ebeb	0.2908624
81	0xbe3872df	-0.1801257
82	0x3e2b2414	0.16712981
83	0xbe968ba9	-0.29403427
84	0xbc324c3b	-0.010882433
85	0x3dd59b25	0.10429982
86	0xbe64169d	-0.22274251
87	0x3e0916c1	0.13387586
88	0x3e4797d0	0.19491506
89	0x3e86b1c3	0.26307496
90	0x3e3fe1b0	0.18738437
91	0xbc6ea75d	-0.01456627
92	0x3e190670	0.14943862
93	0x3e53741f	0.20649765
94	0x3e1ca129	0.15295853
95	0x3e6f92c5	0.23395832
96	0xbe67ee4f	-0.22649501
97	0xbdf0e37f	-0.117621414
98	0xbe21a194	-0.15784293
99	0x3e389757	0.18026482
100	0x3dc495b8	0.09598869
101	0xbeab041b	-0.3340157
102	0xbd35b85a	-0.044365264
103	0xbde6ca4c	-0.11269054
104	0xbd62bfe9	-0.0553588
105	0xbe87b92f	-0.2650847
106	0x3d97bfdd	0.07409642
107	0x3e0f0414	0.139664
108	0xbccbf81c	-0.024898581
109	0xbe3ec9c0	-0.18631649
110	0xbe919bfe	-0.28439325
111	0x3db2430d	0.08704195
112	0xbd631581	-0.05544043
113	0xbe0e8eb1	-0.1392162
114	0x3e1d3a76	0.15354332
115	0xbe5354cf	-0.2063782
116	0xbd9c8ec4	-0.07644418
117	0x3e50780e	0.20358297
118	0xbd50f98d	-0.05101924
119	0xbd88f0b5	-0.06686536
120	0xbdf956c9	-0.12174756
121	0xbd0936fe	-0.03349971
122	0x3e5cc8b9	0.21560945
123	0xbea6beff	-0.32567593
124	0xbdefe04f	-0.11712705
125	0x3e4635f3	0.19356517
126	0x3c866a80	0.016408205
127	0x3eb8a931	0.36066583
128	0x3ea2e772	0.31817204
129	0xbe4f71fd	-0.20258327
130	0x3ddd5b35	0.10808412
131	0xbb4faa04	-0.003168703
132	0x3e8b2282	0.27174765
133	0xbe9762bc	-0.29567516
134	0x3e557893	0.20846777
135	0x3e42ecbe	0.19035622
136	0x3ea4b1ab	0.321668
137	0xbdec5c88	-0.115410864
138	0x3dab5a8c	0.0836688
139	0x3e383f47	0.17992888
140	0xbe7af08b	-0.24505822
141	0xbdbfc1f0	-0.093631625
142	0x3e971859	0.29510763
143	0x3bc8cc58	0.0061278753
144	0x3df7919f	0.12088322
145	0xbe86de8b	-0.26341662
146	0xbe6cf95f	-0.23142003
147	0x3d488f1c	0.048964605
148	0xbe9ec4ad	-0.31009427
149	0x3ea03a32	0.312944
150	0x3daa1aba	0.08305879
151	0x3e4d122e	0.20026466
152	0xbe0291a6	-0.12750873
153	0xbcb2fb93	-0.021848476
154	0x3e48ab9a	0.19596711
155	0xbe87d633	-0.2653061
156	0xbe806fce	-0.250853
157	0x3d5c0369	0.05371419
158	0x3e1c4714	0.15261489
159	0x3da77308	0.08176237
160	0x3d721ece	0.05911141
161	0x3e7441c4	0.23853213
162	0x3ebd58e2	0.36981875
163	0x3e3e48a4	0.18582398
164	0xbe8fbd8c	-0.280743
165	0xbe9f8a91	-0.31160405
166	0xbcc2f4e8	-0.023798421
167	0xbd33317f	-0.043748375
168	0x3dc43cdb	0.0958192
169	0x3e43fa28	0.19138396
170	0x3e416344	0.18885523
171	0x3ec7d82d	0.39032117
172	0xbcd03024	-0.02541358
173	0xbdd72c80	-0.105065346
174	0xbbaab102	-0.0052090893
175	0x3de49521	0.111612566
176	0x3e886793	0.2664152
177	0xbd3d966d	-0.046286035
178	0x3c0ae346	0.008477038
179	0xbdd8e2c3	-0.10590126
180	0xbe9bf2d2	-0.30458695
181	0x3b757ff9	0.003746031
182	0xbc9b9618	-0.018992469
183	0x3df444bc	0.119271725
184	0xbe0cc55e	-0.13747165
185	0x3e8f2b52	0.27962738
186	0xbe27a7bf	-0.16372584
187	0xbe5ffbbd	-0.21873374
188	0x3e98f635	0.2987534
189	0x3e8e7ff7	0.27832004
190	0xbe74ec27	-0.2391821
191	0x3e0964e9	0.134174
192	0x3df224d5	0.118234314
193	0xbd78390c	-0.06060128
194	0x3e2a2fcf	0.166198
195	0x3e1cb7fd	0.15304561
196	0xbd736df0	-0.059431016
197	0x3d2aa0f7	0.041657414
198	0x3e006cea	0.12541547
199	0x3ddb213b	0.106996976
200	0x3dcc925f	0.099888556
201	0xbd1d76ed	-0.038443495
202	0xbea987eb	-0.3311151
203	0xbc142fcd	-0.0090446
204	0xbe5fd634	-0.21859056
205	0x3e0776d1	0.13228919
206	0xbe4d6a97	-0.20060192
207	0x3e56b26e	0.20966503
208	0x3e972ca6	0.29526252
209	0x3e592530	0.21205592
210	0xbe0e76c7	-0.13912497
211	0xbe3da299	-0.18519057
212	0xbe32f061	-0.1747451
213	0x3db1effc	0.086883515
214	0x3e40cf3c	0.18829054
215	0xbd80bb16	-0.06285684
216	0x3c5d8389	0.01352013
217	0xbda6cf04	-0.08144954
218	0x3e6909e0	0.22757673
219	0x3e3241c7	0.17407905
220	0xbd8b8822	-0.06813075
221	0x3e21d419	0.15803565
222	0x3e838385	0.2568628
223	0x3c5a5d3f	0.013327896
224	0xbe7ec56d	-0.2488
225	0x3e936129	0.28785065
226	0xbe11af2d	-0.1422698
227	0x3d5f0fc0	0.05445838
228	0x3e6c84a6	0.23097476
229	0xbeadde0e	-0.33958477
230	0x3d8e775b	0.06956359
231	0xbe6adb8e	-0.22935316
232	0x3e9f0100	0.3105545
233	0x3e029a17	0.12754093
234	0x3e5492ff	0.207592
235	0x3ea431df	0.320693
236	0xbe6103be	-0.21974084
237	0x3e0b0e4b	0.13579671
238	0x3d85568f	0.0651065
239	0xbdb327ca	-0.087478235
240	0x3e0654e9	0.13118328
241	0xbe9bcd5a	-0.30430108
242	0x3db9c47f	0.09070682
243	0x3e0dd5ee	0.13851139
244	0x3e6aa914	0.2291606
245	0x3da93d4c	0.082636446
246	0xbd887cb4	-0.0666441
247	0xbe36d117	-0.17853199
248	0xbe68ec81	-0.22746469
249	0xbe277dd2	-0.1635659
250	0x3dd8b262	0.10580899
251	0xbec0a0e8	-0.37622762
252	0xbd15f191	-0.03660733
253	0x3e13fa38	0.1445092
254	0x3e690110	0.22754312
255	0x3e92c2e9	0.2866433

onnx::LSTM_97 f4 [1, 72]
0	0x3e3c985f	0.184175
1	0xbddff690	-0.109357
2	0x3de61925	0.11235265
3	0xbe79ae71	-0.2438295
4	0x3d89a83c	0.06721541
5	0x3d58bcc5	0.0529144
6	0xbe0e29a8	-0.13883078
7	0xbdea19b0	-0.11430681
8	0xbe03040e	-0.12794515
9	0x3df21e1a	0.11822148
10	0xbbccddfb	-0.006252048
11	0xbd689fbd	-0.056792963
12	0xbe0c9c5d	-0.13731523
13	0xbe55d08a	-0.20880333
14	0xbe9502f2	-0.2910381
15	0xbdb74644	-0.08948949
16	0x3dcbe777	0.09956258
17	0x3e4c8f43	0.19976525
18	0xbe83c997	-0.25739738
19	0xbd7b8259	-0.061403606
20	0x3e297e8f	0.16552185
21	0xbe011c0b	-0.12608354
22	0x3e7c4685	0.24636276
23	0x3d46efbe	0.04856848
24	0xbe4d8b26	-0.20072612
25	0xbdcd70bf	-0.1003127
26	0x3e7dd6fc	0.24789041
27	0x3e385e88	0.18004811
28	0xbe4bce0a	-0.19902816
29	0x3e9fa91f	0.31183717
30	0x3ea25c98	0.31711268
31	0xbe3f5aff	-0.18687056
32	0x3dfcb5a2	0.12339331
33	0xbd1da0ea	-0.038483538
34	0x3dd89a6c	0.10576329
35	0xbca69c4d	-0.020338202
36	0xbe8789b0	-0.26472235
37	0xbcec640a	-0.028856296
38	0x3e355667	0.17708741
39	0xbd0abfff	-0.033874508
40	0xbd6443f4	-0.055728868
41	0xbe903d3c	-0.28171718
42	0x3cc6c381	0.024263145
43	0x3d408ccd	0.047009278
44	0x3ea9aa88	0.33137918
45	0x3ad379ce	0.0016134323
46	0x3e7daf98	0.24774015
47	0x3e3f1f69	0.18664326
48	0x3ea0b199	0.31385496
49	0x3dcb5c0f	0.09929668
50	0x3ea3ad68	0.31968236
51	0x3d9735f6	0.07383339
52	0xbe669f6b	-0.2252175
53	0xbe4c45e5	-0.19948538
54	0xbdcc800f	-0.09985363
55	0xbc870d97	-0.016485972
56	0xbdcb31a8	-0.099215806
57	0x3e30f41d	0.17280622
58	0x3e4367f5	0.19082625
59	0x3e69bded	0.22826357
60	0x3ea92bed	0.33041325
61	0xbc5cdc7b	-0.013480301
62	0xbdf07634	-0.117412955
63	0x3da35fe2	0.079772726
64	0x3ce65ee9	0.028121429
65	0x3dcdd95b	0.10051223
66	0xbe4423ea	-0.19154325
67	0xbe2d4512	-0.1692088
68	0xbdb05317	-0.08609598
69	0xbda96d39	-0.08272786
70	0xbdcef4a8	-0.10105258
71	0xbc272f7a	-0.01020419
